models/checkpoint_actor_local_1.pth (torch_old, 80877 bytes, 6 tensors)

fc1.weight f4 [128, 24]
0	0xba1c4e68	-0.0005962611
1	0x3c69ef75	0.014278282
2	0xbd16a924	-0.0367824
3	0xbf35aa8d	-0.70963365
4	0x3e8aa28b	0.27077135
5	0x3dbc339a	0.0918953
6	0xbe1d4675	-0.15358908
7	0xbf4ce053	-0.8002979
8	0x3e0d03cf	0.13770984
9	0x3e2974f7	0.16548525
10	0xbed01e0f	-0.40647933
11	0xbed738b5	-0.42035452
12	0x3e8eafa6	0.27868384
13	0xbe04e180	-0.12976646
14	0xbed46c03	-0.41488656
15	0xbed8f86f	-0.4237704
16	0x3df11b47	0.11772781
17	0x3e800b15	0.25008455
18	0xbd019a4d	-0.031641293
19	0xbe19690f	-0.14981483
20	0x3e901009	0.28137234
21	0xbea6b4a4	-0.32559693
22	0xbd1b549b	-0.037922483
23	0xbc428edd	-0.011874882
24	0x3ef924eb	0.4866098
25	0xbccb31c6	-0.024804007
26	0x3ea1901f	0.31555268
27	0x3e96947b	0.29410157
28	0xbdd99f6d	-0.10626111
29	0x3dc4d5ed	0.096111156
30	0x3ebd719f	0.3700075
31	0x3e7fc6df	0.24978207
32	0x3f0f75ad	0.56038934
33	0x3be3ca91	0.006951638
34	0xbde8c3db	-0.113654815
35	0x3e84ecfc	0.25962055
36	0xbe4543b9	-0.19264115
37	0xbe0b3da3	-0.13597731
38	0xbd5d815f	-0.054078456
39	0x3e05abca	0.13053814
40	0x3e906e54	0.28209174
41	0x3d06ee67	0.032942202
42	0x3e213c9b	0.15745775
43	0x3ec5f87d	0.38666144
44	0xbeaae817	-0.33380195
45	0xbdc737e0	-0.09727454
46	0x3dead5b3	0.11466541
47	0x3ec3fbff	0.38278195
48	0x3c99dd0c	0.018782161
49	0x3e61903c	0.22027677
50	0x3e90d4f1	0.2828746
51	0xbd27a7c9	-0.040931497
52	0xbe33d666	-0.17562255
53	0x3d5b1090	0.053482592
54	0x3de43c34	0.11144295
55	0xbdd6dc4d	-0.10491238
56	0x3e968858	0.29400897
57	0x3ec9c776	0.3940999
58	0xbc715c58	-0.014731489
59	0xbd07c222	-0.033144124
60	0x3db52edf	0.088468306
61	0xbe476b6c	-0.19474572
62	0xbcb8fa92	-0.022580419
63	0x3bb8ec5d	0.005643411
64	0x3e4cbadf	0.1999316
65	0x3dd88bf9	0.10573573
66	0xbeb35569	-0.350261
67	0xbdbbd78b	-0.09171971
68	0xbdd38a4d	-0.10329113
69	0xbdab7b64	-0.08373144
70	0xbe5be06d	-0.2147233
71	0x3cc9912e	0.02460536
72	0x3e7ce5b3	0.24696998
73	0x3ee4a5be	0.446577
74	0xbf00a0b3	-0.5024521
75	0xbe75b44a	-0.23994556
76	0x3e150663	0.14553218
77	0xbe0f7bce	-0.14012071
78	0xbee4d618	-0.4469459
79	0xbe821e19	-0.25413588
80	0x3cf8a3fb	0.03035163
81	0x3e4c530b	0.19953553
82	0x3dd5936a	0.104285076
83	0x3ee08bfd	0.43856803
84	0xbdbf81db	-0.0935094
85	0x3e1fcef0	0.15606284
86	0x3d2d9b61	0.04238451
87	0x3f03af79	0.51439625
88	0x3ddefcb4	0.10888043
89	0x3e410656	0.18850073
90	0xbe9bc323	-0.30422315
91	0xbca63240	-0.020287633
92	0x3de6908e	0.1125804
93	0x3e7e397c	0.24826616
94	0xbece29d7	-0.40266296
95	0xbc624f68	-0.013812877
96	0x3d1a4930	0.037667453
97	0x3eae0273	0.33986244
98	0x3e3861bb	0.18006031
99	0xbd0000d2	-0.031250782
100	0xbe982e10	-0.29722643
101	0x3d4ca868	0.049965292
102	0x3e5c2f1b	0.21502344
103	0x3cf476f8	0.029841885
104	0x3e6bc85d	0.23025651
105	0x3ea48bf3	0.32138023
106	0x3e2764aa	0.16346994
107	0xbe1b5dd7	-0.15172516
108	0xbd50e7dd	-0.051002372
109	0x3dc11c75	0.09429256
110	0x3e832212	0.2561193
111	0xbd70441a	-0.058658697
112	0x3e8db624	0.27678025
113	0x3eda3ff3	0.42626914
114	0x3d852fe1	0.06503273
115	0xbee37527	-0.44425318
116	0xbd54c39c	-0.05194436
117	0x3dca8108	0.09887892
118	0xbd12cb1c	-0.03583823
119	0xbee17a63	-0.44038686
120	0x3e8b9b21	0.2726679
121	0x3e841893	0.258
122	0xbe4208b3	-0.18948631
123	0x3e9f34df	0.31095025
124	0xbd9c55f6	-0.07633583
125	0xbeaddce0	-0.33957577
126	0xbe114d29	-0.1418959
127	0x3e8d6d04	0.27622235
128	0x3e567e89	0.20946707
129	0x3e737ec6	0.23778829
130	0x3de28eb2	0.11062373
131	0x3dd6167b	0.104535066
132	0x3cfa765c	0.030574016
133	0xbe34ba92	-0.17649296
134	0x3d9a3213	0.07529082
135	0x3e76d7ff	0.24105833
136	0x3ea13d99	0.31492308
137	0x3ec7fad1	0.39058545
138	0xbc287f06	-0.010284191
139	0x3e442039	0.19152917
140	0xbd58f3c0	-0.052966833
141	0xbe95e2c0	-0.2927456
142	0xbd37b566	-0.04485073
143	0x3e868c20	0.26278782
144	0xbdc24c4f	-0.09487211
145	0x3f0209d9	0.50796276
146	0xbe264cbb	-0.16240208
147	0x3e54e0c0	0.2078886
148	0x3e4a5023	0.19757132
149	0xbf19d944	-0.60097146
150	0xbdf365db	-0.11884662
151	0x3e3e1470	0.18562484
152	0xbdc1f030	-0.0946964
153	0x3eea4ab4	0.4576012
154	0x3d8fc554	0.07020059
155	0x3eac6536	0.33670968
156	0x3ea8076d	0.32818165
157	0xbecb7332	-0.39736325
158	0x3db1f57f	0.08689403
159	0x3e9734d0	0.2953248
160	0xbeafeba1	-0.34359458
161	0x3ec9cb78	0.39413047
162	0xbd80727a	-0.06271835
163	0x3e18f8d7	0.14938675
164	0x3e00b8c3	0.12570481
165	0xbe2afe60	-0.16698599
166	0xbd03eb10	-0.032206595
167	0x3da0f913	0.07860007
168	0x3ef2761d	0.47355738
169	0x3e6baeac	0.23015851
170	0x3e389c57	0.18028389
171	0x3e61d336	0.22053227
172	0x3e356841	0.17715551
173	0x3e2e6972	0.17032412
174	0x3e74b5b3	0.23897438
175	0x3df939ec	0.12169251
176	0x3ebab22b	0.36464056
177	0x3c50c158	0.012741409
178	0x3d882da3	0.066493295
179	0xbda0aa1d	-0.078449465
180	0x3845dd13	4.717435e-05
181	0x3ed1fa7e	0.41011423
182	0x3e0d36ee	0.13790485
183	0xbe0ebb52	-0.13938645
184	0x3ea18ec9	0.3155425
185	0x3e39b1d0	0.18134236
186	0x3dd2fb84	0.10301879
187	0xbde42bc4	-0.1114116
188	0xbd82e5b6	-0.0639147
189	0x3e0ea9a4	0.139319
190	0xbbaecc69	-0.005334426
191	0xbd9df776	-0.07713215
192	0xbef81207	-0.48451254
193	0xbed71c30	-0.42013693
194	0x3e458faf	0.19293092
195	0xbe3ce495	-0.18446572
196	0xbe0148a5	-0.12625368
197	0x3ea0434a	0.31301337
198	0x3e12092b	0.1426131
199	0xbe9bd573	-0.30436286
200	0xbe919232	-0.2843185
201	0xbec40f0f	-0.3829274
202	0x3dadef9f	0.0849297
203	0x3e4006f2	0.1875265
204	0xbd47d3b2	-0.048785873
205	0x3e9b596c	0.3034166
206	0x3d7551e2	0.059892543
207	0x3e3295a2	0.17439893
208	0xbe1cdbf3	-0.15318279
209	0xbe05b09e	-0.13055655
210	0xbe9ba8f3	-0.30402336
211	0xbe262325	-0.16224344
212	0x3c9cdb4b	0.019147536
213	0x3d956d1b	0.07296201
214	0xbe9de031	-0.30835107
215	0xbdc49f89	-0.096007414
216	0x3e93c7ba	0.28863317
217	0x3e90c239	0.2827318
218	0x3e913dfb	0.283676
219	0x3d07067a	0.03296516
220	0x3d24dd3c	0.040250048
221	0x3e4f77a6	0.20260486
222	0x3e816ba3	0.25277433
223	0xbca312db	-0.019906452
224	0x3ea0f6f7	0.3143842
225	0x3ecd0f2c	0.40050638
226	0x3db47b98	0.08812636
227	0x3ec962a9	0.39333084
228	0x3e690158	0.22754419
229	0x3e8a7744	0.27044117
230	0x3d5ed098	0.05439815
231	0x3e92dfd9	0.28686407
232	0x3e3e017f	0.18555258
233	0x3e1a6676	0.15078148
234	0xbed6c674	-0.41948283
235	0x3ecc76cd	0.39934388
236	0x3ed1466c	0.4087404
237	0x3eb4b228	0.35292172
238	0xbe8d1f5a	-0.27562982
239	0x3ef0cc4f	0.47030875
240	0xbd0c88ae	-0.034310035
241	0x3d8d02d9	0.06885309
242	0x3d84c2d8	0.06482476
243	0xbd1f4d20	-0.03889191
244	0x3ee4d51c	0.4469384
245	0x3c99b852	0.018764649
246	0x3de841bc	0.11340663
247	0xbdfe0999	-0.12404174
248	0xbde1ca6c	-0.11024937
249	0xbd92bf48	-0.0716539
250	0x3eb64b71	0.35604432
251	0x3e1b78bd	0.15182777
252	0x3e16c7a1	0.1472459
253	0x3bd05991	0.0063583334
254	0x3ec266ca	0.37969047
255	0x3e1ff15b	0.15619414

fc1.bias f4 [128]
0	0xbd02ad6a	-0.03190366
1	0xbef0e12a	-0.47046787
2	0xbef03b00	-0.46920013
3	0xbda456c5	-0.080243625
4	0xbe833573	-0.25626716
5	0xbec0dff5	-0.37670866
6	0x3dd580ad	0.104249336
7	0xbe7621a4	-0.2403627
8	0x3d98588e	0.074387655
9	0x3db3a7d6	0.087722465
10	0xbebc8d71	-0.3682666
11	0xbc7a9fec	-0.015296917
12	0x3e39ea37	0.18155752
13	0xbdf207aa	-0.11817868
14	0xbc463aad	-0.01209895
15	0xbd30f1ec	-0.043199465
16	0x3d2d404e	0.042297654
17	0xbdd9dfaf	-0.106383674
18	0xbee7626e	-0.45192283
19	0xbe035e65	-0.12828977
20	0xbe98aabc	-0.2981776
21	0xbcf5a3bc	-0.029985301
22	0xbe8a5f82	-0.27025992
23	0xbe0968a7	-0.13418828
24	0x3dae6a10	0.085163236
25	0xbf0c9a00	-0.54922485
26	0xbe39be89	-0.1813909
27	0xbde6717e	-0.11252116
28	0xbdf3beca	-0.119016245
29	0xbed345f0	-0.41264296
30	0xbe502dfc	-0.20330042
31	0xbe8135f6	-0.2523648
32	0x3c9a5523	0.018839424
33	0x3c0cd980	0.008596778
34	0x3dd751a7	0.10513621
35	0xbeb887e8	-0.36041188
36	0xbe55e538	-0.20888221
37	0xbe1f3fff	-0.15551756
38	0xbedac912	-0.4273153
39	0xbe6f262d	-0.23354407
40	0x3dc5ee60	0.09664607
41	0xbd2ba95f	-0.04190957
42	0x3d52374d	0.05132227
43	0xbe47733a	-0.19477549
44	0xbeac6ae2	-0.33675295
45	0xbe91c412	-0.28469902
46	0x3e3fa0ca	0.1871368
47	0xbe14475b	-0.14480345
48	0xbe93f489	-0.28897503
49	0xbe68c3fd	-0.22731014
50	0xbec35d6e	-0.3815722
51	0xbe882987	-0.26594183
52	0x3beab3d4	0.0071625505
53	0xbea44a08	-0.3208773
54	0xbcd5ca8d	-0.02609756
55	0xbedf97a9	-0.43670395
56	0xbe57ab88	-0.21061528
57	0xbe885064	-0.26623833
58	0xbdae21b8	-0.08502525
59	0xbe19f40a	-0.150345
60	0xbeb7f7b6	-0.35931176
61	0x3e81a4ec	0.25321138
62	0x3e631d31	0.22179104
63	0xbe938328	-0.28811002
64	0x3dfa47be	0.12220715
65	0xbea8984e	-0.329287
66	0x3e16d7b5	0.14730723
67	0xbecb205c	-0.39673126
68	0xbd9e650e	-0.077341184
69	0xbe377d9b	-0.17919008
70	0xbed04aaf	-0.4068198
71	0xbebaa654	-0.36455023
72	0x3e19dca1	0.1502557
73	0xbe369303	-0.17829518
74	0x3e5b1106	0.21393213
75	0xbe7bde93	-0.24596624
76	0xbe18de78	-0.14928615
77	0xbead9ee9	-0.339103
78	0x3e382598	0.17983091
79	0x3d326692	0.04355485
80	0xbe297a6c	-0.16550606
81	0x3e85e640	0.2615223
82	0xbdf2d899	-0.11857719
83	0x3e39e8cd	0.18155213
84	0xbdfa3efc	-0.122190446
85	0xbe580c15	-0.21098359
86	0xbe24fa7d	-0.16111179
87	0xbdefcfe4	-0.11709574
88	0xbec3aa8e	-0.3821606
89	0xbe937682	-0.28801352
90	0xbda2ba5b	-0.07945701
91	0xbe5a08f7	-0.21292482
92	0xbca87462	-0.020563308
93	0xbdfce216	-0.1234781
94	0xbb859ace	-0.004077292
95	0xbed39c6d	-0.4133028
96	0xbec2aa98	-0.38020778
97	0xbd3481ee	-0.044069223
98	0xbeab5b4c	-0.3346809
99	0xbd24e699	-0.040258978
100	0x3e0109a5	0.12601335
101	0xbe69c207	-0.22827922
102	0xbecb19fe	-0.39668268
103	0x3d8027e6	0.0625761
104	0xbe0c9177	-0.13727365
105	0xbe8c970c	-0.2745899
106	0x3d15be34	0.036558345
107	0xbeb5e121	-0.35523322
108	0xbf3dbb52	-0.74113953
109	0xbda196e8	-0.07890111
110	0xbec3f243	-0.3827077
111	0xbe66a3cf	-0.22523426
112	0x3db6d80b	0.08927926
113	0xbe75c2fc	-0.24000162
114	0xbe4880de	-0.19580409
115	0xbeac375c	-0.33635986
116	0xbeeee753	-0.4666086
117	0xbeb82f6a	-0.35973674
118	0xbdcd925a	-0.1003768
119	0x3dc859a0	0.097827196
120	0xbe413337	-0.18867193
121	0xbe71899c	-0.2358765
122	0xbed3c168	-0.41358495
123	0x3e17ae7c	0.14812654
124	0xbea28e04	-0.31748974
125	0x3c9a864a	0.018862862
126	0x3e759ae1	0.23984863
127	0x3dcb78aa	0.09935124

fc2.weight f4 [128, 128]
0	0x3dbe8d04	0.0930424
1	0xbddd7048	-0.108124316
2	0x3dea4fac	0.114409775
3	0x3cbd0ba9	0.023076849
4	0x3e8704ac	0.26370752
5	0xbe0c741b	-0.13716166
6	0xbf082334	-0.53178716
7	0x3e4c1cfb	0.1993293
8	0xbd96bfac	-0.07360777
9	0xbe0483d2	-0.1294091
10	0x3da32b95	0.07967297
11	0xbe9a06ef	-0.30083415
12	0xbef194d4	-0.4718386
13	0xbd614783	-0.05499984
14	0xbcfc937a	-0.030832041
15	0xbeb1ac2d	-0.34701672
16	0xbe43db65	-0.19126661
17	0xbd4634b2	-0.048390098
18	0xbe808e98	-0.2510879
19	0x3e212866	0.15738067
20	0x3ee41917	0.44550392
21	0xbeaecf33	-0.34142455
22	0x3d24d685	0.040243644
23	0x3d270cc9	0.040783677
24	0xbd785b4f	-0.060633954
25	0x3d9bfb95	0.07616345
26	0xbed4a47c	-0.41531742
27	0xbe4e332a	-0.20136705
28	0x3e6e96e7	0.23299752
29	0xbea06e1e	-0.31334013
30	0x3d6ca7a5	0.057777066
31	0x3e8b5458	0.27212787
32	0xbe8cfdc3	-0.27537355
33	0x3d4d2192	0.050080843
34	0xbebc2248	-0.36744905
35	0x3d563068	0.052292258
36	0xbda62d45	-0.08114103
37	0x3ea671db	0.3250874
38	0xbcc17a68	-0.023617938
39	0x3f29c545	0.66316634
40	0x3e0f55a6	0.13997516
41	0xbe8daaf2	-0.27669483
42	0xbe3956af	-0.18099473
43	0x3f2f35ba	0.68441355
44	0x3e291bb6	0.16514477
45	0xbeead3ca	-0.45864707
46	0xbe3dcb7f	-0.18534659
47	0x3e83d39b	0.2574738
48	0xbeedceac	-0.4644674
49	0x3f14b989	0.58095604
50	0xbddf0dd3	-0.10891309
51	0x3e1a46e0	0.15066099
52	0xbf01219e	-0.5044192
53	0xbca8919d	-0.020577246
54	0xbdcbeca1	-0.09957243
55	0x3f6e10d8	0.9299445
56	0xbe8c756d	-0.2743334
57	0x3ed80b51	0.42196134
58	0xbd30cfb4	-0.04316683
59	0xbe85efe6	-0.2615959
60	0x3ec611b1	0.38685372
61	0xbd8bf87d	-0.06834505
62	0xbe50bae1	-0.20383789
63	0x3e80add8	0.25132632
64	0xbc897ca3	-0.016783064
65	0xbecb796b	-0.39741072
66	0x3c97ee19	0.018546151
67	0x3d6e70e8	0.058213145
68	0xbdd21b08	-0.10259062
69	0x3e65529c	0.22394794
70	0x3e291817	0.16513096
71	0x3e17e0e3	0.14831881
72	0xbdd36a98	-0.103230655
73	0x3ec79747	0.38982603
74	0xbe330c25	-0.17485102
75	0xbc973c9e	-0.018461522
76	0xbdd90ca1	-0.10598112
77	0x3d9d4f3f	0.076811306
78	0xbd694b01	-0.056956295
79	0xbe7b0e09	-0.24517073
80	0x3efafe64	0.4902221
81	0xbeb1b55a	-0.34708673
82	0x3de4b212	0.11166777
83	0x3bcae017	0.0061912644
84	0x3d608d22	0.054822095
85	0x3e2e754e	0.17036936
86	0x3e8873d3	0.26650867
87	0xbe8eb606	-0.27873248
88	0x3e7e188c	0.24814051
89	0x3e8e1a8c	0.2775463
90	0xbea3b0b8	-0.31970763
91	0x3e03a318	0.12855184
92	0x3cc1f832	0.023677919
93	0xbf1a6dcc	-0.60323787
94	0x3ea22aec	0.31673372
95	0x3de52958	0.11189526
96	0xbc809cb9	-0.015699731
97	0xbf01de9b	-0.50730294
98	0x3e18739f	0.14887856
99	0xbb7389a6	-0.0037160902
100	0x3db30d52	0.08742775
101	0x3ef5fec0	0.4804592
102	0x3db0f4aa	0.08640416
103	0x3d0e94de	0.03480994
104	0xbee15ab8	-0.44014525
105	0x3e39fe47	0.18163405
106	0x3db73796	0.08946149
107	0xbcc985a4	-0.024599858
108	0x3dc7843d	0.09742019
109	0xbd83dc5a	-0.06438513
110	0x3ef9d160	0.48792553
111	0xbe212358	-0.15736139
112	0xbe53bc02	-0.20677188
113	0x3e17c916	0.14822802
114	0x3d9f4c2c	0.077782005
115	0x3d316d2b	0.043317
116	0x3ebd6b48	0.36995912
117	0x3e59b5b9	0.21260728
118	0xbeee4109	-0.46533993
119	0xbee03108	-0.43787408
120	0x3e05db85	0.13072021
121	0x3e6ac168	0.22925341
122	0xbe3e393a	-0.18576518
123	0xbed6814f	-0.4189553
124	0x3e95cd87	0.29258367
125	0xbca83b36	-0.020536046
126	0xbcad180c	-0.02112963
127	0xbdab627d	-0.083683945
128	0x3d0a8584	0.033818737
129	0x3abbe971	0.0014336539
130	0x3de18318	0.11011332
131	0xbee1ec41	-0.4412556
132	0x3e2c597c	0.1683101
133	0x3c995e73	0.018721795
134	0xbd7ba153	-0.061433148
135	0x3f09e8b1	0.53870684
136	0xbeb912d4	-0.36147177
137	0xbeb92c44	-0.36166584
138	0x3d13d845	0.036094923
139	0xbdc7a365	-0.09747962
140	0x3eab8958	0.33503222
141	0xbe1bee8c	-0.15227717
142	0xbda1b1b3	-0.078952216
143	0x3e0b10db	0.13580649
144	0xbde80ac7	-0.113301806
145	0xbe9095e7	-0.28239366
146	0xbde7b99b	-0.11314698
147	0x3c051c7e	0.008124469
148	0xbf046470	-0.51715755
149	0xbe664ee4	-0.22491032
150	0x3f020d6a	0.5080172
151	0xbe650d93	-0.2236846
152	0xbde2759f	-0.11057591
153	0x3e1a7b53	0.15086107
154	0x3f1734ae	0.5906476
155	0x3ea3e35f	0.32009408
156	0xbec8974c	-0.3917793
157	0xbe01067c	-0.1260013
158	0xbd9bb675	-0.0760316
159	0x3b427b62	0.0029675593
160	0x3e12f585	0.14351471
161	0x3e7843b0	0.2424457
162	0x3cb5792a	0.022152502
163	0x3da6527f	0.08121204
164	0x3e0247f8	0.12722766
165	0xbcd9d391	-0.02659014
166	0xbd6dfd90	-0.058103144
167	0xbea9ce8b	-0.33165392
168	0xbe5fe2ca	-0.21863857
169	0x3dea80f7	0.11450379
170	0x3c7d88bc	0.015474495
171	0x3e46d15c	0.19415802
172	0x3d86e949	0.06587464
173	0x3e499f39	0.19689645
174	0xbba39253	-0.0049918084
175	0xbd940f35	-0.07229463
176	0xbda0289e	-0.07820247
177	0xbeff9a0a	-0.4992221
178	0xbddef69e	-0.10886882
179	0x3d94e99d	0.07271121
180	0xbec57b64	-0.38570702
181	0x3dcdf428	0.10056335
182	0xbdfcbf3d	-0.12341163
183	0xbde233ab	-0.11045011
184	0xbe741215	-0.23835023
185	0x3df2a446	0.11847739
186	0xbc9500b4	-0.018188812
187	0xbcb4ea2e	-0.022084322
188	0xbe27a7a8	-0.1637255
189	0xbe9a3d46	-0.30124873
190	0xbc0fa3b3	-0.008767056
191	0x3d8779a2	0.066149965
192	0xbe5459f4	-0.2073744
193	0x3e390641	0.18068792
194	0xbe13aad3	-0.14420633
195	0xbd6d5c85	-0.05794956
196	0x3c376626	0.011193788
197	0xbf32c3b6	-0.6982988
198	0x3e487fea	0.19580045
199	0xbbbd1d6d	-0.00577133
200	0xbb6c8b26	-0.003609368
201	0xbee5cda8	-0.44883466
202	0xbd978db2	-0.07400073
203	0xbee2328d	-0.44179192
204	0xbd547b03	-0.051875126
205	0xbeb363ca	-0.3503707
206	0xbc07fee0	-0.008300513
207	0xbdf0dd3a	-0.117609456
208	0x3e923032	0.28552395
209	0xbde7dd0d	-0.11321459
210	0x3e1144f4	0.1418646
211	0xbe29e091	-0.16589572
212	0xbd796445	-0.06088664
213	0x3dee528a	0.11636837
214	0x3cb46bf0	0.022024125
215	0xbe39fabd	-0.18162055
216	0x3e4f697d	0.20255084
217	0x3e1127f7	0.14175402
218	0x3e21c542	0.15797904
219	0x3d87073b	0.06593176
220	0x3e18b150	0.1491139
221	0x3d9bbb34	0.076040655
222	0x3e10e685	0.14150436
223	0x3ea45573	0.32096443
224	0x3eff3a73	0.4984928
225	0x3e7fcc0e	0.24980184
226	0x3e9242ca	0.2856658
227	0xbe559541	-0.20857717
228	0xbec655f3	-0.3873745
229	0x3eb5d4bb	0.35513863
230	0x3d9c86e3	0.07642915
231	0x3d817153	0.06320443
232	0x3e76eb15	0.24113114
233	0x3d51ea53	0.05124886
234	0x3a34edb2	0.00069018744
235	0x3e8718b6	0.2638604
236	0xbe2d77e9	-0.16940273
237	0xbe83cc01	-0.2574158
238	0x3d81b1b4	0.06332722
239	0xbe38a8ab	-0.18033092
240	0x3e817ed6	0.2529208
241	0xbd3e71d6	-0.04649528
242	0x3ea38b79	0.31942347
243	0xbd8ccbe5	-0.06874827
244	0x3f075058	0.5285697
245	0x3e2dfaa2	0.1699014
246	0xbdece276	-0.115666315
247	0x3e1aea58	0.15128458
248	0x3e9e1a2a	0.30879337
249	0x3ead02e5	0.3379127
250	0x3e1d74ef	0.15376638
251	0xbd984016	-0.074340984
252	0xbdb7308b	-0.08944806
253	0x3cfc20e7	0.030777408
254	0xbe076761	-0.1322303
255	0xbe69c592	-0.22829273

fc2.bias f4 [128]
0	0xbe3dff97	-0.18554531
1	0xbe0632c6	-0.13105306
2	0xbd7348cd	-0.0593956
3	0xbe8e1554	-0.27750647
4	0xbe3792af	-0.17927049
5	0x3d3a0abd	0.045420397
6	0xbba26344	-0.004955681
7	0xbe43e3e3	-0.191299
8	0xbe062545	-0.13100155
9	0xbd62f1ef	-0.055406507
10	0xbde43a69	-0.11143953
11	0xbe6b3a85	-0.22971542
12	0xbeadd0ec	-0.33948457
13	0x3ddc2b54	0.10750452
14	0x3bb4f131	0.0055219163
15	0xbd5fa8be	-0.054604284
16	0x3c50f42d	0.012753529
17	0xbec0140d	-0.37515298
18	0xbe81bd59	-0.25339773
19	0xbd3929f8	-0.04520604
20	0x3dcbdf2d	0.09954677
21	0xbd0c4c38	-0.034252375
22	0xbe21ecca	-0.15812984
23	0xbe7aff68	-0.24511492
24	0xbedcd02c	-0.43127573
25	0xbe86ef5c	-0.26354492
26	0xbe093ca8	-0.13402045
27	0xbd911a61	-0.070851095
28	0xbdcb61f7	-0.09930795
29	0x3cc712dc	0.024300985
30	0xbd9c9e0d	-0.07647333
31	0xbe1dc376	-0.15406594
32	0xbe1688f6	-0.14700684
33	0xbd90a4e9	-0.07062704
34	0xbeab1ec4	-0.3342191
35	0xbe43e4d0	-0.19130254
36	0xbe0627e5	-0.13101156
37	0x3a231e9a	0.00062225165
38	0xbeac16c5	-0.33611122
39	0xbf080d3b	-0.5314519
40	0xbe1ce971	-0.15323426
41	0xbc6dc90e	-0.014513267
42	0xbeb6e69a	-0.3572281
43	0xbf132b80	-0.5748825
44	0xbdcc25e5	-0.09968165
45	0xbbc931c2	-0.006139965
46	0xbdca87b9	-0.09889168
47	0xbd826b7c	-0.06368157
48	0xbe879fce	-0.2648911
49	0xbe5c15fe	-0.21492764
50	0xbe3d1356	-0.18464407
51	0xbe56336c	-0.20918053
52	0xbe4bc451	-0.19899108
53	0xbe2208b0	-0.15823627
54	0xbe0c5d80	-0.13707542
55	0xbe0e3733	-0.13888244
56	0xbee710f5	-0.45130125
57	0xbe6fda37	-0.23423086
58	0xbd3e2ff5	-0.046432454
59	0xbe490b27	-0.1963316
60	0xbe9c43f0	-0.30520582
61	0xbe3c1234	-0.18366319
62	0xbf120d71	-0.5705176
63	0xbe471417	-0.19441257
64	0xbe935325	-0.28774372
65	0xbdc821eb	-0.09772094
66	0xbcefbc46	-0.02926458
67	0xbe6e2672	-0.23256853
68	0xbe783326	-0.24238262
69	0xbe8b10ca	-0.27161247
70	0xbecfcaf2	-0.40584522
71	0xbe78bfa5	-0.24291857
72	0xbd001f81	-0.031280044
73	0xbe5b2a03	-0.21402745
74	0xbdc06fec	-0.093963474
75	0xbe825a7e	-0.25459665
76	0xbeb26b32	-0.3484741
77	0xbeb6fa0e	-0.35737652
78	0xbe5db10c	-0.2164957
79	0xbed78a63	-0.42097768
80	0xbe6d3104	-0.23163229
81	0xbe03c974	-0.12869817
82	0xbde292d6	-0.11063163
83	0xbe9a4344	-0.30129445
84	0xbe86cd84	-0.2632867
85	0xbe8c1b4f	-0.27364585
86	0x3cdbb0a6	0.026817631
87	0xbea07dd8	-0.3134601
88	0xbe088850	-0.13333249
89	0xbf1c4f4a	-0.61058486
90	0xbd7ad4f4	-0.061238244
91	0xbed599c6	-0.41718882
92	0xbcc7be14	-0.024382629
93	0x3e57d149	0.2107593
94	0xbebf03df	-0.3730764
95	0x3ce4371c	0.02785831
96	0xbe84cbfc	-0.25936878
97	0xbe850e34	-0.259874
98	0xbd16f658	-0.036856025
99	0x3cc003e9	0.023439365
100	0xbe8de542	-0.27713972
101	0xbd344b6f	-0.04401725
102	0xbe40ef00	-0.18841171
103	0xbe05e721	-0.1307645
104	0xbd9b26d9	-0.07575769
105	0xbe5d07fa	-0.21585074
106	0x3d00260e	0.03128629
107	0xbee5a13d	-0.44849578
108	0xbe0bca82	-0.1365147
109	0xbebe6b53	-0.37191257
110	0xbe9e3770	-0.3090167
111	0xbd35cd17	-0.044385042
112	0xbda2b46e	-0.079445705
113	0xbe48383e	-0.19552705
114	0xbdbbfa59	-0.091786094
115	0xbde1e795	-0.11030499
116	0xbe7fea2f	-0.24991678
117	0xbec656c0	-0.3873806
118	0xbde920b5	-0.113831915
119	0xbcdd5b50	-0.02702108
120	0xbe3c54e0	-0.18391752
121	0xbd70ed30	-0.05881995
122	0xbef49bb7	-0.4777505
123	0xbdeb28ef	-0.11482417
124	0x3c4dcbd1	0.012560801
125	0xbeab4e6a	-0.33458263
126	0x3d820f61	0.063505895
127	0x3dae7c62	0.08519818

fc3.weight f4 [2, 128]
0	0xbe300d79	-0.1719264
1	0x3d9e04b6	0.07715742
2	0xbc5c931e	-0.01346281
3	0x3d0ef967	0.034905817
4	0x3da41157	0.0801112
5	0xba95c299	-0.0011425792
6	0x3d1cb68e	0.038260035
7	0xbc584b58	-0.013201557
8	0x3d182c95	0.03715189
9	0xbdf6cd92	-0.12050928
10	0xbd6bbeaa	-0.05755488
11	0xbe18ebd2	-0.14933708
12	0xbe17db9c	-0.14829868
13	0x3d80c3ae	0.06287323
14	0x3c438f5c	0.011936035
15	0xbe11740e	-0.14204428
16	0x3e054342	0.13013938
17	0x3d392fdd	0.04521166
18	0x3e33c3c6	0.1755515
19	0x3dcd2d4d	0.10018406
20	0xbd51e6f8	-0.05124566
21	0x3e834b6e	0.25643486
22	0xbcf5d716	-0.030009788
23	0xbd8ebc5a	-0.06969519
24	0xbe0e6beb	-0.13908355
25	0x3c477495	0.012173791
26	0xbd443fd9	-0.047912452
27	0x3e583bb8	0.21116531
28	0x3d0c9fa5	0.034331936
29	0xbbedd6da	-0.0072582783
30	0x3e4d842e	0.20069954
31	0x3da8820c	0.082279295
32	0x3da2eddc	0.07955524
33	0x3e1ea04f	0.1549084
34	0x3e6b9201	0.23004915
35	0xbd9a5660	-0.07536006
36	0x3d3a4fc9	0.045486245
37	0xbd0ce645	-0.03439929
38	0xbe528efa	-0.20562354
39	0xbe17a836	-0.14810261
40	0x3d69c4ef	0.057072576
41	0xbb91ca91	-0.0044491966
42	0xbe9839ec	-0.2973169
43	0xbe5b9168	-0.21442187
44	0x3b964358	0.0045856647
45	0x3e792a2a	0.2433249
46	0xbda2f2c4	-0.0795646
47	0xbb86eda0	-0.0041176826
48	0xbca7c608	-0.02048017
49	0xbddc7343	-0.10764172
50	0x3d52c547	0.05145767
51	0xbdd23759	-0.10264463
52	0x3dabce06	0.08388905
53	0x3ccff3da	0.025384832
54	0xbd11ace3	-0.03556527
55	0x3e8176b1	0.25285867
56	0x3dcc32af	0.09970605
57	0x3d22cfda	0.039749004
58	0x3e370d69	0.1787621
59	0x3d400f0f	0.04688936
60	0xbe20d4c1	-0.15706159
61	0xbe02ebbd	-0.1278524
62	0xbe4bf367	-0.1991707
63	0xbdbcee33	-0.092251204
64	0xbe4cc535	-0.19997104
65	0xbe461ca5	-0.19346865
66	0x3c883059	0.016624616
67	0x3df456b7	0.11930602
68	0x3d957e0d	0.07299433
69	0xbc6407ee	-0.013917906
70	0xbe22fe57	-0.15917335
71	0x3e89a41c	0.26883018
72	0xbc060bb6	-0.008181503
73	0xbe8175ab	-0.25285086
74	0x3c5c8195	0.013458629
75	0x3e01b169	0.12665333
76	0xbe1635ee	-0.1466901
77	0x3e530c9a	0.20610276
78	0xbe563295	-0.20917733
79	0xbe9031bf	-0.28162953
80	0xbe57cbda	-0.21073857
81	0xbda360f3	-0.07977476
82	0x3b88c1b3	0.0041734814
83	0x3a9e155d	0.001206081
84	0xbe964a38	-0.293535
85	0xbda1e1ca	-0.07904394
86	0x3d85ad83	0.06527235
87	0xbe050fd2	-0.12994316
88	0x3d016501	0.031590465
89	0xbe89d486	-0.26919955
90	0x3e1d5f8e	0.15368482
91	0xbe3b9c6e	-0.18321392
92	0xbde729da	-0.112872794
93	0xbc70b8d7	-0.014692507
94	0x3e64a7bb	0.22329609
95	0xbdc8f511	-0.09812368
96	0x3e014da1	0.1262727
97	0x3d1f660f	0.03891569
98	0x3e7803f5	0.2422026
99	0xbc871e7d	-0.01649403
100	0x3d4addab	0.049527805
101	0x3e45b50f	0.1930735
102	0xbcc9a65f	-0.024615465
103	0x3df82daf	0.121180885
104	0x3e70f7a8	0.23531973
105	0xbe068c3e	-0.13139436
106	0x3b7a14e8	0.0038159434
107	0x3e4736da	0.19454518
108	0xbe29bb51	-0.16575362
109	0xbe0d06fd	-0.13772197
110	0x3da2452b	0.07923349
111	0x3ddbed3a	0.10738607
112	0x3e5cf7b2	0.21578863
113	0x3eb2d01c	0.349244
114	0x3c316daa	0.010829369
115	0xbc4ad814	-0.012380619
116	0x3e1ec4a4	0.155047
117	0xbe5b3c27	-0.21409665
118	0x3e3dddc3	0.18541627
119	0xbccae011	-0.024765046
120	0x3d85d03c	0.06533858
121	0xbd99410c	-0.0748311
122	0xbe21b888	-0.1579305
123	0x3da03d96	0.078242466
124	0xbc3e3c5a	-0.011611069
125	0xbd9e9792	-0.077437535
126	0xbda1cfa1	-0.0790093
127	0x3e309552	0.17244461
128	0xbd700a7f	-0.05860376
129	0x3dfd7301	0.12375451
130	0xbe57b15d	-0.21063752
131	0x3ec02c1d	0.37533656
132	0xbea4f42a	-0.32217532
133	0xbcce69ac	-0.025196873
134	0xbe600956	-0.21878561
135	0x3d68c794	0.056830958
136	0x3eceb70b	0.40374026
137	0x3d6b635d	0.057467807
138	0x3efd4a24	0.49470627
139	0x3c6a3d61	0.01429686
140	0xbd053c34	-0.032528117
141	0x3e16dfed	0.14733858
142	0xbe8329f7	-0.25617954
143	0xbda03acd	-0.07823715
144	0xbdb7ea84	-0.08980277
145	0x3e8fc824	0.28082383
146	0x3e800ce9	0.2500985
147	0xbd704717	-0.058661547
148	0x3da99b64	0.082815915
149	0x3e6d04cb	0.2314636
150	0xbe10d7b3	-0.14144783
151	0x3b2866e2	0.0025696089
152	0xbe1e9e09	-0.15489973
153	0xbe748f68	-0.2388283
154	0x3e135bf5	0.14390548
155	0x3e2d1ec5	0.16906269
156	0xbeb04d3b	-0.34433922
157	0x3e39a0fb	0.18127815
158	0xbecb7293	-0.3973585
159	0x3e0778cf	0.13229679
160	0x3e8237a9	0.2543309
161	0xbe03c465	-0.12867887
162	0x3e404da3	0.18779616
163	0xbdc29630	-0.09501302
164	0xbda5a534	-0.080881506
165	0xbe6abdca	-0.22923961
166	0x3e0a41ce	0.13501665
167	0x3cd330c0	0.025780082
168	0xbe520e6f	-0.20513318
169	0x3d52e701	0.051489834
170	0x3d863440	0.06552935
171	0xbc3ac544	-0.011399571
172	0x3d1c4e6b	0.038160723
173	0xbd4148c5	-0.04718854
174	0x3e843670	0.25822783
175	0xbe82077f	-0.25396344
176	0x3e82b6a8	0.2552998
177	0x3c9b201d	0.018936211
178	0x3e5bed3a	0.21477214
179	0x3d80bd52	0.0628611
180	0xbe05ae89	-0.13054861
181	0x3e83190c	0.25605047
182	0x3e4f552e	0.20247337
183	0xbe1da7f4	-0.153961
184	0xbe998205	-0.2998201
185	0x3e39e0cf	0.18152164
186	0xbdb52119	-0.088442035
187	0xbd24a58c	-0.04019694
188	0x3e378618	0.17922246
189	0x3e7150ef	0.2356603
190	0x3ddded76	0.10836308
191	0x3cd024de	0.025408205
192	0xbe48c8cd	-0.1960785
193	0xbd59f808	-0.053215057
194	0xbe181745	-0.14852627
195	0xbe1e9e5e	-0.154901
196	0xbe0bf25d	-0.13666673
197	0x3e8af850	0.27142572
198	0xbdf9929b	-0.12186166
199	0x3ddb6fe2	0.10714699
200	0x3ddb2179	0.10699744
201	0x3e25f687	0.16207324
202	0x3efa01e8	0.4882958
203	0x3ebb428c	0.3657421
204	0x3d506473	0.050877046
205	0x3eb0dc97	0.34543297
206	0x3d5e1830	0.054222286
207	0x3e1787a9	0.14797844
208	0xbcea905e	-0.028633293
209	0xbdb76227	-0.08954268
210	0x3ec0b3cd	0.37637177
211	0x3e0788b7	0.13235746
212	0xbdd7eafd	-0.10542867
213	0x3e2f2eb6	0.17107663
214	0x3e02f662	0.127893
215	0x3d8d9c7e	0.06914614
216	0xbe939d18	-0.2883079
217	0xbd7adfbb	-0.061248522
218	0x3e0ef013	0.13958769
219	0x392fa26e	0.0001674981
220	0x3c16d514	0.009206075
221	0x3d643f32	0.05572433
222	0xba80cb5b	-0.000982623
223	0x3d3190c9	0.04335097
224	0xbe744676	-0.23855004
225	0x3e90ee97	0.2830703
226	0x3dd20a34	0.10255852
227	0xbe13956e	-0.14412472
228	0x3e3f41f1	0.18677498
229	0x3d99606e	0.07489096
230	0x3eaa4e32	0.33262783
231	0x3db38de3	0.08767297
232	0x3c97f7af	0.018550722
233	0xbdadce33	-0.08486595
234	0xbd39da66	-0.045374297
235	0x3d615d67	0.055020716
236	0xbc9fcbf0	-0.019506425
237	0xbd4f6d6b	-0.05064146
238	0x3e3cdc74	0.18443471
239	0xbe63426e	-0.2219331
240	0xbe92aa1a	-0.28645402
241	0x3e0ded9d	0.13860174
242	0xbc46946b	-0.012120347
243	0xbe682caa	-0.22673288
244	0x3e7e41a8	0.24829733
245	0xbe05a2c9	-0.13050379
246	0x3df51fe1	0.11968971
247	0xbd816532	-0.063181296
248	0x3e43d74d	0.191251
249	0xbe1dd6a9	-0.15413918
250	0xbd576245	-0.05258395
251	0xbe55befd	-0.20873637
252	0xbde7079b	-0.112807475
253	0x3e74c378	0.2390269
254	0xbaae30c2	-0.0013289677
255	0xbdbebd2b	-0.09313425

fc3.bias f4 [2]
0	0x3d12a768	0.035804182
1	0xbda9916e	-0.08279692
