models/checkpoint_actor_local_0.pth (torch_old, 85378 bytes, 15 tensors)

bn1.weight f4 [24]
000000 4d 32 a9 3f 15 69 37 3f 61 87 26 3f 86 8c a1 3f
       1.3218476 0.7164472 0.6505032 1.2621009
000010 93 9b a7 3f 01 53 ca 3f 62 78 56 3f ee e9 3e 3f
       1.3094352 1.5806581 0.8377744 0.745757
000020 5d 5a 35 3f 1b 39 e9 3e ce 01 7f 3f f9 ab 64 3f
       0.7084101 0.4555138 0.9961213 0.8932491
000030 dc 9a 29 3f eb 56 8a 3f d5 1e 43 3f 6f bc c6 3e
       0.6625192 1.0807775 0.7621892 0.38815638
000040 e0 86 ed 3f 04 a6 4f 3f e5 02 87 3f 04 63 f8 3f
       1.8556786 0.81112695 1.0547758 1.9405217
000050 dc e8 ec 3f a5 a9 dd 3f 6c c5 47 3f 5a 43 8e 3e
       1.8508563 1.7317396 0.78035617 0.2778576

bn1.bias f4 [24]
000000 28 eb 1e bf b7 af 76 bf c9 4d 1f be e8 87 49 bf
       -0.6207757 -0.9636187 -0.15557016 -0.78723
000010 7a f2 ca bf db f7 0e 3f db 0e a5 3e 73 e1 61 3f
       -1.5855248 0.5584695 0.32237896 0.88234633
000020 92 88 c2 be 89 c2 d5 3e 7b da 48 bf 9d 61 4b bf
       -0.3799482 0.4174998 -0.78458375 -0.7944582
000030 5e d0 f2 be 0b 42 03 bf 1a f7 5f 3f 19 95 f6 3f
       -0.47424597 -0.5127265 0.8748642 1.9264251
000040 ee 02 8e be f7 66 b2 3e d0 30 43 be c6 29 e3 3d
       -0.2773661 0.3484418 -0.19061589 0.11091952
000050 0f 3e 73 bf 92 f3 0a be 91 36 fe 3e e5 5f 93 bf
       -0.9501657 -0.13569477 0.49651006 -1.151364

bn1.running_mean f4 [24]
000000 16 6d ff c0 32 6b cf be 2b 25 07 40 dd a7 c6 bb
       -7.982066 -0.4051147 2.1116436 -0.0060624913
000010 57 54 bc be 30 f8 6b 40 2b 25 07 40 dd a7 c6 bb
       -0.36783096 3.6870232 2.1116436 -0.0060624913
000020 c8 c0 00 c1 c0 c8 d6 be 90 7c 19 40 fe 83 35 bd
       -8.047066 -0.41950035 2.3982277 -0.04431533
000030 a9 11 c2 be 11 69 6c 40 90 7c 19 40 fe 83 35 bd
       -0.379041 3.6939127 2.3982277 -0.04431533
000040 28 ba 02 c1 b4 47 dd be 50 39 ff 3f c4 4d 94 3c
       -8.170448 -0.43218768 1.9939365 0.018103488
000050 26 70 c9 be 31 f0 6c 40 50 39 ff 3f c4 4d 94 3c
       -0.39343375 3.7021601 1.9939365 0.018103488

bn1.running_var f4 [24]
000000 b3 c7 59 41 8e a4 75 3f 63 5a 92 43 81 5e 73 41
       13.611255 0.95954216 292.70615 15.210572
000010 20 43 f0 41 54 47 42 40 63 5a 92 43 81 5e 73 41
       30.032776 3.0356035 292.70615 15.210572
000020 fe 7b 49 41 8e ef 77 3f 1f 15 96 43 86 c9 7f 41
       12.592772 0.96849906 300.165 15.9867
000030 18 4b f9 41 ce 1e 46 40 1f 15 96 43 86 c9 7f 41
       31.161667 3.0956302 300.165 15.9867
000040 0a 07 39 41 c0 cd 7a 3f d3 db 9d 43 7d 75 81 41
       11.5642185 0.979702 315.71738 16.182367
000050 a9 11 02 42 86 b9 51 40 d3 db 9d 43 7d 75 81 41
       32.517246 3.2769485 315.71738 16.182367

bn2.weight f4 [128]
000000 67 44 99 3f 2a 7a 41 3f 2f 59 d7 3f 4e cb da 3f
       1.1974 0.7557703 1.6824092 1.7093294
000010 95 ec 8a bd 60 5a c7 3f d7 3c bd 3f a4 58 9f 3f
       -0.06783406 1.5574455 1.4784192 1.2448926
000020 79 15 f1 3f ff 91 d3 3f 8a 01 72 3f 06 2c 0a 3e
       1.8834678 1.652893 0.945336 0.13493356
000030 a3 d1 b9 3f 00 b9 72 3f d1 e7 8f 3f d0 2e 39 3f
       1.4517101 0.9481354 1.124262 0.72337055
000040 58 bc c8 3f da 75 13 40 18 80 e0 3f 24 03 46 3f
       1.5682478 2.304068 1.7539091 0.7734854
000050 ec 8d 64 3f d1 fb a3 3f ec a7 2f 3f d7 a7 98 3f
       0.89279056 1.2811223 0.68615603 1.1926221
000060 4f 6c 80 3f 4e b1 a5 3f 5e aa 47 be 5a f8 49 3b
       1.0033053 1.2944734 -0.19498584 0.0030818195
000070 ab b8 91 3f bf 54 57 3f 86 c7 9c 3f f7 57 af 3f
       1.1384481 0.8411369 1.224839 1.369872
000080 ce 18 9e 3f 6a 3c a5 3f f8 12 e9 3f 5b 89 1d 3f
       1.235132 1.2909062 1.8208914 0.6153771
000090 c7 0c 16 c0 ef 95 08 40 0b b1 9e 3f b8 c9 40 3f
       -2.3445299 2.1341512 1.2397779 0.753078
0000a0 4e da 66 3f c7 e5 32 3f 4f 3f 9e 3f 63 ba c1 3f
       0.90176857 0.6988186 1.236307 1.5135006
0000b0 4a 21 1d bf 45 7d e1 3f 1d eb 74 3f 59 b5 95 3f
       -0.6137892 1.7616354 0.95671254 1.1695968
0000c0 de 57 46 3f 68 58 16 40 16 c8 9e 3e 85 30 66 3f
       0.77477825 2.349146 0.31012028 0.89917785
0000d0 06 dc cb 3f 82 9e cd 3f d3 24 09 3f a6 76 61 3f
       1.5926521 1.6063998 0.53571814 0.8807167
0000e0 84 d3 13 3e 19 9a 99 3f a1 a7 08 3f 5d a2 a6 3f
       0.14436156 1.2000152 0.5338078 1.3018299
0000f0 39 b2 af 3f f1 55 8e 3f 98 e2 3c 3f 4d b0 a3 3f
       1.3726264 1.1119977 0.73783255 1.2788178
000100 33 5e b0 3f e1 05 00 3e 88 7d a3 3f 1c 95 c3 3d
       1.3778747 0.12502243 1.2772684 0.09549925
000110 3d c2 b9 3f cf 2e 08 40 e5 ba 8d 3f 5d a1 ca 3f
       1.4512402 2.127857 1.1072661 1.5830494
000120 bb 68 ab 3e 19 6d bb 3f 13 62 21 3e 43 9a b3 3f
       0.3347834 1.4642669 0.15760069 1.4031452
000130 2b cb a7 3f 6d de 95 3f 2c c6 87 3f a7 1f b8 3f
       1.3108877 1.1708504 1.0607352 1.438466
000140 31 58 fa 3f 6c 34 96 3f 3a 25 46 3f f5 c5 91 3f
       1.9558164 1.1734748 0.77400553 1.1388537
000150 6d 5a d1 3f ef aa 55 3f be 99 48 3f ed 66 af 3f
       1.6355721 0.8346395 0.7835959 1.3703285
000160 c9 2f bd 3f 3d 04 09 bf cf 60 c1 3e 05 16 40 3f
       1.4780208 -0.5352209 0.37769172 0.750336
000170 ce ea 8e 3f a4 83 52 3f 50 60 65 3f 60 72 bf bf
       1.1165407 0.8223212 0.89600086 -1.495678
000180 9d 2a d1 3f 43 9a 3d 3f 6d 09 da 3f 1e 0d 1b 3f
       1.634113 0.7406351 1.7034127 0.6056689
000190 a3 30 a3 3f b6 2a 46 3f 48 e8 66 bf 9c f3 31 3f
       1.2749218 0.7740892 -0.90198183 0.69512343
0001a0 71 cb 84 3f 91 40 61 3f 30 75 3a 3f 54 69 82 3f
       1.0374585 0.87989146 0.72835064 1.0188394
0001b0 44 b1 bc 3f f8 41 86 3f fa b5 02 40 8a e1 a5 3f
       1.4741597 1.0488882 2.042357 1.2959454
0001c0 62 61 90 3f df 6d a8 3f 0e c5 9a 3f 7e 48 97 3f
       1.1279719 1.315853 1.2091386 1.1818998
0001d0 f9 c6 7a 3f e0 01 6f 3e 8f 13 d5 bd 1f 90 8b 3f
       0.9795986 0.23340559 -0.10404121 1.0903357
0001e0 fc c8 ae 3f a7 a7 fc 3e 77 dc 9a 3f 05 94 78 3f
       1.3655086 0.4934666 1.209853 0.9710086
0001f0 6b dc de 3e f1 52 9a 3f e3 67 83 3f 53 3a 9a 3f
       0.4352754 1.2056562 1.0266079 1.2049049

bn2.bias f4 [128]
000000 7f 3f 23 3f 01 bb 14 bf f5 f3 1a bf c4 90 17 bf
       0.6376876 -0.58097845 -0.605285 -0.5920527
000010 ba 5e 37 bf 4b 43 ac bc 1d 0a e5 3e 22 da c5 be
       -0.71628916 -0.021028182 0.44734278 -0.38642985
000020 24 be 9e 3f e4 7f 60 3f 5c 16 ec 3e 09 3a 59 3e
       1.2401776 0.87695146 0.4611081 0.21213545
000030 79 b7 d7 bd 16 67 20 bf b6 8b b1 3e e9 24 9b bd
       -0.105330415 -0.62657297 0.34676903 -0.075753994
000040 59 4e da 3e 95 f9 a7 3f e9 f4 0c 3f 3b 21 22 bf
       0.426379 1.3123041 0.55061203 -0.63331956
000050 11 a4 23 be 2f 95 02 3d d5 5f 38 3f 78 59 3b 3f
       -0.15980555 0.031880554 0.7202123 0.73183393
000060 85 e2 15 3f 00 e1 83 3f dc 58 89 3f 47 c7 8a bf
       0.58548766 1.030304 1.0730243 -1.0842065
000070 7d 35 16 bf bd 2c 3c bf 03 b7 d4 3d 6d fe 19 3f
       -0.58675367 -0.73505765 0.10386469 0.6015385
000080 ec e4 f2 3e e6 44 88 3f b4 72 11 3f 76 c3 36 bd
       0.4744028 1.0646026 0.5681565 -0.04462
000090 ce 4e bb bf 39 65 15 3f b1 f0 36 3e 9b 4f b2 be
       -1.4633424 0.5835758 0.17865254 -0.3482636
0000a0 30 85 46 3f e0 41 2b bd 71 3e 3e be 1d c9 48 3f
       0.7754698 -0.04181087 -0.18578507 0.78431875
0000b0 ac c3 18 bf 85 57 7f 3f d2 97 d3 3e cc d6 b0 3f
       -0.5967357 0.9974292 0.41326767 1.3815551
0000c0 cb 8a 2a bf f5 91 54 be 60 fa c5 bd 58 01 5f 3f
       -0.6661803 -0.20758803 -0.09666896 0.87111425
0000d0 ed 76 06 bf 98 fc 50 3f cd a1 c9 be 99 b2 56 bd
       -0.52525216 0.8163543 -0.39381257 -0.052416418
0000e0 27 b7 55 bf eb aa 7d 3f 0c 69 73 bd 60 b5 8d be
       -0.83482593 0.99088925 -0.059426352 -0.2767744
0000f0 e5 d9 16 3f 06 ba 6c 3e e0 6f b7 3e 17 25 18 3e
       0.5892623 0.23117837 0.3582754 0.14857899
000100 e0 b7 0d 3f e1 21 71 bf cf eb 9f 3e 4a 2c 87 bf
       0.55358696 -0.9419232 0.31234595 -1.0560391
000110 16 39 d5 3e eb 20 37 3e 85 cd 70 3f b6 6b 03 3f
       0.41645116 0.17883651 0.940636 0.5133623
000120 7c 85 53 be e9 a8 39 3f 1e 95 c6 be 0b 88 1b 3f
       -0.20656389 0.7252336 -0.38785642 0.6075446
000130 d1 1a 48 3f c3 18 3d 3f 2d 86 0a 3f 96 ae 3e 3f
       0.7816592 0.7386591 0.54110986 0.74485147
000140 20 1b 57 3f 2f 57 fe 3e 68 23 28 bf f4 d1 47 3e
       0.84025764 0.4967589 -0.65679026 0.19513685
000150 80 0e 78 3e 63 aa 64 3d 6d dc c8 be c3 20 43 3c
       0.24224281 0.055826556 -0.39230672 0.0119096665
000160 6e de 4f bf 9f b7 5d bf a0 7f 11 bf 96 c3 5d be
       -0.81198776 -0.8660831 -0.56835365 -0.21656641
000170 37 cf e1 bd 8a 4f f6 be bb 93 72 bc a2 34 4b bf
       -0.11025851 -0.48107558 -0.0148057295 -0.79377186
000180 0f 10 8b 3f 9c 3e 46 bf 3f 20 07 be 79 fb 15 3f
       1.0864276 -0.77439284 -0.13195895 0.5858684
000190 57 7a b8 be 0e 2d 0d bc 84 18 cc be 9f c4 c1 be
       -0.36030838 -0.008616699 -0.39862454 -0.37845322
0001a0 e7 45 53 bf dd 13 f0 be 93 64 2b bc f0 63 97 3e
       -0.8252854 -0.46890154 -0.0104609905 0.29568434
0001b0 7d 57 15 3f 04 67 a7 be 1a d6 01 bf a1 db 92 3f
       0.5833662 -0.32695782 -0.5071732 1.1473275
0001c0 fc 35 d8 be a8 dc 06 3f 8d 38 c8 be 66 cd 1a 3f
       -0.42228687 0.52680445 -0.39105645 0.60469663
0001d0 dd 0f 3d 3f 3e c8 45 bf 1d 52 89 bf da fa d5 3c
       0.7385233 -0.7725867 -1.0728184 0.026120592
0001e0 de 0a 29 3e 46 c2 8e bd 26 cc 25 be 05 c8 82 3e
       0.16508052 -0.069706485 -0.16191158 0.25543228
0001f0 75 9a b8 be 69 2c 54 3e 8d 15 a3 be d6 6f 85 3d
       -0.3605534 0.20720066 -0.3185238 0.06515472

bn2.running_mean f4 [128]
000000 ac 01 33 40 81 24 9a 3d fa 13 d2 3f 9a 53 40 3e
       2.796977 0.07526494 1.6412346 0.18781891
000010 c4 06 dc 3f da b1 9e 3e 67 23 f7 3f 81 d5 09 bf
       1.7189565 0.30995065 1.9307679 -0.53841406
000020 c6 83 b0 3d df d1 40 bf d5 f2 1c bf bb 93 fe 3f
       0.08618884 -0.7532024 -0.6130803 1.9888834
000030 d4 83 94 3f 3f 89 3f 40 a0 70 a2 3f 7f 84 37 bf
       1.1602731 2.9927518 1.269062 -0.7168655
000040 e4 a9 5c 3f 04 de a5 be a3 32 14 be 5e 02 45 bf
       0.8619673 -0.32395947 -0.14472441 -0.7695674
000050 47 0d b7 3f 4f 68 27 bf b6 60 be be 52 a1 8b be
       1.4300927 -0.6539354 -0.3718316 -0.27271515
000060 8b e2 02 40 27 e9 c3 3e 33 ca c7 3c c1 fc 89 40
       2.045077 0.3826382 0.024388408 4.3121037
000070 5b e2 25 be 8a c0 42 3e 20 b7 9f be e1 80 d1 3f
       -0.16199629 0.1901876 -0.311944 1.6367456
000080 37 89 17 bf 7c 29 fe be 7d 29 4d 3e 4d 2f 2e be
       -0.5919375 -0.49641025 0.20035358 -0.17010231
000090 be 6e a0 3e ef 92 eb 3f 1b ff d9 3f ff 51 12 40
       0.3133449 1.8404216 1.7030977 2.2862546
0000a0 6e 15 3b 3f 5f a7 5b bf 73 a8 4a bf a1 f6 4b 3f
       0.73079574 -0.85802263 -0.79163283 0.796732
0000b0 2a 19 95 3e 97 20 ce 3f 08 1b c3 bd c2 ee 5b bf
       0.2912076 1.6103696 -0.0952664 -0.8591119
0000c0 1d 6d 95 be a3 a8 bc 3e e6 20 0d 40 cf d0 bd 3b
       -0.2918481 0.3684741 2.205133 0.005792714
0000d0 4d e0 ba bc 5e e9 dd be d3 37 2b 3f 29 ab d0 3e
       -0.022812033 -0.43342108 0.66882056 0.40755585
0000e0 3e 4e 78 40 de 3a 11 3f d0 59 24 bf 5f 83 20 bd
       3.8797755 0.5673045 -0.64199543 -0.039187785
0000f0 21 8f 84 3f 70 73 47 bf bc 08 9e be de 0e 49 be
       1.035618 -0.7791052 -0.3086604 -0.19634578
000100 30 b8 4f bf 5e 20 8f 40 dd bd 38 3f ba 78 84 40
       -0.8114042 4.472701 0.7216471 4.139737
000110 38 25 cc be 54 34 0a 40 b9 bc b6 3f da ad 55 bf
       -0.39872146 2.1594439 1.4276344 -0.834684
000120 67 e0 a7 3f 0b f8 1e bf 60 bd 22 bf 7e b1 59 3e
       1.3115357 -0.62097234 -0.63570213 0.21259114
000130 11 9f 8e be ec b7 16 40 cb f0 2d be e8 db 29 3f
       -0.27855733 2.3549757 -0.16986386 0.66351175
000140 00 ca cd be 0c 2e dd 3f 02 96 8e bd 5a 4e ba bd
       -0.40193176 1.7279677 -0.069622055 -0.090969756
000150 13 54 06 be 2a 95 33 40 9d 47 5f bf 09 f7 60 3d
       -0.1311801 2.8059793 -0.8721865 0.05492309
000160 ba bf ed 3f 83 b6 14 bf 81 ce 08 bf 97 fc 4f 40
       1.8574135 -0.5809099 -0.534401 3.2497919
000170 46 ff 98 3e a6 b3 3b 40 64 a4 20 bf ea 3c 52 bf
       0.29882258 2.9328399 -0.6275084 -0.821242
000180 35 b9 a0 be 91 e3 1c be 1a 26 11 bf ae db 92 3f
       -0.31391302 -0.15321185 -0.56698763 1.1473291
000190 5c 38 6a 3f ca 6a e6 be 3f 60 25 3f 2a a7 d1 be
       0.9149225 -0.4500335 0.64599985 -0.4094785
0001a0 89 6e 5c bf 1d 41 23 3e 62 d3 2e bf b8 df 84 3e
       -0.86106163 0.15942807 -0.68291295 0.25951934
0001b0 d8 d3 63 3f f0 8e 2d 40 b6 00 9d 3f 54 be 5c bf
       0.8899512 2.7118492 1.2265842 -0.8622792
0001c0 d0 0c 6f be 85 56 67 bf a5 f4 33 bf 7e 9c e1 3f
       -0.23344731 -0.90366393 -0.7029517 1.7625883
0001d0 aa 71 2f bf 36 a6 e5 3f b0 ae de 3f 43 5c 6b 3f
       -0.6853281 1.7941349 1.739706 0.91937655
0001e0 d1 6a ff 3f 09 36 01 3f ff 64 4e 3f 58 c3 3a bf
       1.9954473 0.50473076 0.8062286 -0.7295432
0001f0 a0 ce bd 3e e9 97 c6 be 28 0e bf 3f 25 ed 38 bf
       0.37071705 -0.38787773 1.4926195 -0.72236854

bn2.running_var f4 [128]
000000 85 54 28 41 98 59 1f 40 f5 bd 00 41 b1 23 3c 3f
       10.520635 2.4898434 8.046376 0.7349196
000010 ef 01 44 41 34 2b 61 40 55 99 ff 40 15 9a 9f 3f
       12.250472 3.518262 7.9874673 1.2468897
000020 e9 92 37 40 cd 38 0c 3f 26 09 82 3f 68 d7 ea 40
       2.8683417 0.5477417 1.0159042 7.3387947
000030 94 14 da 40 17 9d f4 40 9a 37 b9 40 5c e2 f1 3e
       6.815012 7.644176 5.7880373 0.4724301
000040 7d f6 6d 40 68 41 4e 40 f0 1a 99 3f 2b b4 c2 3e
       3.7181695 3.222742 1.1961346 0.38028082
000050 9e 7b c7 40 66 8d bf 3e 8a 0e 12 40 ce 31 00 40
       6.23384 0.37412566 2.2821374 2.0030398
000060 2c ad f0 40 d6 7d 38 40 06 d3 8a 40 b0 ec 88 40
       7.521139 2.8826804 4.3382597 4.2788925
000070 01 18 f6 3f 9f 58 49 40 71 a1 eb 3f a9 d3 bc 40
       1.9226075 3.146034 1.8408643 5.9008374
000080 af 09 70 3f ce b7 9f 3f 6d 31 8f 40 8c dc 9b 3f
       0.93764776 1.2477968 4.4747834 1.217668
000090 f1 63 f6 40 7c bf 06 41 b7 2f dd 40 17 0b 03 41
       7.6997 8.421749 6.9120746 8.1902075
0000a0 b1 d2 93 40 e7 13 e9 3d 1d 25 c0 3e 13 19 f0 40
       4.619469 0.11380749 0.37528315 7.503061
0000b0 fe d0 a6 40 22 30 26 41 ca 61 74 40 a2 c3 84 3e
       5.2130117 10.386751 3.8184686 0.25930506
0000c0 82 3d 96 3f 36 bc b8 3e d9 97 16 41 55 88 b9 3f
       1.1737521 0.36081094 9.412072 1.449473
0000d0 a3 20 a7 3f ab 94 b2 3f 8e d0 3d 40 65 a0 a1 40
       1.3056835 1.395162 2.9658542 5.0508294
0000e0 32 4e 1b 41 ea b4 8b 40 3d 56 b3 3f 3c d0 d0 3f
       9.706591 4.365834 1.4010693 1.6313548
0000f0 5d 25 84 40 b8 bc b0 3e d8 25 b5 3f 10 6a 18 40
       4.129561 0.3451898 1.4152174 2.3814735
000100 5b 42 01 3f 47 8b fe 40 9e 82 65 40 e9 6a 33 41
       0.50491875 7.9545016 3.5860972 11.213601
000110 cc 04 5d 3f e4 33 24 41 a3 cb ef 40 f7 3f 1b 3e
       0.86335444 10.262669 7.493608 0.1516112
000120 4c 7c 99 40 c2 9b 29 3f 71 6e 14 3f 13 ec 46 40
       4.796423 0.6625329 0.5798102 3.1081588
000130 f2 ef db 3f 0c e5 27 41 14 d3 20 40 75 3d 9c 40
       1.71826 10.49342 2.5128832 4.882502
000140 da bb e8 3f 03 17 b6 40 ad b5 e1 3f 70 ef 17 40
       1.8182328 5.690309 1.7633568 2.373989
000150 c2 d2 47 40 9c cf 1d 41 c3 ca 67 3d a3 1e ec 3f
       3.1222386 9.863186 0.056589853 1.844685
000160 c2 ee 94 40 0d bf 8c 3f f2 e8 91 3f 51 b6 90 41
       4.6541452 1.0995804 1.1399214 18.089022
000170 b4 e8 5f 40 51 1f 1c 41 0a 60 60 3f 98 8a 7c 3e
       3.498578 9.757646 0.87646544 0.24662244
000180 15 83 17 40 cb bd 04 40 60 eb a0 3f cc cb 90 40
       2.3673756 2.074084 1.2571831 4.5248775
000190 65 90 36 40 6b 5b aa 3f 9f e0 3c 40 87 69 fb 3f
       2.8525631 1.3309149 2.9512098 1.9641579
0001a0 e8 93 ba 3e 68 93 fc 3f 66 95 55 3f 2c 4e 9a 40
       0.3644097 1.9732485 0.8343109 4.8220425
0001b0 0b 9e aa 40 3b 12 07 41 30 ef 83 3f c6 fc 54 3e
       5.3317924 8.441951 1.0307369 0.2079955
0001c0 d5 42 49 40 87 ba 93 3d 2a f1 32 3f 34 18 df 40
       3.144704 0.07213312 0.6989924 6.9717045
0001d0 72 90 31 3f 0e 0b bd 40 3a 05 72 40 13 cb 17 40
       0.6936103 5.9075994 3.781569 2.3717697
0001e0 47 68 2d 41 ed 60 52 40 6d 2d 8b 40 c1 a0 62 3f
       10.837958 3.2871659 4.349295 0.8852654
0001f0 bb a6 8c 40 bd 1d b7 3f 10 f6 cf 40 62 1a 25 3f
       4.395353 1.430595 6.498787 0.6449338

bn3.weight f4 [128]
000000 04 26 b9 3f ae 25 c0 3f a7 c9 ac 3f 87 20 e5 3f
       1.4464726 1.5011499 1.349904 1.7900552
000010 3b ce a7 3f 8e 43 ea 3f bc 99 f7 3f 45 fd f1 3f
       1.3109812 1.8301866 1.9343791 1.8905417
000020 30 e1 01 40 e4 73 ae bc 56 3d df 3f ee b4 30 40
       2.0293694 -0.021295495 1.7440593 2.761043
000030 08 b1 08 40 ba 2a aa 3f fd ec 9d 3f 8f 4e be 3f
       2.1358051 1.3294289 1.2337948 1.4867724
000040 68 dc 09 40 87 74 d3 3f 37 29 bc 3f da 1b 0b 40
       2.1540775 1.6519936 1.4700078 2.173575
000050 af ab 39 3c 44 e1 91 3f ee 71 0e 40 ac 29 f9 3f
       0.011332436 1.1396871 2.2257037 1.9465842
000060 33 52 ef 3f a4 da e3 3f 65 85 17 40 0c ca ce 3f
       1.869696 1.7801099 2.3675168 1.615541
000070 43 e5 a3 3f 83 5f 8e 3f a8 f3 d5 bf e4 b9 bc 3f
       1.280434 1.1122898 -1.6714983 1.4744229
000080 4e 15 d5 3f cf 0f 0a 40 89 69 dd 3d d7 1b a9 3f
       1.6647127 2.1572149 0.10811145 1.3211621
000090 b2 e0 e7 3f a4 20 94 3f fb b1 33 40 84 50 87 3f
       1.8115447 1.1572461 2.807738 1.0571446
0000a0 d1 a3 b7 3f c4 8d 02 40 de 81 df 3f 63 80 b5 3f
       1.4346868 2.0399027 1.7461507 1.4179806
0000b0 55 12 bf 3f 08 d2 f3 3f 55 82 d7 3f 46 d5 a9 3f
       1.492747 1.9048471 1.6836649 1.3268211
0000c0 b5 de e3 3f 45 8d 80 3f c4 f5 0d 40 34 40 d3 3f
       1.780234 1.0043112 2.2181253 1.6503968
0000d0 4b ca be 3e de fc b6 3f 85 0e e9 3f ad b3 db 3f
       0.37263712 1.4295919 1.8207556 1.7164208
0000e0 ed 7f 99 3f 2d 82 0b 40 b0 38 d8 3f be ef da 3e
       1.1992165 2.1798203 1.68923 0.42761034
0000f0 e0 d6 a0 bf d5 c6 14 40 cd 08 d0 3f e2 e4 11 40
       -1.2565575 2.3246357 1.6252686 2.279595
000100 20 8d e2 3f 61 b1 82 bf 3d e3 b6 3f 1e ca 00 40
       1.7699318 -1.0210382 1.4288098 2.0123363
000110 af d0 cf 3f 83 73 0f 40 e9 f9 9a 3f cf ba f6 3f
       1.623556 2.2414253 1.2107517 1.927576
000120 ae 80 19 40 bd 28 a2 3f 25 e0 bf 3f c1 11 15 40
       2.398479 1.2668682 1.4990278 2.3292086
000130 c2 50 17 40 cc d9 0b 40 61 b6 84 3f ec 37 98 3e
       2.364304 2.1851683 1.0368158 0.29730165
000140 2f 41 f3 3f b5 9a 3d 3f 46 6b e1 3f c8 c3 94 3f
       1.9004267 0.7406419 1.7610862 1.1622248
000150 2b e9 c1 3f d3 87 3b 3f 7e e5 cd 3f 08 b0 c1 3f
       1.5149282 0.73254126 1.608566 1.5131845
000160 85 b7 c7 3f 3a f6 ec 3f 7d 0c bb 3f cb ee 8b 3f
       1.5602881 1.8512642 1.4613186 1.0932249
000170 9b e6 ab 3f a1 e5 fb 3f b1 61 c2 3f e2 1d e7 3f
       1.342975 1.9679452 1.5186063 1.8055995
000180 a8 6c 54 3f 92 95 f7 3f 4c 16 e8 3f 5d e2 ed 3f
       0.82978296 1.934252 1.8131804 1.8584706
000190 e4 a0 f3 3f 61 ed 16 3f 12 73 ee 3f fa 59 94 3f
       1.9033475 0.5895596 1.8628867 1.1589959
0001a0 43 be f4 3f 1c 48 08 40 31 9d ef 3f 90 4b be 3f
       1.9120563 2.1294012 1.8719846 1.486681
0001b0 94 99 db 3f 49 dd 1f 40 d7 e5 cb 3f 3d b8 0a 40
       1.7156243 2.4978812 1.5929517 2.167495
0001c0 4a e8 b7 3f 61 b8 b4 3f 6d 24 1c 40 63 12 c2 3f
       1.4367764 1.4118768 2.4397233 1.5161861
0001d0 34 7d e2 3f 3e 15 b8 3f b9 f1 e0 3f b8 55 97 3e
       1.7694459 1.4381483 1.7573768 0.29557586
0001e0 ff e4 f0 3f 27 92 19 40 18 30 d2 3f 5f 42 35 3f
       1.8819884 2.3995454 1.6420927 0.708044
0001f0 53 b2 5b 3f 33 67 d2 3f 8c e0 e1 3f e0 a3 98 3b
       0.85818976 1.6437744 1.7646651 0.0046582073

bn3.bias f4 [128]
000000 3b da a1 bd 0e b7 d5 3d ea 7b cc bd 39 56 12 3e
       -0.07902952 0.104353055 -0.09984572 0.14290704
000010 eb 1d 03 3e e0 b5 0e 3e 21 08 72 bd 36 b5 2b 3e
       0.12804382 0.13936567 -0.059089784 0.16768345
000020 c2 bc 1f 3d 2c fe 8f 3c f6 c5 ad bd 05 0e 87 3e
       0.038998373 0.017577253 -0.08485024 0.26377884
000030 ef 8e 9e bd d7 2a 2e be c3 7a 2e 3d 4c d8 e0 bd
       -0.07742106 -0.1700853 0.042597543 -0.10978755
000040 d8 e9 87 3c 16 8a 15 3e 5c c4 00 3e 27 53 85 3e
       0.016590998 0.14603457 0.12574905 0.26040003
000050 d3 51 13 bc 6a 5c c9 3d 87 28 7b 3e 3e c6 e8 bd
       -0.008991676 0.0983208 0.24527179 -0.11365937
000060 b4 4b 1c be cc a6 5b 3e 70 7b bc 3e 05 05 89 bd
       -0.15263253 0.21450347 0.36812925 -0.066904105
000070 30 e7 58 3e d9 b4 98 3d af d7 73 be 6f c8 80 3d
       0.21181941 0.07456369 -0.23812746 0.0628823
000080 dc b9 89 3e 3b a8 06 be 1a ac b8 be 85 03 c4 bc
       0.26899612 -0.13150112 -0.36068803 -0.02392746
000090 8d 23 35 bd 87 f2 05 bd 9f 72 d4 bd ac a3 1e bd
       -0.044223357 -0.032701995 -0.10373425 -0.03873031
0000a0 1d 0e 8b 3d 0f 9f 6f 3e f5 28 a0 3c ad c5 c8 bd
       0.06789801 0.2340052 0.01955078 -0.09803329
0000b0 67 bd 5a 3e 2a 2c 00 bc 6f b3 5e be 35 13 19 be
       0.21361314 -0.0078230295 -0.21748136 -0.14948733
0000c0 d2 45 4f 3c 60 95 39 bd 84 b6 4b 3e d1 5d 88 bd
       0.012650924 -0.04530847 0.19893843 -0.06658519
0000d0 75 68 8a 3e c0 f0 39 bd 59 48 52 3e 9e 5f 9e 3e
       0.2703282 -0.045395613 0.20535411 0.30932325
0000e0 6f c0 ed bd bd bf 1c 3e 2c a6 06 3e 97 4a 45 be
       -0.116089694 0.15307517 0.13149327 -0.19266735
0000f0 69 4d f3 3c 75 d2 c7 bd f8 14 cc bd fc 86 f9 bd
       0.029699998 -0.09756938 -0.09964937 -0.12183949
000100 18 68 81 3d 2c e6 cd be d0 44 b7 3b 18 d0 b9 bd
       0.063186824 -0.4021467 0.00559292 -0.09072894
000110 80 c7 1b 3e 0b b3 07 3d 7e 61 3d be 63 9c df 3d
       0.15212822 0.033129733 -0.18494222 0.109185
000120 45 0f 85 be 3d cb 2d 3e cc de 6e 3d 8a 09 45 be
       -0.25988212 0.1697206 0.058317944 -0.1924192
000130 63 37 e7 3d 88 66 24 3e a1 59 ad 3d 2e 77 b9 be
       0.11289861 0.16054738 0.08464361 -0.3622374
000140 f1 42 aa bd de e1 09 be 45 b2 5a 3e a4 b0 aa be
       -0.08313549 -0.13465068 0.21357067 -0.3333789
000150 fc 70 ff bd 77 1c 9e 3e 2e 96 0e be 2f 41 23 3e
       -0.12472722 0.30881092 -0.13924477 0.15942834
000160 f8 0e b7 3d d1 52 60 3d b3 d5 dd bd 54 2e b7 be
       0.08938402 0.05476648 -0.108317755 -0.35777533
000170 2d 26 b3 3d 8b 0f 1d 3e e5 0a ed bc 94 d2 9e 3d
       0.08747516 0.1533796 -0.028935859 0.07755008
000180 a1 a8 b7 3d 4b 7b 94 3d f9 55 79 3d e3 4a 28 be
       0.0896771 0.07250079 0.060873006 -0.16434817
000190 f1 4b 10 3e a4 47 88 3e 85 08 c6 3d cf 6b 36 3d
       0.1409147 0.26617157 0.09669594 0.044536408
0001a0 aa e8 47 be b1 14 2c 3e 5f 58 ba 3e 8e 99 81 3e
       -0.19522348 0.16804768 0.36395547 0.25312465
0001b0 87 15 2c be 74 2c b7 3e d8 db 36 be 61 27 1a 3d
       -0.16805087 0.35776103 -0.17857301 0.03763521
0001c0 9a 41 94 bc f4 fe e0 3d 12 43 2d 3d df 7b 0d 3e
       -0.018097688 0.109861284 0.04230029 0.13816784
0001d0 92 2e bb bd ec 3f 56 3e 4a f2 75 3d 9c 9d 43 3e
       -0.09139742 0.20922822 0.060045518 0.19103092
0001e0 e0 55 aa bd 81 c2 74 3e e0 22 3a 3e 42 6b a8 be
       -0.083171606 0.23902322 0.18177366 -0.3289433
0001f0 6e 76 2f 3d 25 ad 74 3e ab a9 11 3e 08 3b bb 3b
       0.042837553 0.23894174 0.1422488 0.005713824

bn3.running_mean f4 [128]
000000 fd a4 78 bf 28 c4 47 3f c5 d9 26 bf 2c 41 43 bf
       -0.9712675 0.78033686 -0.6517604 -0.7627132
000010 53 98 57 bf 1c a2 41 bf 65 67 73 bf 2e a1 52 bf
       -0.84216803 -0.75637984 -0.9507964 -0.8227719
000020 59 7d a8 be 07 8a 24 41 e4 4d 6e be c3 56 9e 3c
       -0.32908133 10.283698 -0.232719 0.01932848
000030 4f 98 00 3f 17 22 6b bf d3 a7 8f 3f 39 e7 24 bf
       0.50232404 -0.9184889 1.1223091 -0.6441532
000040 61 7a 67 bf ae e8 cf be df 22 70 bf 41 3a 7d bf
       -0.9042111 -0.40607208 -0.9380321 -0.98917013
000050 b8 f8 19 41 86 d2 b9 bc c5 1e 6f be 38 6d 73 be
       9.623222 -0.022683393 -0.23351581 -0.23772132
000060 00 6d 60 bf 77 53 61 bf 3d 95 4c bf b0 27 69 bf
       -0.8766632 -0.8801798 -0.7991522 -0.91076183
000070 7e 65 5d bf c3 2b b5 be f7 ca 15 41 d9 8e 1c bf
       -0.8648299 -0.3538495 9.362052 -0.6115547
000080 42 e6 68 bf 86 d3 67 bf 77 b7 11 41 9d df 50 bf
       -0.90976346 -0.90557134 9.107291 -0.81591207
000090 43 2c 57 3f 83 26 24 bf 59 ec 0e be a3 75 70 bf
       0.84051913 -0.64121264 -0.13957347 -0.939295
0000a0 4f 9f 07 bf ae 26 81 40 7d ab 02 bf 10 4f 6c bf
       -0.5297746 4.0359716 -0.5104292 -0.9230814
0000b0 0e d4 d6 40 a1 7c 01 be 47 1d 7b bf af 76 51 bf
       6.7133856 -0.12645198 -0.9809155 -0.8182172
0000c0 a8 17 fb be 4b ee fe 40 4b 38 e2 3d 91 29 bd 3e
       -0.49041486 7.9665885 0.11045893 0.36945775
0000d0 b8 f3 99 41 99 9a 87 be 2a 18 e7 be 93 05 8a be
       19.244003 -0.26485136 -0.45135623 -0.26957378
0000e0 5a ef 95 3d 46 fe 69 bf 10 8d 7f bf 99 42 02 41
       0.07321043 -0.91403615 -0.9982462 8.141259
0000f0 22 b6 7d bf df fe da be 5e e4 66 bf c5 e2 19 bf
       -0.9910604 -0.42772576 -0.9019221 -0.6011165
000100 c5 e2 90 be 26 f1 14 40 33 24 4c bf 66 ec 2a be
       -0.2829801 2.3272185 -0.79742736 -0.16691741
000110 0a 91 4c bf 4a 65 bf be d6 21 7f bf f7 dc 29 bf
       -0.7990881 -0.37381965 -0.99661005 -0.6635279
000120 ea f7 49 bf 35 2b cf be 08 a1 41 bf 45 be 51 bf
       -0.7889391 -0.40462652 -0.7563634 -0.81930953
000130 10 dd e7 3e 2a bc cc be 9f 5b 65 bf 78 19 63 40
       0.45285845 -0.39987308 -0.8959293 3.5484295
000140 29 fc 7f bf 4b 76 29 41 8b 1e 9f be 80 c6 d1 3e
       -0.9999414 10.59138 -0.3107799 0.40971756
000150 fe cb 96 3f c1 da 0b 41 8e 50 5a 3f 81 05 1a be
       1.1781003 8.740907 0.85279167 -0.15041162
000160 1d 56 2e bf c8 4c 4a bf 16 e3 6a bf 65 07 ec be
       -0.6810015 -0.7902341 -0.91752756 -0.46099392
000170 84 59 02 40 50 b3 50 bf 40 cd 40 bf e9 a0 66 bf
       2.0367136 -0.8152361 -0.75313187 -0.9008928
000180 4a 53 7a bf f8 9e 95 3f f2 e8 3a bf 23 37 67 3e
       -0.9778334 1.1689138 -0.73011696 0.22579627
000190 bb 11 d3 bd 8d 53 27 41 e5 2a 13 bf e3 11 ea 3f
       -0.10306116 10.457898 -0.57487327 1.8286709
0001a0 a4 26 88 bd 8b de 0a bf b2 44 6e 3f 5e 6d cb be
       -0.06647995 -0.54245824 0.9307357 -0.39731878
0001b0 4e dd 8c be b0 fb 72 bf e0 0e 67 bf fa 0d e3 be
       -0.27512592 -0.94915295 -0.9025707 -0.443466
0001c0 2d 88 55 bf 48 ec c9 3f 18 07 36 bf e2 e8 0f bf
       -0.8341091 1.5775232 -0.71104574 -0.56214726
0001d0 6c bd 76 bf 39 c2 17 bf 6a 56 71 bf 71 9c 5c 41
       -0.96382785 -0.59280735 -0.9427248 13.788194
0001e0 11 1d 26 bf e6 26 08 40 d2 83 5a bf 40 b2 4c 40
       -0.648881 2.1273742 -0.8535739 3.1983795
0001f0 c6 e5 90 40 bd 9c 5d bf 5c e0 c6 bc 0c cd c3 40
       4.5280485 -0.8656729 -0.024276905 6.11878

bn3.running_var f4 [128]
000000 3a 0b 7f 3d 60 15 75 41 27 ad 14 40 f0 50 cd 3f
       0.062266566 15.3177185 2.3230684 1.6040325
000010 09 5d 12 3f 13 e3 c1 3f 29 0f d1 3d fb 1f a1 3f
       0.5717321 1.5147423 0.1020797 1.2587885
000020 e2 52 86 40 86 d5 89 42 11 fa a6 40 ed e2 c0 40
       4.1976175 68.91704 5.2180257 6.027701
000030 b3 c8 96 41 9b f1 33 3f a4 5c 4d 41 c4 b0 30 40
       18.847998 0.70290536 12.835117 2.760789
000040 47 f1 5b 3e e5 ee 90 40 ea 91 0d 3f ce 9a 00 3c
       0.21478759 4.529162 0.5530077 0.007849408
000050 47 75 61 42 c2 3d 32 41 72 b6 86 40 92 ca de 40
       56.36453 11.140078 4.209771 6.962228
000060 78 4b c5 3e e0 c6 09 3f 5b 74 66 3f f3 34 2b 3f
       0.3853414 0.53819084 0.90021294 0.6687767
000070 81 3e 95 3f 34 82 59 40 35 61 bb 42 50 46 0e 40
       1.16597 3.398572 93.68986 2.2230415
000080 93 7e d5 3e 40 ad 23 3f 0b 05 21 43 6d cc 63 3f
       0.4169813 0.63936234 161.0197 0.88983804
000090 80 5f 77 41 22 c4 19 40 59 d5 b1 40 4e 34 8f 3e
       15.460815 2.402596 5.5572934 0.27969593
0000a0 1d cd 53 40 82 64 1a 42 c6 bc 2a 40 e6 11 8e 3e
       3.3093941 38.598152 2.6677718 0.2774803
0000b0 00 73 90 42 e0 45 e5 40 91 ee 63 3d f4 b1 97 3f
       72.22461 7.1647797 0.055647437 1.1851182
0000c0 1f 0a 17 40 20 3d de 42 18 92 19 41 93 74 42 41
       2.3599927 111.119385 9.598167 12.1534605
0000d0 43 92 d7 42 67 79 ac 40 5c 1c 3a 40 14 f0 a8 40
       107.78567 5.3898196 2.907981 5.2793064
0000e0 80 9b f7 40 de e8 1d 3f e4 96 84 3b 60 19 e1 42
       7.737732 0.6168345 0.004046308 112.54956
0000f0 ed 94 08 3c 20 27 84 40 6c 76 c8 3e 87 fc d4 3f
       0.008336288 4.129776 0.3915285 1.6639565
000100 0e e4 ba 40 1c 41 af 41 54 65 f2 3f eb d0 bd 40
       5.8403387 21.906792 1.8937173 5.9317527
000110 b7 c7 f1 3f 6a 43 a0 40 69 f5 cd 3a 1e b1 dc 3f
       1.8889073 5.0082293 0.0015713397 1.7241552
000120 21 77 84 3f 17 96 b1 40 d5 b9 1c 40 8c a0 4c 3f
       1.0348855 5.5495715 2.4488423 0.79932475
000130 ca e6 14 41 6b 19 81 40 26 b9 67 3f 30 f3 8a 42
       9.306345 4.034353 0.9051689 69.474976
000140 2b 42 61 35 c5 30 c0 42 d1 4d 89 40 33 20 17 41
       8.391532e-07 96.09525 4.290749 9.445361
000150 1a ed aa 41 d9 02 8f 42 a4 17 42 41 e3 1b c2 40
       21.365772 71.50556 12.130772 6.065904
000160 9d 21 c4 3f 62 9c 73 3f 37 74 f3 3e ae 64 41 40
       1.5322758 0.95160496 0.47549602 3.02177
000170 05 62 bd 41 f6 84 92 3f 53 6b af 3f dd 1d d9 3e
       23.672861 1.1446826 1.3704628 0.42405596
000180 d5 8b a0 3d ce fc 06 42 13 db bc 3f 02 8d 01 41
       0.07839171 33.74688 1.4754356 8.096926
000190 7d 7e e9 40 cd f8 a4 42 11 3d 0f 40 44 6e 8f 41
       7.2966905 82.48594 2.2381022 17.92884
0001a0 7c fc 94 40 75 29 42 40 40 37 6f 41 24 ea b1 40
       4.655821 3.0337803 14.950989 5.5598316
0001b0 f1 3d a0 40 19 49 b5 3d 30 21 c6 3e a1 4f 70 40
       5.007561 0.08851833 0.38697195 3.7548602
0001c0 54 a7 82 3f 5e 09 9b 41 53 2d b7 3f 89 07 50 40
       1.0207314 19.379574 1.4310707 3.25046
0001d0 d5 15 f1 3d db 52 66 40 eb 40 66 3e fc db e7 42
       0.11771742 3.598807 0.22485702 115.92966
0001e0 ef 8c 1c 40 8a d4 b3 41 f3 e0 02 3f ae 10 fb 41
       2.446102 22.478779 0.51124495 31.383144
0001f0 d3 37 85 42 a3 ef 00 3f 03 2d 02 41 a4 5e 1d 42
       66.60903 0.50365657 8.135989 39.342422

fc1.weight f4 [128, 24]
000000 2e 25 97 3d 65 fa 7c 3d cf f4 63 bf 45 f4 82 bf
       0.07380138 0.061762232 -0.89045423 -1.0230795
000010 d4 b5 1a bd 95 5d 58 3e 9e b0 3b bf d8 13 1f be
       -0.03777106 0.21129449 -0.7331637 -0.15534914
000020 98 f4 8e 3d 78 e4 8b 3e a8 3f 41 bf 88 74 e8 be
       0.06980246 0.27322745 -0.75487757 -0.45401406
000030 0d dc 51 3d 2c bf 10 3f 4f 5c b5 bd c7 b3 b2 3e
       0.051235247 0.56541705 -0.08855497 0.34902784
000040 8c 0a 9d 3d c5 67 26 bd 2f b9 18 be 0e 26 83 bf
       0.07668027 -0.040626306 -0.14914392 -1.0245988
000050 74 53 08 3f 73 e2 4c 3f e4 bf 2b 3e c9 af 5a bf
       0.5325234 0.80033034 0.16772419 -0.85424477
000060 1e 61 ed 3e a2 1e a8 3e 01 ad 24 bf ac 95 7e 3d
       0.46363157 0.3283587 -0.64326483 0.062154457
000070 5e 4a 22 3e 92 7b 56 be bc f9 2f bf d4 b6 e2 bd
       0.15848681 -0.20945576 -0.6874044 -0.11070028
000080 ea 29 c5 bd d9 b7 f2 3d 09 27 8e bf a9 b3 3b 3f
       -0.09627135 0.118514724 -1.1105663 0.73321015
000090 71 58 0e be 17 46 88 be b4 fb a8 bf f5 4c 8d be
       -0.13900925 -0.26615974 -1.3201814 -0.27597776
0000a0 08 6d 8b bf 20 9b d0 3e cb 26 7e be 8c c9 85 3e
       -1.0892649 0.4074335 -0.24819486 0.2613033
0000b0 0a 30 3a be 31 3e d9 3d 92 a7 d4 be 98 e5 54 3e
       -0.18182388 0.10607565 -0.41534096 0.20790708
0000c0 af e3 50 bf ab 86 33 3f f3 94 89 3d a5 f4 8d 3e
       -0.8159742 0.7012736 0.06717863 0.2772571
0000d0 dc 5a c4 3e b5 85 71 be 2a c5 ea 3c 94 3a a6 3e
       0.3835057 -0.23586161 0.028658468 0.32466567
0000e0 55 c7 bd be b2 85 3c 3f 36 a7 8d 3c 89 35 4b 3e
       -0.3706614 0.736415 0.017291646 0.19844641
0000f0 58 56 88 3e 97 53 0a bf a0 fa c7 3d b9 d7 22 3e
       0.26628375 -0.540338 0.097646 0.15902604
000100 b5 18 83 bf 0d 41 2a 3f f8 ca 5d be 96 a1 06 bf
       -1.0241915 0.6650551 -0.21659458 -0.5259031
000110 e1 7c 29 3f 77 e5 0f bf 24 26 76 be fe f7 99 be
       0.66206175 -0.5620951 -0.24037987 -0.30072016
000120 10 e8 ac be 0d 81 82 bc 74 b6 b0 bc 71 28 f9 bd
       -0.337708 -0.015930677 -0.021571375 -0.12165917
000130 72 47 ce be 8a ef 91 3f b0 0d 0a be 36 78 ac be
       -0.40288883 1.1401227 -0.13481784 -0.33685464
000140 99 f7 e0 3d 0a f2 c8 bd 4b e4 65 bd c5 e1 dd 3d
       0.109847255 -0.0981179 -0.05612592 0.10834078
000150 ab d9 82 be 59 7f 2e 3f 87 3c 58 be 4f 79 96 be
       -0.25556692 0.6816307 -0.2111684 -0.29389426
000160 59 e9 17 3e 04 80 a3 bd 9a 79 e3 bd e9 9b da bd
       0.14835109 -0.079834014 -0.11107178 -0.10674269
000170 d2 6d 83 3e 60 63 91 bf 1b cc 81 be ed 80 32 3e
       0.25669724 -1.1358452 -0.25351033 0.17431994
000180 dd 42 37 3f 72 ae 43 3d 28 9a b6 3e f8 91 68 3d
       0.715864 0.047773786 0.35664487 0.05677983
000190 0b 7a 3c be 23 6d 8b be f5 8d a2 3e 03 38 73 3d
       -0.1840593 -0.27231702 0.3174893 0.05937959
0001a0 40 88 4a 3f a0 08 3b 3d 93 03 c4 3e ed 33 31 bd
       0.7911415 0.045662522 0.38283977 -0.04326241
0001b0 73 a5 39 be 94 ff 0f bf 4b 66 ef 3e 74 7e 71 3d
       -0.1812952 -0.56249356 0.4675773 0.058958486
0001c0 39 d9 e6 3e 81 04 82 be 58 a3 cf 3e 14 aa 7e be
       0.45087603 -0.2539406 0.4055431 -0.24869567
0001d0 07 ee 0b bf 37 ae 20 bf 87 dc da 3e 56 42 a3 be
       -0.54660076 -0.6276583 0.42746374 -0.31886548
0001e0 ff 52 c3 bd bb e5 68 3e ba 45 79 bc c9 c6 28 be
       -0.095373146 0.22743885 -0.015214378 -0.1648208
0001f0 82 f6 28 bc 8a 1f 44 3f d1 c5 f1 bd 2d 74 ba be
       -0.010312678 0.76610625 -0.118053086 -0.3641676
000200 ac e1 96 be 7c 52 cc 3c 7f e4 d3 3d 43 d9 80 bd
       -0.2946905 0.024941675 0.103463165 -0.062914394
000210 f0 79 84 bb d7 e8 2d 3e 2f 49 ee bd c0 d5 cf be
       -0.0040428564 0.16983353 -0.116350524 -0.40592766
000220 d4 be 86 be 4f 40 b3 bc ae db 73 3d 8e 39 04 be
       -0.26317465 -0.02188125 0.059535675 -0.1291258
000230 42 25 7c 3e 98 23 00 c0 78 80 a8 bd 14 d7 84 3d
       0.24623588 -2.0021725 -0.082276285 0.064863354
000240 0c f1 ed 3d 38 93 c7 be 32 b7 63 bf 89 5a 0d bf
       0.11618242 -0.38979506 -0.8895141 -0.5521627
000250 07 19 5c be 1c 45 35 bd 56 a1 64 bf 85 ca e2 be
       -0.21493922 -0.04425536 -0.8930868 -0.44295135
000260 8e b1 f8 3e a8 01 c8 be 36 43 b6 3e 23 ec c2 be
       0.48572963 -0.39063764 0.35598153 -0.38070783
000270 36 1e 3f bf d6 7a 21 be 00 b3 86 3e a8 35 68 be
       -0.74655473 -0.15769514 0.2630844 -0.22676718
000280 c5 1e 75 3e cb 6e ce be 0e e7 9b be bc 6f 33 3e
       0.23937519 -0.40318903 -0.30449718 0.17523092
000290 f2 6e 9b bf 04 f6 07 3f 50 73 66 be 99 84 f9 3d
       -1.2143233 0.53109765 -0.22504926 0.12183494
0002a0 4d c4 0e bf a3 98 73 be 48 ef 43 bf be 88 c4 3d
       -0.5576828 -0.23788695 -0.7653699 0.09596394
0002b0 07 8c d8 3e 5a 1b b9 be db f1 67 bf b7 40 76 be
       0.42294332 -0.3615368 -0.9060342 -0.24048124
0002c0 7a 3d 03 3e 4b 8c 29 bf aa c8 c3 3f 78 3c a5 3e
       0.1281642 -0.66229695 1.5295613 0.32272696
0002d0 c9 30 a3 3d ce 9d 48 3e 69 68 89 3f 63 b9 68 be
       0.079682894 0.19591448 1.0734988 -0.2272697
0002e0 0b 93 5a 3e 4e 34 c9 be cd 8c 3b be a4 1c e7 3e
       0.21345155 -0.39297718 -0.1831543 0.4513904
0002f0 c2 3a 07 be 85 54 04 3e 7d 21 d4 be 16 a8 1d 3f
       -0.13206008 0.12922867 -0.414318 0.61584604
000300 62 9a 5b be 0d 69 8a 3e 36 ab af bd 4f da bb be
       -0.21445611 0.27033272 -0.08577578 -0.36689994
000310 da 94 fb 3e 58 37 73 bf a9 2a 01 be ea 4b e7 be
       0.49137002 -0.9500632 -0.1261393 -0.45175105
000320 d2 85 dc be f2 6b a7 bd f9 a8 4b 3e aa ec b1 be
       -0.43070847 -0.08174886 0.19888677 -0.34750873
000330 1c 4b 11 be 8e 74 b7 be c1 a5 d2 bb e8 36 29 bf
       -0.14188808 -0.35831112 -0.006428451 -0.66099405
000340 e3 f0 b7 bf fe 06 9a be ef 64 89 be 73 56 17 bf
       -1.4370388 -0.3008346 -0.2683482 -0.59116286
000350 f6 31 98 bd ea 34 65 bc 4e 93 a3 be 26 4a c4 ba
       -0.07431404 -0.0139896665 -0.31948322 -0.0014975711
000360 30 e3 0d 3e 13 09 39 3f 3d f9 15 3b 5c 28 bc 3e
       0.13856196 0.7227947 0.0022884153 0.36749542
000370 44 1e 5b 3f 3b e0 b4 bf 75 68 00 be ae 6c 44 bc
       0.85593057 -1.413093 -0.12539847 -0.011988802
000380 a5 8e b2 3e 9b 57 a7 3e 2f df 03 3f cb 92 33 3f
       0.34874454 0.32684025 0.51512426 0.70145863
000390 6d af 8f 3e 55 0c 08 bf f1 ae e8 3c e4 4e 82 be
       0.28063527 -0.5314382 0.028403731 -0.25450814
0003a0 13 25 03 bf 00 c0 0f 3e 3a 52 9c bd d8 27 93 3d
       -0.51228446 0.14038086 -0.07632871 0.07185334
0003b0 11 aa e4 3e 48 7c 25 3f 03 3d 90 be bf 59 eb 3e
       0.44661 0.64642763 -0.28171548 0.45966908
0003c0 ba 12 32 be a6 d5 35 3f f1 49 7f be 12 b1 af 3b
       -0.17389956 0.71029127 -0.2493055 0.0053616846
0003d0 9d 9d 07 40 14 76 26 be 9f 3e 74 be 81 8c c4 be
       2.118995 -0.1625598 -0.23852013 -0.38388446
0003e0 2e 34 3a 3e 41 bf b2 bd e9 bb c2 be fd 9a c3 3d
       0.18183967 -0.08727885 -0.3803399 0.09551046
0003f0 b1 81 bb 3f 99 9f 58 3e c6 e1 33 bf 58 f5 d7 be
       1.4648954 0.21154632 -0.7026638 -0.4217937

fc2.weight f4 [128, 128]
000000 a3 35 83 be a5 76 81 3e 53 b8 78 3f 4b ec 0e 3e
       -0.2562686 0.2528583 0.97156256 0.13957326
000010 3f a0 95 3e 2b 5c 7b 3e 67 45 c6 3d 89 76 c3 3e
       0.2922382 0.24546878 0.09681206 0.38176373
000020 f2 9d 99 bf 72 76 06 be af ff f2 be 1a 0b b0 3d
       -1.2001326 -0.13131121 -0.47460696 0.085958675
000030 46 da 8e be c2 5f ed 3e 25 92 6b 3e 53 61 13 bf
       -0.27900904 0.4636212 0.23004968 -0.5757038
000040 fb f0 c6 3e 52 e0 83 bf 62 63 d2 be 36 3b 16 3f
       0.38855729 -1.0302832 -0.41091448 0.586841
000050 18 f8 56 3e 1f 74 5b 3e 28 b8 4a bf c2 7f 39 bf
       0.20993078 0.21431015 -0.7918725 -0.7246057
000060 4b e6 6f bf 59 e4 3e be 17 27 d6 be 55 86 cf 3e
       -0.93710774 -0.18641795 -0.41826698 0.40532175
000070 5d 0e 10 3f c2 f1 95 3e fa 7c 83 3d b3 23 87 3f
       0.56271917 0.2928601 0.06420322 1.055777
000080 f0 2f 9b be d0 c8 31 bf 79 fd c1 3d 0a 36 03 3f
       -0.3031001 -0.6944704 0.09472174 0.5125433
000090 ad 7a ac bc f7 73 d0 bd 0c 4b 8d 3e 24 41 40 3f
       -0.02105459 -0.101783685 0.2759632 0.75099397
0000a0 e9 6c 83 bf 68 13 1e 3f 89 92 4b 3e 2d a5 be 3d
       -1.0267612 0.6174836 0.19880117 0.093088485
0000b0 4e 13 8f 3e 1f 02 4c bf 26 71 97 3e 9c 3e d0 be
       0.27944416 -0.79690737 0.29578513 -0.40672767
0000c0 63 4a 2a 3e 24 df 8d 3e 1d d6 40 bd 6e a4 08 bf
       0.16629939 0.27709305 -0.047079194 -0.533759
0000d0 c2 dd 5e 3d 06 25 9a bd 46 54 6e 3f a9 89 cc bc
       0.054410703 -0.07526593 0.9309734 -0.024967985
0000e0 9f ac 09 3f 05 10 49 bf c8 03 43 3f 38 3e ea 3e
       0.53779024 -0.7854007 0.76177645 0.45750594
0000f0 77 fc 15 be 3b b4 9d be fe c0 46 bf 85 be d3 be
       -0.14647089 -0.30801567 -0.7763823 -0.41356292
000100 a3 21 89 bf 46 bd 98 3e f5 2d df 3d 87 b4 9f 3e
       -1.071339 0.29831904 0.108974375 0.3119242
000110 bc 24 05 bf f8 15 d8 be 1f 28 26 bf f7 83 bc be
       -0.5200918 -0.4220426 -0.6490497 -0.3681943
000120 97 d1 57 be be a4 a6 bf cf 00 ef 3e 97 f9 d4 be
       -0.21076046 -1.3019025 0.46680304 -0.41596672
000130 82 b0 e3 be d1 44 77 bf 6f 15 23 3e c7 af 6a be
       -0.44470602 -0.9658938 0.15926145 -0.22918616
000140 4d 8e 3a bf cc 93 59 3e 44 49 10 3e ca 84 86 bd
       -0.72873384 0.21247786 0.14090449 -0.06568296
000150 93 3e 24 bf 67 f9 0c bf 1a f1 54 3e a6 37 23 3c
       -0.6415798 -0.5506806 0.20795098 0.009961998
000160 5b 3f 13 3f 4e 5a 1b 3f 5d 72 f9 bd 54 bb a7 3d
       0.5751855 0.6068467 -0.12180016 0.08190027
000170 33 d4 65 3e fd 8d aa 3e 99 90 b5 bd b4 11 4f 3f
       0.22444229 0.33311453 -0.088654704 0.8088639
000180 5d 2d 1a 3c bd ee 53 3f 43 d1 cc bd 76 f8 ba bd
       0.0094102295 0.8278616 -0.10000851 -0.091294214
000190 90 66 3c bc b4 1e 14 3e 05 e3 2a 3f 62 d7 b7 3e
       -0.011499062 0.14464837 0.66752654 0.35906512
0001a0 39 f4 a6 3e 1c dc e5 3e 88 23 dd 3e a3 bf 3a bf
       0.32608202 0.44894493 0.4319117 -0.72948664
0001b0 7f ab 55 3d f0 e2 25 3f 71 a3 79 bf 0d b0 21 be
       0.052165505 0.64799404 -0.97515017 -0.15789814
0001c0 a5 fe ad 3d 7b b0 e4 3d ae aa 8d be 4e 25 3d bf
       0.08495835 0.111664735 -0.2766928 -0.7388505
0001d0 b8 67 2f bf 37 80 6b 3f c3 71 b8 3e b9 19 34 3f
       -0.6851764 0.91992515 0.36024293 0.7035175
0001e0 fd 81 8e 3d ca 6f d4 3e c2 28 a2 bc 7d a1 7d be
       0.06958387 0.41491538 -0.019794825 -0.24768634
0001f0 17 04 74 3c 58 80 90 bf fa 3b 1a be 26 d1 5b bf
       0.014893553 -1.1289167 -0.15061942 -0.8586601
000200 20 17 a4 be 7e ab 56 be 8f 10 13 bf ac 24 d7 be
       -0.32048893 -0.20963857 -0.5744714 -0.42020166
000210 ec 60 2c 3e d5 72 85 bf b5 17 89 be d7 26 15 3f
       0.16833848 -1.0425669 -0.267759 0.5826239
000220 7d 06 ad 3e 46 27 1c bf a0 74 19 3e 01 d6 2e 3d
       0.33794013 -0.60997427 0.14985895 0.04268456
000230 65 48 8e bc a7 8f db be ed 4f 85 3d f9 b1 de be
       -0.017368505 -0.42883036 0.06509385 -0.43495157
000240 6a a5 95 3e 79 28 16 bf 97 83 4b be dd a6 88 3f
       0.29227763 -0.58655506 -0.19874416 1.0675923
000250 0a 71 3a be 59 12 09 bf f8 d8 8d be 6a c6 88 3e
       -0.18207183 -0.5354362 -0.27704597 0.26713878
000260 3a fb 31 3d 90 32 de be 19 53 95 bd 6b 77 c8 3d
       0.04345248 -0.4339795 -0.0729124 0.09788402
000270 e6 4a 7e be 92 1f 30 3e fd 81 32 3f 32 62 47 be
       -0.24833259 0.17199543 0.69729596 -0.19471052
000280 12 c6 36 3f ba 07 05 bf 8b 2d 38 bf f5 57 80 be
       0.7139598 -0.51964915 -0.71944493 -0.25067106
000290 73 54 18 3f 89 04 ca be 51 63 3e 3c 56 ff 5a bc
       0.5950386 -0.39456585 0.011620359 -0.013366541
0002a0 c9 f6 20 3d ec be c0 be 20 12 16 be 2e c0 bd bd
       0.039297853 -0.37645662 -0.14655352 -0.09265171
0002b0 4f dd db 3e 7f d1 f1 3e e5 bc 88 bf 87 98 48 bf
       0.42942283 0.47230145 -1.0682646 -0.7835774
0002c0 6c 3c b1 be 20 41 57 be 03 6b 39 bf 77 83 44 3f
       -0.3461641 -0.21020937 -0.7242891 0.767631
0002d0 29 1b 4c be 5f 7d ee 3d a9 50 1b bf 87 d3 d6 3e
       -0.19932236 0.116450064 -0.6066995 0.41958258
0002e0 b0 c3 9c bd bd b8 d5 bd 30 11 16 3e b2 48 69 bf
       -0.07654512 -0.10435627 0.14654994 -0.9112655
0002f0 da 24 d9 3e f2 99 0c 3e 1b 5a 0b bf c2 5e 12 bb
       0.42410928 0.137306 -0.54434365 -0.0022334312
000300 9e 7b 59 bf 14 b0 44 3e b9 24 5d bd 1a 44 3f 3e
       -0.8495425 0.19207793 -0.0539901 0.18678322
000310 fd d1 8c 3f ff b4 e6 bc 54 e3 9e be 80 b6 8e bf
       1.1001583 -0.028162478 -0.31032813 -1.1149445
000320 23 c5 2f bf a4 a3 3a bf d4 0c 09 3e 97 79 f5 be
       -0.6866018 -0.72905946 0.133838 -0.47944328
000330 85 18 b6 3d 90 62 e4 3e 35 dd ca bc 08 b5 3a be
       0.088913955 0.44606447 -0.024763683 -0.1823312
000340 6a 15 be be 08 20 f6 3e f6 38 24 3f fe 3c ad 3c
       -0.37125713 0.48071313 0.64149415 0.021147247
000350 36 a4 53 3e 7f 1f 5b 3e 4a 35 6e 3e 29 38 86 3e
       0.2066811 0.21398734 0.23262516 0.26214722
000360 f4 2c cd bd 0d a5 a5 3e 45 cf b7 3e 2e 42 c6 3d
       -0.1001834 0.32352486 0.35900322 0.096805915
000370 4e 53 08 3f 11 b4 d6 be 0d a3 8b 3e c1 48 5d bc
       0.5325211 -0.41934255 0.27272835 -0.013506115
000380 4f 8f 34 bf 07 1a b2 be 31 80 85 3e e8 73 1f bf
       -0.7053117 -0.34785482 0.26074365 -0.62286234
000390 29 3e e7 be 3a b9 60 3f 4a 5f 86 3e 7d e4 4f be
       -0.45164612 0.87782633 0.26244575 -0.20302005
0003a0 e7 d8 74 be ac b5 16 bf fe fe f9 3c 6f cb 77 be
       -0.23910867 -0.5887096 0.030517098 -0.24198698
0003b0 a3 9c 8e be 7e f8 25 3e 30 48 23 3f 4c f2 22 bf
       -0.2785388 0.16208073 0.63782024 -0.63650966
0003c0 2c 14 da be 34 92 68 3f 84 af e6 be 5d c2 66 3e
       -0.42593515 0.9084809 -0.45055783 0.22535081
0003d0 db 9b 9c bf 6a 04 fc 3d c0 dd 5b be 8b ba c1 3d
       -1.2235063 0.123055294 -0.2147131 0.094594084
0003e0 22 c6 1c bd 7f 68 d6 3e 08 4b 62 bf 0f bd 02 bf
       -0.03827489 0.418766 -0.8839574 -0.5106973
0003f0 10 a2 14 bf 16 c3 60 be cb 4b 9a 3f fe 2f 2d 3f
       -0.5805979 -0.2194942 1.205438 0.67651355

fc3.weight f4 [2, 128]
000000 f4 a7 40 3f 3c b2 53 3e 33 27 66 3f e9 8b cb bf
       0.75256276 0.2067346 0.89903563 -1.5902072
000010 85 f6 7c bf 8a 21 8d bf 92 e4 25 bf 67 30 88 bf
       -0.9881366 -1.102586 -0.64801896 -1.0639771
000020 6f e5 0a 3f 99 d9 27 3c 5f 9d 2f bf d6 4a ee bf
       0.5425634 0.01024475 -0.68599504 -1.8616588
000030 3a 3e d4 3f ca 8d c3 3e bb cd 47 bf 29 92 40 3e
       1.658149 0.38194114 -0.78048295 0.18805756
000040 b8 ba 0c 3f ba b2 be 3f f3 65 92 bf 51 5e b4 bf
       0.5497241 1.4898293 -1.1437362 -1.4091283
000050 80 8b 07 bb 09 87 e5 3e de a0 aa bf 24 60 56 3f
       -0.0020682514 0.44829586 -1.3330343 0.8374045
000060 92 23 0d be 84 db 55 bf fa c7 05 c0 00 3a e4 be
       -0.137831 -0.8353808 -2.0903306 -0.445755
000070 82 35 54 bf 73 24 31 3f 66 d6 c7 3f 16 25 25 3e
       -0.82894146 0.6919624 1.5612304 0.16127428
000080 57 61 97 bf dc e6 88 3f 37 c3 8a 3e 5f d3 dd 3e
       -1.1826581 1.0695453 0.27102062 0.43325326
000090 db 53 49 bf 17 e9 8f be 1c 51 92 3f 6b 75 2d 3f
       -0.7864358 -0.2810752 1.1431003 0.6775729
0000a0 84 bb e5 3d 28 8e b5 bf a5 75 22 3f 8c b1 64 bf
       0.112174064 -1.4184008 0.6346076 -0.89333415
0000b0 ad 6a 38 bf 2f 58 57 bf 35 51 1c 3f 00 23 43 3f
       -0.72037774 -0.8411893 0.6106141 0.7622528
0000c0 77 8e 16 3f 5f 45 25 3f 0d bf 0c bf 5b 96 7b 3f
       0.58811134 0.64558977 -0.5497902 0.982763
0000d0 93 75 95 3d ce 83 4e bf 54 73 9d bf ad 31 28 bf
       0.07297816 -0.8066987 -1.230082 -0.657008
0000e0 2f 9e 65 3f 2e 75 91 bf df ee 2b bf a6 54 c0 3d
       0.89694494 -1.1363885 -0.67161363 0.093911454
0000f0 a6 11 83 bf 92 2a 9d 3f 92 48 00 3f 74 b4 2d 3f
       -1.0239761 1.2278616 0.50110734 0.67853475
000100 c4 9e 52 bf 3c 06 a3 3f 5d 36 4e 3f a1 bd 87 3f
       -0.8227351 1.2736278 0.805517 1.0604745
000110 66 40 91 bf bf 55 bc be 7a 2c c7 3e 52 2a 9e bf
       -1.1347778 -0.3678417 0.3890112 -1.2356665
000120 2a 1e c8 3f e6 d1 16 bf c2 e8 82 bf 4e 8d c1 3f
       1.5634205 -0.5891403 -1.0227282 1.5121248
000130 36 1c a5 bf a0 13 36 bf 46 b2 31 be 01 a2 c5 3e
       -1.2899234 -0.71123695 -0.17353162 0.38600162
000140 87 02 09 bf fd 05 f9 3e a8 ee 81 bf bc f8 a4 bd
       -0.5351948 0.4863738 -1.0150957 -0.08055255
000150 1b 93 93 3f ee a2 bb 3c 21 d6 31 3f 83 fb 9e bf
       1.1529268 0.02290484 0.6946736 -1.2420505
000160 d9 9e 65 be d4 6c 9b 3f f9 61 23 3f 2b 7d 67 3f
       -0.22423877 1.2142587 0.6382137 0.90425366
000170 3e d4 5b be 2d 5d 7f bf 7d 17 53 3f c3 fd c1 bf
       -0.21467683 -0.9975155 0.82457715 -1.5155567
000180 75 c3 d4 3e 3d 27 5e bf 03 ec d7 be 36 e3 ad 3f
       0.41555372 -0.8677862 -0.4217225 1.3584964
000190 3f 92 46 bf 33 27 8b 3e 75 96 db bd 2d 77 32 be
       -0.77566904 0.27178344 -0.10722057 -0.17428274
0001a0 44 f8 3c be 93 5e 9c bf 17 4a ad bf f4 45 90 bf
       -0.18454081 -1.2216362 -1.3538235 -1.1271348
0001b0 80 ec 66 3f 49 bf d9 bf e9 23 71 3e 4a c9 5e bf
       0.9020462 -1.7011501 0.23548855 -0.8702589
0001c0 38 0a 33 3f f2 4a e7 bd 70 c8 b7 bf 4b dd bc be
       0.6993747 -0.112935916 -1.4358044 -0.36887583
0001d0 33 01 3b 3f 29 e4 61 bf f6 eb 3a 3e 59 d5 03 3e
       0.73048705 -0.8823877 0.18254074 0.12874354
0001e0 d5 59 d2 3e 2a e0 9a bf 2b 7e 10 bf 0a 82 11 3f
       0.4108416 -1.209966 -0.5644252 0.5683905
0001f0 df a3 a4 3e 6f 6c 08 bf 5f 3b 0f 3e 1d 3d 3b bb
       0.32156274 -0.53290457 0.13987492 -0.0028570362
000200 55 28 66 bf 10 c6 a3 bf 52 7c 21 bf 47 6f bb 3e
       -0.8990529 -1.2794819 -0.6308032 0.36608335
000210 63 eb 72 3f 88 c0 39 be 62 f4 e0 be 69 6e 0b 3e
       0.9489042 -0.18139851 -0.4393645 0.13616337
000220 3e 63 f1 bf a1 c4 13 3d 2f 6f 77 bf ef ac 95 3e
       -1.8858411 0.03607619 -0.9665403 0.292335
000230 64 cb e1 bd 0a bc 4b 3f d4 72 12 be 42 7c a0 bf
       -0.11025122 0.795838 -0.14301616 -1.253792
000240 0c c8 11 c0 b7 8a 06 3f d3 79 07 3d ad d8 0a 3e
       -2.277835 0.5255541 0.033075165 0.13559218
000250 b6 76 7a bc 6a 42 13 bf 24 10 89 be 7d 1d 0e bf
       -0.015287092 -0.57523215 -0.26770127 -0.55513746
000260 4b 34 aa bf 9d 14 21 3f 27 53 8e 3f 19 4a 83 bf
       -1.3297209 0.6292208 1.1119126 -1.0256988
000270 a5 02 eb 3d 83 69 f6 be 60 65 9e 3f 98 16 aa 3f
       0.11475114 -0.48127374 1.2374687 1.3288145
000280 81 58 7f ba 57 66 c8 be 14 6c 81 bc d8 63 83 3f
       -0.0009740666 -0.3914058 -0.015798606 1.0264845
000290 76 7e 87 bf 59 8d 7b bf 61 8a e1 bf 34 7c 5e be
       -1.0585468 -0.98262554 -1.7620355 -0.21727067
0002a0 21 aa bb 3f 8d 7d 4b be 72 4d 0b 3f 8b 3d fc be
       1.4661294 -0.19872113 0.5441505 -0.49265704
0002b0 ce 80 85 be 41 6f 49 3f 9f c7 2b 3e 55 38 1f bf
       -0.26074833 0.78685385 0.16775368 -0.6219533
0002c0 fc 99 aa 3f 0b 5e d3 3e ad 1a c6 3f 14 24 bf be
       1.3328242 0.41282687 1.5476891 -0.37332213
0002d0 53 24 05 be 2f 0f 2f bf fe 97 6c bd 23 62 56 3f
       -0.13002138 -0.68382543 -0.05776214 0.83743495
0002e0 6a d8 da be d4 43 88 be 1b 3d 64 3f 9a fc 5f 3e
       -0.42743236 -0.2661425 0.8915574 0.21873704
0002f0 2d 75 36 be b0 08 54 bf 62 96 48 bf dc c5 a9 bf
       -0.17818137 -0.82825756 -0.78354466 -1.3263507
000300 9b 91 8e 3e 87 f7 68 be bd 48 c6 3e 7e e1 27 bd
       0.27845463 -0.22750674 0.3872737 -0.04098653
000310 dd 8f 10 3e 28 14 6c 3f 3f 6c 8a bf fe c9 bb 3f
       0.1411738 0.92218256 -1.0814284 1.4671018
000320 c4 d1 39 be fc e9 5c bf ff a1 a1 be be ec 5b 3c
       -0.18146425 -0.8629453 -0.31568906 0.013423143
000330 89 93 7d bc ce b0 31 bd c8 cd 32 3f c1 b4 d6 3d
       -0.01547707 -0.043381505 0.6984525 0.10483695
000340 02 a9 36 be 67 9c ec be ad f5 4d bf c0 bb 5a 3f
       -0.17837909 -0.46213076 -0.80452996 0.85442734
000350 f0 45 d9 3d a9 c8 b5 be 0f 13 6f be 02 9b af 3e
       0.10609043 -0.35504654 -0.23347114 0.3429795
000360 ba f9 ae 3f a6 fb 69 be 43 04 3d 3e d0 9c d7 bd
       1.366996 -0.22849903 0.18458657 -0.105279565
000370 85 9c a4 3f 59 e1 64 3f ff 3a 1e bf 04 df df 3e
       1.2860266 0.89406353 -0.6180877 0.43724835
000380 43 c9 d6 3d 72 34 0a be 54 80 33 bf be d0 32 3f
       0.104876064 -0.13496569 -0.7011769 0.69849765
000390 e9 36 6d 3f 61 de 83 be 83 24 c4 3f d3 dc 71 3f
       0.9266191 -0.257556 1.5323642 0.94477576
0003a0 a9 75 ad bf 14 95 35 bd 8f a6 ce bd 8d dd 88 be
       -1.3551532 -0.044331625 -0.10090362 -0.2673153
0003b0 6e 37 e2 3e 07 8c 6f 3f 6f d8 a0 bf b5 8b 3d bf
       0.44182914 0.9357304 -1.256605 -0.740413
0003c0 0c af b4 3e bf 1d a1 3f 44 69 23 3f 27 2f 9b 3f
       0.352898 1.2587203 0.638325 1.2123765
0003d0 52 39 00 bf a6 64 c4 3e ba 2b 93 3f 20 cf 1f be
       -0.50087464 0.3835804 1.1497719 -0.15606356
0003e0 3b 69 cc bf 1d f4 2f 3f 30 22 9a 3f 0a 0b 26 be
       -1.5969614 0.6873186 1.2041683 -0.16215149
0003f0 d1 59 5e 3f 51 a1 70 bf b9 77 d3 3f 4f 64 dd 3b
       0.868558 -0.9399615 1.6520911 0.0067563425
