models/checkpoint_critic_local_1.pth (torch_old, 95311 bytes, 8 tensors)

bn1.weight f4 [48]
0.43845963 0.42274502 0.23634186 0.2418159 0.8625723 0.61861515 0.16239405 0.2753215
0.19269091 0.066293575 0.31339675 0.010789866 0.009361761 0.3392106 0.05458307 0.43438402
0.8594158 0.6725888 0.3944132 0.7932219 1.5943292 0.8003199 -0.00056178647 -0.011152624
0.46288472 0.4005502 0.04174134 -0.026459964 1.1022664 0.28330076 0.32256287 0.26985475
0.55402565 -0.41064215 0.09848065 -0.1281905 0.8518501 0.33720446 0.44999528 0.3251113
1.2153933 0.58281857 0.53651255 0.025620162 1.5168893 1.0473359 -0.17254423 0.729839
00000000: c87d e03e 0972 d83e 9a03 723e 969e 773e
00000010: 8ad1 5c3f 905d 1e3f a04a 263e f1f6 8c3e
00000020: c450 453e edc4 873d 8a75 a03e fac7 303c
00000030: 1262 193c 03ad ad3e 7f92 5f3d 9567 de3e
00000040: ad02 5c3f c82e 2c3f 87f0 c93e 9710 4b3f
00000050: fb12 cc3f c4e1 4c3f da44 13ba 7fb9 36bc
00000060: 3aff ec3e ea14 cd3e f8f8 2a3d 91c2 d8bc
00000070: 1117 8d3f cc0c 913e f626 a53e 672a 8a3e
00000080: a0d4 0d3f b03f d2be 39b0 c93d 5f44 03be
00000090: d912 5a3f 10a6 ac3e c865 e63e fd74 a63e
000000a0: 0292 9b3f 9933 153f e358 093f 60e1 d13c
000000b0: 6e29 c23f 1a0f 863f 6faf 30be bbd6 3a3f

bn1.bias f4 [48]
0.118679196 -0.0854118 0.09395053 -0.105709605 -0.5547095 0.1705201 -0.15557796 0.16182962
0.03789796 0.05476926 0.0089205755 0.0030092932 0.0116820615 0.22480652 0.76377165 -0.09369539
-0.4905899 0.4275385 0.07811648 0.1552225 -1.0264063 0.9038779 0.0030948217 -0.00065889786
0.54832196 -0.18240766 0.016175397 -0.008792607 1.0594462 0.116348445 0.08043058 -0.133569
0.64242035 -0.8295875 -0.10153229 0.091053024 0.73643637 0.2666032 0.33670446 -0.060496945
0.8749667 -0.24823183 0.5132585 0.41657904 0.9521073 0.7252661 0.7711694 -0.091676086
00000000: 140e f33d 62ec aebd 2369 c03d 477e d8bd
00000010: 7101 0ebf d29c 2e3e d44f 1fbe aab6 253e
00000020: e43a 1b3d bb55 603d 9b27 123c 9037 453b
00000030: 1e66 3f3c ae33 663e 8a86 433f 5ee3 bfbd
00000040: 992e fbbe 54e6 da3e 88fb 9f3d a6f2 1e3e
00000050: 4861 83bf 8b64 673f 7ed2 4a3b e3b9 2cba
00000060: d45e 0c3f 13c9 3abe 4482 843c de0e 10bc
00000070: ef9b 873f 1848 ee3d cab8 a43d 50c6 08be
00000080: a975 243f d95f 54bf 29f0 cfbd 027a ba3d
00000090: 1887 3c3f 3780 883e 8764 ac3e a5cb 77bd
000000a0: d1fd 5f3f 7c30 7ebe e964 033f d949 d53e
000000b0: 4ebd 733f 0aab 393f 5c6b 453f acc0 bbbd

bn1.running_mean f4 [48]
-7.8804893 -0.39597118 2.2644224 0.09560785 -0.31844664 3.6913145 2.2644224 0.09560785
-8.072453 -0.41136676 1.7013443 0.03953677 -0.29363513 3.7244906 1.7013443 0.03953677
-8.138209 -0.41518998 2.5326486 0.0509317 -0.31251937 3.695305 2.5326486 0.0509317
-3.4647071 -0.7873448 13.429032 -0.23716691 0.31844664 3.6913145 13.429032 -0.23716691
-3.5771728 -0.8265593 13.266954 -0.14841698 0.29363513 3.7244906 13.266954 -0.14841698
-3.6611543 -0.84010094 13.092189 -0.015841205 0.31251937 3.695305 13.092189 -0.015841205
00000000: f82c fcc0 bcbc cabe 4cec 1040 0cce c33d
00000010: 700b a3be 7f3e 6c40 4cec 1040 0cce c33d
00000020: c428 01c1 aa9e d2be a6c5 d93f 4ff1 213d
00000030: 5857 96be 0e5e 6e40 a6c5 d93f 4ff1 213d
00000040: 1b36 02c1 c893 d4be ea16 2240 c29d 503d
00000050: 8a02 a0be e17f 6c40 ea16 2240 c29d 503d
00000060: c3bd 5dc0 6e8f 49bf 51dd 5641 e2db 72be
00000070: 700b a33e 7f3e 6c40 51dd 5641 e2db 72be
00000080: 66f0 64c0 6499 53bf 7245 5441 9ffa 17be
00000090: 5857 963e 0e5e 6e40 7245 5441 9ffa 17be
000000a0: 5a50 6ac0 db10 57bf 9b79 5141 6ac5 81bc
000000b0: 8a02 a03e e17f 6c40 9b79 5141 6ac5 81bc

bn1.running_var f4 [48]
14.02804 0.9653941 285.40207 14.83392 31.028805 3.000985 285.40207 14.83392
12.493726 0.9813091 292.70026 15.225956 32.45053 3.0106964 292.70026 15.225956
11.830756 0.9915846 298.7478 15.779888 33.850437 3.2807043 298.7478 15.779888
13.753518 1.1184409 416.92096 12.736572 31.028805 3.000985 416.92096 12.736572
13.998359 1.1207933 424.24237 13.211523 32.45053 3.0106964 424.24237 13.211523
13.866007 1.1199219 440.43155 13.324459 33.850437 3.2807043 440.43155 13.324459
00000000: da72 6041 1124 773f 77b3 8e43 bc57 6d41
00000010: fe3a f841 2310 4040 77b3 8e43 bc57 6d41
00000020: 4de6 4741 1337 7b3f a259 9243 849d 7341
00000030: 58cd 0142 40af 4040 a259 9243 849d 7341
00000040: c74a 3d41 7dd8 7d3f b85f 9543 6c7a 7c41
00000050: d966 0742 0ff7 5140 b85f 9543 6c7a 7c41
00000060: 690e 5c41 1229 8f3f e275 d043 00c9 4b41
00000070: fe3a f841 2310 4040 e275 d043 00c9 4b41
00000080: 47f9 5f41 2876 8f3f 061f d443 6662 5341
00000090: 58cd 0142 40af 4040 061f d443 6662 5341
000000a0: 2adb 5d41 9a59 8f3f 3d37 dc43 fc30 5541
000000b0: d966 0742 0ff7 5140 3d37 dc43 fc30 5541

fc1.weight f4 [128, 48]
-0.123262316 0.6516398 -0.7142441 0.9626051 -1.4953837 -0.9501411 0.7752026 -0.21912706
-0.22642003 -0.5511687 -0.2192622 -0.06058127 0.023946894 -0.31069955 -0.8909686 1.187217
0.7675452 -1.4901676 0.056935225 -0.14628148 0.5980485 0.7749723 -0.09527565 0.0123632625
0.010877689 1.4012362 -0.13276406 -0.064694166 1.2435236 -0.96970516 -0.26123816 0.50881016
0.41085434 0.74274945 0.8355932 -0.8527667 0.9775444 -0.39974236 -0.62583566 -0.20554252
-0.5610496 -0.69895786 -0.4988041 -0.7806794 -0.58687454 0.96450716 -0.94254494 0.052931998
-0.22233081 0.05483587 0.022043169 -0.010996643 -0.048432596 -0.05172733 -0.0034309356 -0.09523758
0.24964014 0.33311883 -0.17586547 -0.020308195 -0.029197033 0.0874286 -0.07073749 -0.028523853
0.04033911 -0.073678814 -0.010062519 0.063191056 -0.0040845335 0.03633825 0.053844538 0.10831158
0.065396585 0.014778162 0.007729832 -0.08079552 -0.019940803 0.02254556 0.023796832 0.046890117
-0.063097216 -0.08131528 -0.035940014 -0.015283487 -0.026594542 0.09762777 0.03467476 -0.0092987
0.010709354 -0.088267416 -0.015990762 0.01353361 -0.0058499486 -0.057750054 0.017002126 0.012432422
0.0026174472 0.21948601 -0.8537235 0.7035602 -0.9972394 1.7841146 0.14589557 -0.3657359
0.20753327 0.21790597 -0.5556363 0.01039891 0.055602506 0.50752085 -0.667508 0.81261885
0.067066975 0.36848086 -0.45864058 0.82003963 1.5076764 -1.1011978 -0.023228625 -0.11693626
-0.24463968 -0.57492137 -0.25895634 -0.09165995 1.007954 1.6484144 -0.5651653 0.33009765
0.2702009 2.9809847 0.451083 -0.4125046 1.4224814 0.34433055 -0.78843695 -0.99826247
-0.48305288 -2.1821806 -0.6514727 -0.7207552 -1.5992723 -1.0060427 -0.5975799 -1.1612206
0.121529624 0.6532065 -0.43218678 0.6621112 -0.2717244 0.49656945 0.40255818 -0.13640882
0.64462304 0.16039057 -0.69497365 -0.051095422 -0.11905685 0.48523352 -0.44111368 0.3951766
0.74173635 0.2247776 -0.4943395 0.41235572 0.19865178 -0.5171079 0.104469806 0.07579681
-0.42262632 -0.378182 -0.46199572 0.06318059 0.24593103 0.66372365 -0.37481946 0.4652848
-0.5455863 0.42683718 0.50651747 -0.5060758 0.41541222 0.36545435 0.11214306 0.86016285
-0.33995283 0.8330836 0.18480468 -0.19082856 -0.27593535 -0.55720484 -0.67529124 2.7906513
-0.19979864 1.2221236 -0.36676595 -0.47904187 -0.68744415 -0.5528068 1.0159371 -1.9925667
-0.32215726 -0.3591943 1.2363065 -0.0039569973 -0.023536945 0.76216036 -0.79300135 -0.33796364
0.057531692 -0.19506103 -0.42169204 -0.3030469 0.42285857 0.28898793 -0.1308652 -0.012290127
2.1836836 1.1430343 -0.41845268 0.027641248 0.12522525 -0.47596106 -0.57321334 -0.43159902
0.9600315 1.1693089 0.78556526 -0.57640755 -1.9260468 0.5606144 -0.97691464 -0.7815925
-0.40294585 -0.9064625 -0.53158396 -0.8925251 -0.33238703 0.9000201 -1.0899104 0.3433244
-1.3464373 -0.4359209 -0.9450407 0.7213317 0.9573849 -0.34456167 0.37128788 -0.17784467
0.1849313 -0.18805501 -0.90494245 -0.01603564 -0.038417608 -1.2325823 -0.5474101 0.12097584
00000000: f470 fcbd ded1 263f b4d8 36bf 4a6d 763f
00000010: bc68 bfbf 723c 73bf ad73 463f d862 60be
00000020: a7da 67be 6419 0dbf 4586 60be 1124 78bd
00000030: 472c c43c 0314 9fbe 8516 64bf baf6 973f
00000040: d87d 443f d0bd bebf e934 693d d0ca 15be
00000050: b519 193f 9664 463f e11f c3bd 488f 4a3c
00000060: 5638 323c b55b b33f 4df3 07be 607e 84bd
00000070: c82b 9f3f 993e 78bf 02c1 85be 6241 023f
00000080: 805b d23e d424 3e3f 70e9 553f eb4e 5abf
00000090: 5a40 7a3f 08ab ccbe c436 20bf bd79 52be
000000a0: f2a0 0fbf e7ee 32bf 4063 ffbe 9bda 47bf
000000b0: 693d 16bf f1e9 763f a04a 71bf 39cf 583d
000000c0: b0aa 63be 949b 603d e093 b43c 442b 34bc
000000d0: 4261 46bd 09e0 53bd 8cd9 60bb ec0b c3bd
000000e0: aaa1 7f3e 8d8e aa3e 1416 34be 5f5d a6bc
000000f0: 9e2e efbc c40d b33d d1de 90bd dbaa e9bc
00000100: 9f3a 253d ebe4 96bd 44dd 24bc 506a 813d
00000110: 8dd7 85bb 6bd7 143d 178c 5c3d 76d2 dd3d
00000120: a5ee 853d 1b20 723c 884a fd3b 1f78 a5bd
00000130: e55a a3bc 77b1 b83c 93f1 c23c da0f 403d
00000140: 1d39 81bd a088 a6bd d635 13bd 9767 7abc
00000150: ccdc d9bc 11f1 c73d 1f07 0e3d 9359 18bc
00000160: 4976 2f3c 8cc5 b4bd 0fff 82bc 13bc 5d3c
00000170: edb0 bfbb 528b 6cbd 0b48 8b3c 5bb1 4b3c
00000180: 7a89 2b3b f1c0 603e a08d 5abf 851c 343f
00000190: 154b 7fbf de5d e43f a665 153e bc41 bbbe
000001a0: 9a83 543e be22 5f3e 2e3e 0ebf 3160 2a3c
000001b0: 74bf 633d e3ec 013f cee1 2abf ca07 503f
000001c0: 695a 893d 86a9 bc3e f0d2 eabe 1eee 513f
000001d0: 8afb c03f 0df4 8cbf f549 bebc 477c efbd
000001e0: d382 7abe 0c2e 13bf ed95 84be 36b8 bbbd
000001f0: a304 813f 3eff d23f acae 10bf 8f02 a93e
00000200: c657 8a3e 74c8 3e40 5af4 e63e ce33 d3be
00000210: df13 b63f 184c b03e 01d7 49bf 218e 7fbf
00000220: b552 f7be d9a8 0bc0 eac6 26bf 6a83 38bf
00000230: f4b4 ccbf 02c6 80bf fffa 18bf e0a2 94bf
00000240: 86e4 f83d 8b38 273f 9647 ddbe 1f80 293f
00000250: 761f 8bbe 5a3e fe3e 1b1c ce3e c1ae 0bbe
00000260: 0406 253f 6d3d 243e cbe9 31bf 6f49 51bd
00000270: 14d4 f3bd 8770 f83e a7d9 e1be 9654 ca3e
00000280: 6fe2 3d3f 192c 663e 111a fdbe 4a20 d33e
00000290: 5f6b 4b3e 2f61 04bf 44f4 d53d 5c3b 9b3d
000002a0: 7a62 d8be 12a1 c1be b48a ecbe d364 813d
000002b0: 58d5 7b3e cbe9 293f 56e8 bfbe cf39 ee3e
000002c0: 8bab 0bbf 678a da3e 21ab 013f 2f8e 01bf
000002d0: e9b0 d43e d51c bb3e 43ab e53d a233 5c3f
000002e0: 4c0e aebe f844 553f 703d 3d3e 9068 43be
000002f0: 6647 8dbe faa4 0ebf e3df 2cbf 089a 3240
00000300: 0498 4cbe 8c6e 9c3f bfc8 bbbe fa44 f5be
00000310: 57fc 2fbf bf84 0dbf 3a0a 823f 6d0c ffbf
00000320: ccf1 a4be 51e8 b7be 4b3f 9e3f b3a9 81bb
00000330: 8dd0 c0bc f11c 433f 2302 4bbf 9209 adbe
00000340: 5aa6 6b3d 14be 47be 05e8 d7be f728 9bbe
00000350: eb80 d83e 3af6 933e 8701 06be 875c 49bc
00000360: 79c1 0b40 f34e 923f 6e3f d6be e66f e23c
00000370: 0c3b 003e 2bb1 f3be 1cbe 12bf 8cfa dcbe
00000380: a0c4 753f eaab 953f ce1a 493f 728f 13bf
00000390: b488 f6bf 6d84 0f3f 1417 7abf 7216 48bf
000003a0: eb4e cebe ed0d 68bf e315 08bf 867c 64bf
000003b0: a22e aabe b867 663f 2f82 8bbf 37c8 af3e
000003c0: 0f58 acbf 0631 dfbe 30ee 71bf 32a9 383f
000003d0: 2d17 753f 636a b0be 7219 be3e ea1c 36be
000003e0: a15e 3d3e 7e91 40be 4faa 67bf 2d5d 83bc
000003f0: c85b 1dbd 42c5 9dbf 1123 0cbf 2ec2 f73d

fc2.weight f4 [128, 132]
-0.018775254 0.0137394555 0.01473793 0.05212847 -0.039522987 0.03210012 -0.020483444 -0.02540921
-0.03960718 0.022388052 0.023419334 -0.04432939 -0.025461169 0.008505366 0.03464004 -0.036307536
-0.009713017 -0.04959045 0.026706042 0.050384726 0.037964363 -0.009580414 0.030353274 -0.015362362
0.014506399 0.024788959 -0.00017412685 -0.01285278 0.0011946058 -0.005213174 0.031735472 0.021859964
-0.026589148 -0.037691794 -0.04635636 -0.06357455 -0.019248694 0.024617393 -0.0018582459 -0.045839842
-0.04356466 0.015458204 0.01889416 0.026502559 0.011026451 0.013989819 -0.015815 0.051384363
-0.026780076 -0.020706251 0.040928435 0.010581761 -0.023447264 -0.023045804 -0.043235935 -0.024168802
-0.0019233433 -0.000432675 0.009669864 -0.016128361 -0.03335888 -0.023250023 -0.0015393416 0.02727971
0.025046932 -0.035209402 -0.00845321 -0.004279325 0.03247792 -0.02182246 0.0027082972 0.020735266
-0.00420477 -0.040401068 0.020737961 -0.005138665 0.035992518 -0.015148061 -0.056428913 0.046936348
0.021714512 -0.03780483 -0.07054649 -0.0032812555 0.03564018 0.03132601 -0.04119861 0.023983356
0.01009241 0.011232743 -0.030153159 -0.019531425 0.0005087099 -0.0023282792 0.03768998 -0.036994115
-0.026309574 0.0079130195 -0.00914834 0.016551344 -0.011570513 0.0026593225 0.011936278 -0.057480495
-0.019715756 -0.009304948 -0.009729242 0.003591172 0.018110963 0.0036198301 0.03231876 -0.0039308504
0.045022193 0.016245501 -0.0051526306 -0.075441286 0.03331055 -0.059186425 0.013073228 -0.06261145
0.03173672 -0.029231697 -0.024319328 -0.012233783 0.01552003 0.05139221 -0.0027467427 0.0024317433
-0.013774505 0.009864225 -0.012354183 -0.015685432 -0.027921395 -0.019310998 -0.03325316 -0.0349545
-0.012825047 -0.013693011 -0.051972307 0.012121869 -0.032382406 -0.020184962 0.008069795 0.05853194
0.03858099 0.009344474 0.012038503 -0.017750878 -0.024750747 -0.021629924 -0.02704242 -0.055391185
0.007905457 -0.017114898 0.036535043 0.022215925 -0.029515583 -0.0039795483 -0.075974636 -0.039679542
-0.015803615 -0.00942217 -0.012759261 -0.019159751 0.025054034 0.0055555343 0.0063622664 0.028001627
-0.02904143 0.032280754 -0.00056782353 -0.008290029 0.021718433 0.06769844 -0.0007172044 0.011856046
-0.0038848538 0.007977431 0.027300816 0.019564955 -0.028834498 0.009723752 -0.019376215 -0.016962595
0.022084415 -0.010044765 -0.013885667 -0.016660392 0.010599972 -0.032755617 -0.013823095 -0.0067745093
-0.010461144 -0.00088776846 -0.044648208 0.019708747 0.010025413 -0.012318749 -0.010865552 -0.031483818
0.0046295146 -0.0037462688 0.0186394 0.015804809 -0.013565918 0.04580481 0.027447168 0.018431827
-0.01442229 0.013809502 0.026341973 -0.02678156 -0.01656513 -0.02325982 -0.009660138 -0.028311323
0.031483535 -0.009743751 0.0077379267 0.04488767 -0.008683813 -0.020291552 0.0085267555 -0.024541613
0.0083707925 0.025964465 0.02572483 -0.032786585 0.013484029 0.016074358 0.0045444784 0.01115862
-0.009028507 -0.010462434 0.019026529 -0.047343608 0.04592368 0.018381985 0.010124746 0.028531205
0.014330465 -0.0017360159 -0.00097280706 -0.017152045 -0.047605343 -0.01893103 0.018186763 -0.0003314498
-0.013793246 -0.030473515 -0.001146227 0.024088148 0.014688236 -0.02059456 -0.012091824 0.00054871815
00000000: 90ce 99bc 741b 613c 5c77 713c aa84 553d
00000010: dbe2 21bd 6a7b 033d e5cc a7bc fa26 d0bc
00000020: 233b 22bd 2667 b73c e7d9 bf3c bc92 35bd
00000030: f193 d0bc 175a 0b3c b7e2 0d3d 36b7 14bd
00000040: 5923 1fbc 5b1f 4bbd a1c6 da3c 3760 4e3d
00000050: 8580 1b3d 2bf7 1cbc 6ea7 f83c 6bb2 7bbc
00000060: 3fac 6d3c 3712 cb3c d295 36b9 7794 52bc
00000070: 5294 9c3a 46d3 aabb 0efd 013d ab13 b33c
00000080: 7cd1 d9bc b662 1abd 2be0 3dbd 6033 82bd
00000090: 70af 9dbc 6aaa c93c 6390 f3ba 8fc2 3bbd
000000a0: db70 32bd 6844 7d3c edc7 9a3c e51b d93c
000000b0: 4aa8 343c 8e35 653c 758e 81bc 6978 523d
000000c0: e461 dbbc 28a0 a9bc 93a4 273d 1f5f 2d3c
000000d0: 7a14 c0bc 8eca bcbc 2a18 31bd a7fd c5bc
000000e0: b118 fcba a8d8 e2b9 596e 1e3c a01f 84bc
000000f0: 52a3 08bd d576 bebc bcc3 c9ba b379 df3c
00000100: 392f cd3c bc37 10bd 557f 0abc 9439 8cbb
00000110: 9107 053d 04c5 b2bc b07d 313b 01dd a93c
00000120: 2bc8 89bb 977b 25bd a8e2 a93c 3f62 a8bb
00000130: e46c 133d 932f 78bc 0122 67bd 5440 403d
00000140: a2e2 b13c 3dd9 1abd ae7a 90bd 550a 57bb
00000150: 70fb 113d b44f 003d e0bf 28bd be78 c43c
00000160: a35a 253c 8a09 383c c203 f7bc 5e00 a0bc
00000170: f25a 053a 0b96 18bb cf60 1a3d 2487 17bd
00000180: 2d87 d7bc 9ca5 013c ebe2 15bc af96 873c
00000190: 4092 3dbc 0748 2e3b 6190 433c ab70 6bbd
000001a0: f082 a1bc c873 18bc 6667 1fbc de59 6b3b
000001b0: 715d 943c ac3a 6d3b ad60 043d 5dce 80bb
000001c0: 3169 383d 4915 853c 66d7 a8bb f680 9abd
000001d0: a570 083d 776d 72bd 1831 563c 6f3a 80bd
000001e0: 5dfe 013d 5077 efbc 5439 c7bc 3470 48bc
000001f0: b947 7e3c a380 523d b202 34bb e25d 1f3b
00000200: 76ae 61bc 8f9d 213c 3369 4abc bc7e 80bc
00000210: 69bb e4bc 1932 9ebc 7734 08bd 732c 0fbd
00000220: 2520 52bc a758 60bc eae0 54bd ce9a 463c
00000230: 6aa3 04bd ef5a a5bc 2c37 043c 30bf 6f3d
00000240: 1a07 1e3d 9119 193c 243d 453c 4a6a 91bc
00000250: 14c2 cabc 3d31 b1bc 1188 ddbc dee1 62bd
00000260: e485 013c 8b34 8cbc c5a5 153d 2cfe b53c
00000270: aaca f1bc df66 82bb 9798 9bbd 0487 22bd
00000280: 9576 81bc 725f 1abc 380c 51bc e9f4 9cbc
00000290: 1e3e cd3c 330b b63b 8f7a d03b ab63 e53c
000002a0: 4be8 edbc d338 043d fed9 14ba e7d2 07bc
000002b0: dbea b13c 7ba5 8a3d c602 3cba dc3f 423c
000002c0: 0899 7ebb c5b3 023c f6a5 df3c af46 a03c
000002d0: 5336 ecbc 5f50 1f3c deba 9ebc 24f5 8abc
000002e0: 60ea b43c cc92 24bc b580 63bc 607b 88bc
000002f0: 81ab 2d3c c12a 06bd 437a 62bc b4fc ddbb
00000300: 3865 2bbc 22b9 68ba 0ae1 36bd 3d74 a13c
00000310: a141 243c 94d4 49bc 6e05 32bc 2df5 00bd
00000320: 2fb3 973b f683 75bb a8b1 983c 1679 813c
00000330: 9643 5ebc d39d 3b3d e2d8 e03c 58fe 963c
00000340: 784b 6cbc 4041 623c 1fcb d73c 0165 dbbc
00000350: 98b3 87bc 618b bebc 8e45 1ebc 26ed e7bc
00000360: e1f4 003d 41a4 1fbc 6f8e fd3b 22dc 373d
00000370: 8d46 0ebc 783a a6bc ceb3 0b3c 7e0b c9bc
00000380: a625 093c 6eb3 d43c e1bc d23c 3a4b 06bd
00000390: 1eec 5c3c 5fae 833c d9e9 943b a5d2 363c
000003a0: 4eec 13bc a16a 2bbc 86dd 9b3c 5feb 41bd
000003b0: 781a 3c3d d195 963c 43e2 253c 46ba e93c
000003c0: 54ca 6a3c 078b e3ba fa03 7fba 7282 8cbc
000003d0: d2fd 42bd 3f15 9bbc 68fc 943c 70c6 adb9
000003e0: 11fd 61bc 98a3 f9bc ff3c 96ba 8254 c53c
000003f0: eda6 703c ecb5 a8bc c91c 46bc dad7 0f3a

fc2.bias f4 [128]
-0.06752076 -0.04747552 -0.05255256 -0.072179556 -0.063736126 -0.11222291 -0.087038025 -0.0716311
-0.06317628 -0.039611924 -0.060624074 -0.056973375 -1.7676082 -0.06201832 -0.098762594 -0.10164568
-0.048727572 -0.054004766 -0.124217376 -0.1293927 -0.081714876 -0.051771283 -0.018019304 -0.031202188
-0.12084625 -0.036639474 -0.07200372 -0.05265601 -0.034469686 -0.039916508 -0.06027327 -0.0007467462
-0.040984124 -1.551033 -0.09256103 -1.1382324 -0.08290869 -0.06041005 -0.08248244 -0.04209211
-0.036562297 -0.10324734 -0.08600069 -0.06331002 -0.026937181 -0.08784105 -0.09478157 -0.07628519
-0.47956902 -0.06090553 -1.2366257 -0.5332114 -0.05771767 -0.06287633 -0.072423175 -0.066235475
-0.07346639 -0.022493957 -0.04959301 -0.10299803 -0.041784104 -0.030591842 -0.037433535 -0.019573977
-0.057474833 -0.070567615 -0.058043394 -0.1400537 -0.106766574 -1.311163 -0.25652418 -0.09016293
-0.036179192 -0.020114766 -0.047557056 -0.064359866 -0.059063412 -0.12556769 -0.02484195 -0.087707266
-0.024376525 -0.062068176 -0.043095734 -0.067684725 -0.1333808 -0.085330896 -0.06482704 -0.21622144
-0.07991152 -0.07159498 -0.09302973 -0.07397794 -0.01811997 -0.06494789 -0.026617812 -0.06706989
-0.13708164 -0.07832616 -0.08170953 -0.038421534 -0.09190405 -0.10111889 -0.06267286 -0.057038415
-0.040231153 -0.10173398 -0.76499534 -0.026022492 -0.064658254 8.868499e-05 -0.12437381 -0.24662985
-0.07983947 -0.061254747 -0.64094853 -0.61883134 -0.06024588 -0.062324952 -0.06403103 -1.9837911
-0.085378334 -0.08612932 -0.08647471 -0.10933164 -1.6454536 -0.061721254 -0.0033199824 -0.121169575
00000000: 5348 8abd b175 42bd 5a41 57bd e0d2 93bd
00000010: 1688 82bd 20d5 e5bd fe40 b2bd 53b3 92bd
00000020: 9162 81bd 1d40 22bd f350 78bd ea5c 69bd
00000030: fc40 e2bf ec06 7ebd 0b44 cabd 9c2b d0bd
00000040: 9096 47bd 1a34 5dbd ae65 febd 857f 04be
00000050: 215a a7bd 200e 54bd 389d 93bc bb9b ffbc
00000060: 3d7e f7bd 4613 16bd b076 93bd d4ad 57bd
00000070: 1630 0dbd 7e7f 23bd 1be1 76bd 4ac1 43ba
00000080: f8de 27bd 4088 c6bf a390 bdbd 99b1 91bf
00000090: 08cc a9bd 8770 77bd 8eec a8bd c768 2cbd
000000a0: 59c2 15bd 5773 d3bd 2121 b0bd afa8 81bd
000000b0: 5dab dcbc 02e6 b3bd d71c c2bd 693b 9cbd
000000c0: 128a f5be 1478 79bd c049 9ebf 8b80 08bf
000000d0: 5d69 6cbd 4ec5 80bd 9a52 94bd 77a6 87bd
000000e0: 8c75 96bd 3f45 b8bc 0a22 4bbd a2f0 d2bd
000000f0: cf25 2bbd be9b fabc e853 19bd 9b59 a0bc
00000100: bb6a 6bbd c185 90bd e9be 6dbd 3d6a 0fbe
00000110: 6fa8 dabd 30d4 a7bf 2357 83be 58a7 b8bd
00000120: a230 14bd b9c7 a4bc 30cb 42bd 1bcf 83bd
00000130: 7aec 71bd d194 00be 5881 cbbc de9f b3bd
00000140: 47b1 c7bc 333b 7ebd 2785 30bd 4a9e 8abd
00000150: fa94 08be f7c1 aebd 0ac4 84bd 2769 5dbe
00000160: a7a8 a3bd 64a0 92bd 5f86 bebd bf81 97bd
00000170: 5570 94bc 6603 85bd 990d dabc f05b 89bd
00000180: 215f 0cbe 7769 a0bd 5357 a7bd e65f 1dbd
00000190: 3138 bcbd 6c17 cfbd a15a 80bd 1da1 69bd
000001a0: 6cc9 24bd e859 d0bd bcd6 43bf 1f2d d5bc
000001b0: 8c6b 84bd 64fc b938 b2b7 febd 898c 7cbe
000001c0: e082 a3bd 42e6 7abd 3415 24bf bb6b 1ebf
000001d0: 62c4 76bd 7348 7fbd b322 83bd deec fdbf
000001e0: d6da aebd 9264 b0bd a719 b1bd 44e9 dfbd
000001f0: 399e d2bf 6dcf 7cbd 1094 59bb c127 f8bd

fc3.weight f4 [1, 128]
-2.89772e-05 0.0013388062 -0.0007573348 0.0015299461 0.00096755615 0.00093177403 -0.00010649295 -0.0009105434
0.0028730035 0.00083853095 -0.0010022761 -0.0008747869 0.017166816 -0.002912933 -0.0007368547 0.0007139152
-0.0029674498 -0.0016219949 -0.00096163846 0.00083860697 0.0032873177 0.0015342156 0.00042019362 -0.004889787
-5.114125e-06 0.0002590013 0.0011111393 -0.0005275786 0.0017649755 0.0022395418 0.0009881819 -0.0030705077
-0.0022166553 0.0339841 -0.0018716515 -0.025313595 -0.00050552224 -0.00115977 -0.0010182424 -0.0008188821
-0.000812731 0.0015607217 -4.084781e-06 0.002119238 5.778529e-05 -0.0013986981 9.488285e-05 -0.0018318166
-0.025482738 0.0023828489 0.046690453 -0.018879114 -0.002486314 0.0001706889 0.0010171846 -0.0053864243
-0.00025206205 -0.0017880676 -0.0016623326 -0.0025192474 -0.0022839499 0.00013390752 -0.00046349695 0.0011439609
0.0006531868 -7.279019e-05 -0.000561751 0.0031420141 0.0011805064 0.036123894 -0.02660999 -0.0048872638
-0.00072548364 0.00036935607 -0.0015580849 -0.004504403 0.0002502231 0.0026551702 0.0016486943 -0.0004316644
-0.0010365598 -0.00037268715 0.0009663732 0.00275657 -0.045084346 -0.001049507 -0.0027174938 0.039285824
-0.0016660427 7.241231e-05 0.002333263 0.0016743474 -5.006694e-05 0.0006116238 -1.5912534e-05 0.0017320082
0.00035498475 -0.0025389 -0.0008282606 0.0012058124 -0.0004540104 -0.0011675791 -0.0005634785 -0.001708018
-4.216274e-05 0.0005942903 0.03147747 -0.0007481423 0.002161474 0.00086637883 -0.0020245 0.0606834
0.0013645042 -2.6308e-05 0.022879614 0.04467937 0.0009396911 0.00035204427 -0.0017834703 -0.04763261
-0.0014735806 -0.0005854333 0.00067854126 0.0005683041 -0.051957224 0.0037850759 -0.00097518007 0.0038257116
00000000: 1014 f3b7 e27a af3a e187 46ba 7988 c83a
00000010: 98a3 7d3a 4c42 743a f854 dfb8 88b1 6eba
00000020: 0049 3c3b dcd0 5b3a ce5e 83ba f551 65ba
00000030: 6ca1 8c3c e8e6 3ebb 7b29 41ba 0a26 3b3a
00000040: 8c79 42bb 1e99 d4ba 7716 7cba f6d5 5b3a
00000050: 0a70 573b bc17 c93a 6f4d dc39 823a a0bb
00000060: 009a abb6 91ca 8739 a6a3 913a 334d 0aba
00000070: c056 e73a 47c5 123b e285 813a 923a 49bb
00000080: 4e45 11bb e932 0b3d 3452 f5ba 755e cfbc
00000090: 0685 04ba 6c03 98ba 8c76 85ba 3faa 56ba
000000a0: 740d 55ba 2191 cc3a 0010 89b6 eae2 0a3b
000000b0: 7c5e 7238 8554 b7ba d8fb c638 9119 f0ba
000000c0: 2dc1 d0bc 9229 1c3b 7d3e 3f3d 5fa8 9abc
000000d0: 6df1 22bb f4fa 3239 0d53 853a 9a80 b0bb
000000e0: 3227 84b9 985d eaba a0e2 d9ba f519 25bb
000000f0: 52ae 15bb 8769 0c39 8201 f3b9 f5f0 953a
00000100: a03a 2b3a f0a6 98b8 7942 13ba 40ea 4d3b
00000110: 39bb 9a3a a6f6 133d 32fd d9bc 5725 a0bb
00000120: 622e 3eba 22a6 c139 a738 ccba ac99 93bb
00000130: 6030 8339 5d02 2e3b 0019 d83a 0451 e2b9
00000140: 2ddd 87ba 3965 c3b9 3554 7d3a 92a7 343b
00000150: 5daa 38bd 9c8f 89ba fb17 32bb 2cea 203d
00000160: 1e5f daba 10dc 9738 a8e9 183b c775 db3a
00000170: f8fe 51b8 6155 203a e87b 85b7 8d04 e33a
00000180: 3f1d ba39 ac63 26bb a11f 59ba 5a0c 9e3a
00000190: 3f08 eeb9 7409 99ba 67b6 13ba 93df dfba
000001a0: e6d7 30b8 26ca 1b3a 85ee 003d fb1e 44ba
000001b0: 84a7 0d3b b31d 633a 79ad 04bb 288f 783d
000001c0: 2ad9 b23a 00b0 dcb7 076e bb3c b701 373d
000001d0: 9a55 763a 9592 b839 55c3 e9ba 691a 43bd
000001e0: 2925 c1ba c477 19ba 22e0 313a 3efa 143a
000001f0: 19d1 54bd 090f 783b 3aa3 7fba cab8 7a3b
