models/checkpoint_actor_local_1.pth (torch_old, 85378 bytes, 15 tensors)

bn1.weight f4 [24]
0	0x3fa89b9f	1.3172492
1	0x3f1032a0	0.5632725
2	0x3f85c8d4	1.0451913
3	0x3f313e95	0.6923612
4	0x3fbfa8dc	1.4973407
5	0x3ff0de61	1.8817865
6	0x3f099bf2	0.5375358
7	0x3f4437c3	0.76647586
8	0x3f2a5bf9	0.6654659
9	0x3f3f165e	0.74643505
10	0x3f8b252a	1.0870717
11	0x3ef3dda6	0.47630042
12	0x3f9231b7	1.1421422
13	0x3f39bd22	0.7255422
14	0x3f446216	0.7671217
15	0x3ed8b5b3	0.42326126
16	0x3fd51893	1.6648124
17	0x3f8002e4	1.0000882
18	0x3f955c4d	1.1668793
19	0x3f975ce0	1.1825218
20	0x4010b29a	2.260901
21	0x3ff8dc09	1.9442149
22	0x3f09f019	0.53881985
23	0x3f47e25c	0.7807977

bn1.bias f4 [24]
0	0xbeebea7c	-0.46077335
1	0xbfb2bd2a	-1.3963978
2	0xbf28aab5	-0.6588548
3	0xbf475256	-0.7786001
4	0xbf93e099	-1.1552917
5	0xbebc1f18	-0.36742473
6	0x40054c80	2.0827942
7	0xbe11e05a	-0.1424574
8	0x3ff161ec	1.8858008
9	0x3e9b28fb	0.30304703
10	0xbfae88de	-1.3635519
11	0xbe878303	-0.26467142
12	0x3fa1c3c6	1.263787
13	0xbe19df93	-0.15026693
14	0x3fd4e65e	1.6632802
15	0xbe0bfb08	-0.1366998
16	0x3f79268b	0.97324437
17	0x3de2d866	0.11076431
18	0xbe01fef5	-0.12694915
19	0xbc3782e6	-0.011200642
20	0x3f755972	0.9583961
21	0x3eacb059	0.33728293
22	0x3f32d5a1	0.6985722
23	0x3eb14a8e	0.34627193

bn1.running_mean f4 [24]
0	0xc05c6736	-3.4437995
1	0xbf470796	-0.7774595
2	0x41544a70	13.268173
3	0xbe26115e	-0.16217563
4	0x3e974ef7	0.29552433
5	0x406d9ae9	3.71258
6	0x41544a70	13.268173
7	0xbe26115e	-0.16217563
8	0xc0635301	-3.5519412
9	0xbf4f18a2	-0.8089696
10	0x41533346	13.200018
11	0xbddbb592	-0.10727991
12	0x3e8f515e	0.27991766
13	0x406e9d44	3.7283487
14	0x41533346	13.200018
15	0xbddbb592	-0.10727991
16	0xc069b1f4	-3.6514864
17	0xbf53688b	-0.82581395
18	0x4150f18b	13.05897
19	0xbd18cf88	-0.037307292
20	0x3e96d480	0.29459
21	0x406cecdc	3.7019567
22	0x4150f18b	13.05897
23	0xbd18cf88	-0.037307292

bn1.running_var f4 [24]
0	0x415aab5b	13.666835
1	0x3f8efdd8	1.1171217
2	0x43d1f394	419.90295
3	0x4149944f	12.598708
4	0x41f50fbd	30.632685
5	0x403fcb24	2.9967737
6	0x43d1f394	419.90295
7	0x4149944f	12.598708
8	0x415e9a9c	13.912746
9	0x3f901177	1.125533
10	0x43d511d7	426.13937
11	0x414e4f72	12.894396
12	0x420065ee	32.09954
13	0x404292c1	3.0402071
14	0x43d511d7	426.13937
15	0x414e4f72	12.894396
16	0x415ea372	13.914904
17	0x3f90f6c2	1.1325305
18	0x43dc4e5c	440.61218
19	0x414eb11a	12.918238
20	0x420680a9	33.625645
21	0x40527fe4	3.2890558
22	0x43dc4e5c	440.61218
23	0x414eb11a	12.918238

bn2.weight f4 [128]
0	0x3f60fd3a	0.87886393
1	0x3f930d63	1.148846
2	0x3fd20d27	1.6410264
3	0x3f889c10	1.0672626
4	0x3cf4a6e3	0.029864734
5	0x3f7b0cd4	0.9806645
6	0x3fb6f8d1	1.4294683
7	0x3f5ad3af	0.85479254
8	0x3f906a3c	1.128242
9	0xbf7700cd	-0.96485597
10	0xbf75f87e	-0.96082294
11	0x3f8f500f	1.1196307
12	0x40142c24	2.3151941
13	0x3f545ee5	0.829573
14	0x3f8db6c8	1.1071405
15	0x3f0f15aa	0.5589243
16	0x3f8a937c	1.0826259
17	0x3c74ccb0	0.014941379
18	0x3f9a127c	1.2036891
19	0x3f938312	1.1524374
20	0x3f94e223	1.1631511
21	0x3fb9d11d	1.4516941
22	0x3fa321aa	1.2744648
23	0x3f8d36b0	1.1032314
24	0x3f21dbfa	0.6322628
25	0x4011410c	2.2695951
26	0xbfa7dcf2	-1.3114302
27	0x3f80209b	1.000995
28	0x3fa98751	1.324442
29	0x3f08a27a	0.5337292
30	0x3fb821e1	1.4385339
31	0x3fd83275	1.6890398
32	0x3f84e24c	1.038156
33	0x3f8a3cae	1.0799768
34	0x3f93cd8b	1.1547102
35	0x3fb48a02	1.4104617
36	0x3fc4c35a	1.5372117
37	0x3ff17057	1.8862408
38	0x3fa2e431	1.2725888
39	0x3f8a4591	1.080248
40	0x3f44c4b9	0.76862675
41	0x3f9bdb60	1.2176323
42	0x3fb663b9	1.4249183
43	0x3f9737bc	1.1813884
44	0x3f5839cc	0.8446319
45	0x3e476126	0.19470653
46	0x3f9068bd	1.1281964
47	0x3f17eb75	0.59343654
48	0x3f913fa8	1.1347551
49	0x3ff43d37	1.9081181
50	0x3fa9d8c4	1.3269277
51	0x3f33eab7	0.7028002
52	0x3fdce998	1.7258787
53	0x3fb03334	1.3765626
54	0xbf421390	-0.758111
55	0x401d68bb	2.4595172
56	0x3f0d1a87	0.551186
57	0x3eb8502e	0.35998672
58	0x3f606059	0.87647015
59	0x3f814e3e	1.0102003
60	0x3f745b51	0.9545184
61	0x3f30fd13	0.6913616
62	0x3f62b607	0.88559
63	0x3fce6a4e	1.6126192
64	0x3f5b6771	0.85704714
65	0x3f96b456	1.1773784
66	0x3f41578c	0.7552421
67	0x3fe2197b	1.7664026
68	0x3f8732d3	1.0562385
69	0x3f61dc22	0.8822652
70	0x3f9f01e2	1.242245
71	0x3f9d818a	1.2305157
72	0x3f80cf51	1.0063268
73	0x3ff091be	1.8794477
74	0x3f2201e5	0.6328414
75	0x3dd195d3	0.10233655
76	0x3fc052f4	1.5025315
77	0x3f8bacd8	1.0912123
78	0x3f82e075	1.0224749
79	0x3fd4a174	1.6611772
80	0x3f427e1c	0.7597368
81	0xbf2155da	-0.63021624
82	0x3fa42c26	1.2825973
83	0x3feb957c	1.8404994
84	0x3f747dd9	0.9550453
85	0x3f6b21a6	0.9184822
86	0x3f58f4d8	0.847486
87	0x3fb4d4aa	1.41274
88	0x3fc71cd4	1.5555673
89	0x3e249f3c	0.16076368
90	0x3f71ab70	0.9440222
91	0x3fb730dd	1.4311787
92	0x3f8109e1	1.008114
93	0x3fb582ff	1.4180602
94	0x3fbfdd57	1.4989423
95	0x3f92a293	1.1455864
96	0x3f8ea09f	1.1142768
97	0x3f445a82	0.76700604
98	0x400b1a99	2.1734984
99	0x3efb9912	0.4914022
100	0x40302b42	2.7526402
101	0x3f55f6c0	0.83579636
102	0x3ea0782f	0.31341693
103	0x3f896382	1.0733492
104	0x3fd62335	1.6729494
105	0x3fe51eae	1.7899988
106	0x3f7ad6b8	0.97983885
107	0x3fe1b219	1.7632476
108	0x3ff691f7	1.9263295
109	0x3f803f34	1.0019288
110	0x3f8d817a	1.1055138
111	0x3f4c7c7a	0.79877436
112	0x3f9f479a	1.2443726
113	0x3f9cf45a	1.226207
114	0x3ed10f6d	0.4083208
115	0x3fb3ddfa	1.4052117
116	0x3f6aee9c	0.9177034
117	0x3f8b7eef	1.0898112
118	0x3f9cb73d	1.224342
119	0x3eadc266	0.33937377
120	0x3fbc3cc9	1.470605
121	0x3f48ef18	0.7848983
122	0x3feaa359	1.83311
123	0x3fcb01fd	1.5859982
124	0x3fc52dc7	1.5404595
125	0x3fbc00f3	1.468779
126	0x3f98f693	1.1950248
127	0x3fbde402	1.4835207

bn2.bias f4 [128]
0	0x3f87dece	1.061487
1	0x3e90974d	0.28240433
2	0x3f2a1f39	0.6645389
3	0xbecb943b	-0.39761528
4	0x3f8934a6	1.0719192
5	0xbf29516d	-0.6613987
6	0xbd5cb383	-0.053882133
7	0xbf87d6e4	-1.0612454
8	0x3e98dc45	0.29855552
9	0xbf721a19	-0.9457107
10	0xbf831ac6	-1.0242546
11	0xbecc700a	-0.3992923
12	0x3f20b406	0.62774694
13	0x3e51cb51	0.20487715
14	0x3f03c300	0.5146942
15	0xbeb910bd	-0.36145583
16	0x3db5fdb3	0.0888628
17	0x3cc44c77	0.023962243
18	0x3e2361a1	0.15955211
19	0x3c0a24e6	0.008431649
20	0x3e9a8010	0.3017583
21	0x3f05e380	0.5230026
22	0xbddfefe5	-0.10934428
23	0x3dddd253	0.10831132
24	0xbec923df	-0.3928518
25	0xbf4bd755	-0.79625446
26	0xbf8c3a70	-1.0955334
27	0x3ecd2d60	0.4007368
28	0x3e560df6	0.20903763
29	0x3f252e2b	0.6452357
30	0x3ed69f20	0.41918278
31	0x3e68ac96	0.22722086
32	0xbdc0694b	-0.09395083
33	0x3f5da717	0.86583084
34	0xbe79342a	-0.24336305
35	0x3f4afee1	0.79295164
36	0x3eb85867	0.36004946
37	0x3eb0576a	0.34441692
38	0x3dea198e	0.114306554
39	0x3de3095e	0.11085771
40	0x3f387e16	0.7206739
41	0x3f2237a0	0.63366127
42	0x3e04b54c	0.12959784
43	0x3e2d072f	0.16897272
44	0xbf3725ea	-0.7154223
45	0xbf9d4b6b	-1.2288641
46	0x3d3d7f41	0.046263937
47	0xbdcb6490	-0.0993129
48	0x3e283983	0.16428189
49	0x3f4d93f3	0.8030388
50	0x3eaa5523	0.3326808
51	0xbee9656c	-0.4558519
52	0x3f949058	1.160655
53	0x3e214bff	0.15751646
54	0x3fa44759	1.2834274
55	0x3e894051	0.26806882
56	0x3ea755d8	0.3268268
57	0xbf2e09b1	-0.6798354
58	0x3e89aaf1	0.2688823
59	0x3ce0e7f7	0.02745436
60	0x3df48a13	0.11940398
61	0xbf54aa85	-0.8307269
62	0x3f8eaf68	1.114728
63	0x3e75c06a	0.23999181
64	0x3ee96789	0.45586804
65	0x3db76d16	0.08956353
66	0x3f12ef27	0.5739617
67	0x3f990bb8	1.1956701
68	0x3f929096	1.1450374
69	0xbe12f91a	-0.14352837
70	0x3e9ea69d	0.3098649
71	0x3ec80695	0.39067522
72	0x3df32d86	0.11873917
73	0x3f2905e8	0.6602464
74	0xbebe96ac	-0.3722433
75	0x3f54a858	0.8306937
76	0x3df6bd93	0.12047877
77	0xbd13ec7e	-0.03611421
78	0xbc44dc28	-0.01201538
79	0x3f750341	0.9570809
80	0xbf0fcef9	-0.5617519
81	0x3f13444e	0.575261
82	0x3f107f7b	0.5644452
83	0x3f2ee3db	0.6831643
84	0x3e2961f4	0.16541272
85	0x3ec203f7	0.3789365
86	0x3d2bb8de	0.04192435
87	0x3ec8b52e	0.3920073
88	0xbdc2760f	-0.09495174
89	0xbf29a65b	-0.66269463
90	0x3c5621c3	0.013069573
91	0xbde97d26	-0.11400823
92	0x3e931d5e	0.28733343
93	0x3ea30490	0.31839418
94	0x3d3aa110	0.045563757
95	0x3ecfac2e	0.4056105
96	0x3f0ce7d3	0.55041236
97	0x3ed0ead1	0.4080415
98	0x3ed5ef1f	0.41783997
99	0xbf4a76a9	-0.7908731
100	0x3f67dda9	0.905726
101	0x3f2fcb2f	0.6866941
102	0xbf356a66	-0.70865476
103	0x3f202245	0.6255229
104	0x3f5ec9bb	0.87026566
105	0x3ec02016	0.3752448
106	0x3e077fa5	0.13232286
107	0x3f772cda	0.96552813
108	0x3f1d217c	0.6137922
109	0x3eb843ba	0.3598917
110	0x3f26da2d	0.6517666
111	0xbb1ff23c	-0.0024405858
112	0x3ed23279	0.41054133
113	0x3f62c231	0.8857756
114	0xbf60adb7	-0.8776507
115	0x3efd093f	0.49421117
116	0x3e8906af	0.26762912
117	0x3fabb954	1.3415933
118	0x3f3b4c2c	0.73163104
119	0xbda8e766	-0.08247261
120	0x3d14168a	0.036154307
121	0xbee24c99	-0.44199064
122	0x3f44291e	0.7662524
123	0x3ecd5e4d	0.40111008
124	0x3f197d40	0.5995674
125	0x3e8970a9	0.26843765
126	0x3e854b63	0.26034078
127	0x3e5e1a7c	0.2168979

bn2.running_mean f4 [128]
0	0x3c805c77	0.01566909
1	0xbe500405	-0.20314033
2	0xbe8a97d2	-0.27068955
3	0xbf5a5acd	-0.852948
4	0x40142fa7	2.3154085
5	0xbf5ade77	-0.85495704
6	0xbf06e27c	-0.5268934
7	0xbe5a0eac	-0.2129466
8	0xbe4e3250	-0.2013638
9	0xbf23cb01	-0.63981634
10	0xbf357ea4	-0.70896363
11	0x3e98a1fd	0.29811087
12	0xbed96d7d	-0.42466345
13	0xbf630f0e	-0.88694847
14	0xbe9cf41a	-0.30654985
15	0xbea86143	-0.32886705
16	0x3e7d2975	0.24722846
17	0xbf187946	-0.5956005
18	0xbf19bbd8	-0.6005225
19	0x4005836a	2.0861459
20	0xbf496143	-0.78664035
21	0x3fec247d	1.8448635
22	0xbf591bef	-0.8480825
23	0xbf4a16e0	-0.78941154
24	0xbf0bf297	-0.5466704
25	0x4046a71d	3.1039498
26	0xbf6205dc	-0.8829019
27	0x3e229687	0.15877734
28	0xbe1d989e	-0.1539025
29	0xbee4cb16	-0.44686192
30	0xbe6888ee	-0.22708485
31	0xbe81da94	-0.25362074
32	0xbd9effd5	-0.0776364
33	0x3fc7dbb6	1.5613925
34	0xbf3480ae	-0.7050885
35	0x3f6ff5e0	0.9373455
36	0x3ed743ff	0.42044064
37	0xbf124953	-0.57143134
38	0xbe380d0e	-0.1797373
39	0x3e9ea22d	0.30983105
40	0x3ed867f9	0.42266825
41	0xbeef5f3d	-0.4675235
42	0xbefd149c	-0.49429786
43	0xbe78a9ec	-0.2428357
44	0xbe12bec9	-0.14330591
45	0x4064fd98	3.5779781
46	0x3fcec0e0	1.6152611
47	0x3f05a57a	0.5220562
48	0xbf07bc0d	-0.5302132
49	0xbf5df845	-0.86706954
50	0xbf1269b8	-0.57192564
51	0xbf35f1b5	-0.7107194
52	0x3f3c63b0	0.7358961
53	0xbf025e03	-0.509247
54	0x3f9dbca0	1.2323189
55	0xbf778778	-0.96691084
56	0xbf5b6172	-0.85695565
57	0x40a401a0	5.1251984
58	0x3fdd4bdc	1.7288775
59	0x3c720354	0.014771301
60	0x3f87afc1	1.0600511
61	0xbedf8647	-0.43657133
62	0xbf4b1f05	-0.7934421
63	0x3f0d0e96	0.5510038
64	0x3fe8c04b	1.8183683
65	0xbf2c3543	-0.6726877
66	0x3e48a3c6	0.19593725
67	0x4043425b	3.050925
68	0xbe8097b8	-0.25115752
69	0x3eb03225	0.34413257
70	0xbd0547ae	-0.032539062
71	0xbeda8898	-0.42682338
72	0xbf340252	-0.7031604
73	0xbec66707	-0.3875048
74	0xbf5cfcf3	-0.8632347
75	0x405c4866	3.4419188
76	0xbebbb2e4	-0.3665992
77	0xbebdafda	-0.37048227
78	0xbf08d6aa	-0.5345255
79	0xbf38a454	-0.72125745
80	0xbf537c06	-0.8261112
81	0xbf098add	-0.53727514
82	0x3cb2c153	0.0218207
83	0xbecebfbf	-0.40380666
84	0xbf4ce0d6	-0.8003057
85	0xbe3b3f6c	-0.18285912
86	0x3effb4a7	0.49942514
87	0xbf067248	-0.5251813
88	0xbf0e4cb6	-0.555858
89	0x3f8ff548	1.1246729
90	0xbf5b2d6a	-0.8561617
91	0xbf5049d5	-0.8136266
92	0xbf587305	-0.84550506
93	0x3fe37aea	1.7771885
94	0xbf101a8f	-0.56290525
95	0xbefdbd68	-0.49558568
96	0xbf295b94	-0.6615536
97	0x3f29d75d	0.66344243
98	0xbf5cfe73	-0.8632576
99	0x40ace167	5.402515
100	0x3cc772fa	0.024346817
101	0xbf1ff77b	-0.62487
102	0x3f2c4b13	0.67302054
103	0xbee0020e	-0.43751568
104	0xbf15953c	-0.5843084
105	0xbe73120d	-0.23737355
106	0xbf1c5b79	-0.61077076
107	0xbf53af36	-0.82689226
108	0xbf4a3dd5	-0.790006
109	0x3f5e6097	0.86866134
110	0xbf63dddb	-0.890104
111	0xbee6f7cd	-0.45110932
112	0xbcba8e15	-0.022772828
113	0x3f5be86b	0.85901517
114	0xbf62a7be	-0.88537204
115	0xbf321723	-0.69566554
116	0xbe9c0e67	-0.30479738
117	0x3e595d70	0.2122705
118	0x3e15018a	0.14551368
119	0x3fed9708	1.8561716
120	0xbf3ef162	-0.7458707
121	0xbf5b90f5	-0.8576806
122	0xbec62167	-0.3869736
123	0xbf43a360	-0.76421165
124	0xbf2cf988	-0.67568254
125	0x3fcc43de	1.5958211
126	0xbe5bff15	-0.21484025
127	0x3da84271	0.08215798

bn2.running_var f4 [128]
0	0x40490c34	3.1413698
1	0x4003f351	2.0617259
2	0x402ab1e1	2.6671069
3	0x3ea6b77f	0.3256187
4	0x41727a61	15.154878
5	0x3e87d1ac	0.26527154
6	0x3faee27c	1.3662868
7	0x407aa83a	3.9165177
8	0x40146f81	2.3193057
9	0x3eb6b265	0.3568298
10	0x3f1144b0	0.56745434
11	0x40396762	2.896935
12	0x402662b9	2.5997756
13	0x3e571587	0.21004306
14	0x3f8c3d0b	1.0956129
15	0x3fef3bee	1.8690164
16	0x4002b62c	2.042369
17	0x3f31c914	0.69447446
18	0x3f11b4ff	0.56916803
19	0x405b2224	3.4239588
20	0x3f00fd47	0.5038647
21	0x41278c92	10.471819
22	0x3d0f6a20	0.035013318
23	0x3ec2bdec	0.38035524
24	0x3fd3e659	1.6554672
25	0x3f857a72	1.0427992
26	0x3e1f4326	0.15552959
27	0x40949d71	4.644219
28	0x400bb3ab	2.182841
29	0x3f838bf2	1.0277083
30	0x3fd9006c	1.6953254
31	0x3fa8ab69	1.317731
32	0x401848ea	2.3794503
33	0x40ccf60a	6.405034
34	0x3f556449	0.8335615
35	0x40c0c31f	6.0238185
36	0x40742b22	3.8151326
37	0x3f8b31f8	1.0874624
38	0x3fbe368f	1.48604
39	0x4063f407	3.5617692
40	0x4084dc0f	4.1518626
41	0x3fcfd873	1.623793
42	0x3f9bd40e	1.2174089
43	0x3fc30eb1	1.5238858
44	0x3fd5c978	1.6702108
45	0x40ef1fe6	7.472644
46	0x40e437b4	7.1317997
47	0x3ff5d438	1.9205389
48	0x3f585876	0.8450998
49	0x3efbf8f2	0.49213368
50	0x3fa8cb3d	1.3187023
51	0x3f6ed720	0.93297005
52	0x40a7dace	5.2454596
53	0x3fbfec1b	1.4993929
54	0x407d8dd3	3.9617813
55	0x3a765d5d	0.00093980675
56	0x3e685547	0.2268878
57	0x40b22a1f	5.5676417
58	0x40d5da6f	6.6829143
59	0x3fe70f45	1.8051535
60	0x40e790eb	7.23644
61	0x3fea5390	1.8306751
62	0x3e7f068c	0.24904841
63	0x4045c28b	3.089999
64	0x40e5ce41	7.1814275
65	0x3f63dfc7	0.8901333
66	0x4029fb2c	2.6559553
67	0x41c41be4	24.513618
68	0x400cefa4	2.2021265
69	0x405689de	3.3521647
70	0x3fa53d77	1.2909383
71	0x40045329	2.0675757
72	0x3ef2639e	0.47341627
73	0x3fa47929	1.2849475
74	0x3e7f7dd2	0.2495034
75	0x40a7e5fd	5.2468247
76	0x3f658a8b	0.89664525
77	0x3f1bcb30	0.60856915
78	0x3fac5bc6	1.3465507
79	0x3f15dc7f	0.58539575
80	0x3eb518af	0.35370395
81	0x3feec589	1.8654033
82	0x401f0e50	2.4852486
83	0x3f859ec2	1.0439074
84	0x3e92d617	0.28678963
85	0x400e0844	2.2192545
86	0x404d4370	3.207241
87	0x3f82fb22	1.023289
88	0x3f679ff6	0.90478456
89	0x41240895	10.252095
90	0x3e583f1d	0.21117826
91	0x3e295839	0.1653756
92	0x3e8d1e58	0.27562213
93	0x409a4eec	4.822134
94	0x3f4bac7e	0.7956008
95	0x3fb04aa6	1.3772781
96	0x3f02cf57	0.51097625
97	0x4087c39a	4.242627
98	0x3d358263	0.0443138
99	0x41078e12	8.472185
100	0x402e8b4d	2.7272522
101	0x3f4f0a59	0.80875164
102	0x40651ca0	3.5798721
103	0x3f95fc4b	1.1717619
104	0x3f036b72	0.51335824
105	0x3f99719c	1.1987796
106	0x3f2979a3	0.6620123
107	0x3e4fd9b8	0.20297897
108	0x3f011799	0.5042663
109	0x405e3edc	3.4725866
110	0x3e0c0f66	0.13677749
111	0x3f3548aa	0.70814
112	0x4026dd28	2.6072483
113	0x408999ec	4.3000393
114	0x3e32e5a2	0.1747041
115	0x3f3db859	0.7410942
116	0x3fd332d0	1.6499882
117	0x40859f88	4.175724
118	0x4057fcf7	3.3748147
119	0x40aec5ed	5.461661
120	0x3f1d4f72	0.6144935
121	0x3ea9c47c	0.33157718
122	0x3f2e3d98	0.68062735
123	0x3f54f6f6	0.8318933
124	0x3dd2d6f1	0.10294903
125	0x41515338	13.082817
126	0x3f9eacf7	1.2396535
127	0x4050dd85	3.2635205

bn3.weight f4 [128]
0	0x3fa4644f	1.2843112
1	0x3f7be007	0.98388714
2	0x3f5d8c21	0.86541945
3	0x3dafb0b5	0.08578626
4	0x3fc5a998	1.5442381
5	0x3f8e7731	1.1130124
6	0x3fcbb271	1.5913831
7	0x3fbe35ec	1.4860206
8	0x3f9cae62	1.2240717
9	0x3fc93bd5	1.5721384
10	0x3ff3c38b	1.904405
11	0x3fb5973b	1.4186777
12	0x3fb2688d	1.3938156
13	0x3ff4aff6	1.9116199
14	0x3faec3de	1.3653524
15	0x3fa41581	1.2819062
16	0x3f5b79de	0.8573283
17	0x3fbd7004	1.479981
18	0x3f9fd3c5	1.2486502
19	0x3fbda9e1	1.4817468
20	0x3fac4879	1.3459617
21	0x3ee6a02b	0.45044073
22	0x3fafd4e3	1.3736843
23	0x400c4e41	2.1922762
24	0x3fa7ba60	1.3103752
25	0x3fd95968	1.698041
26	0x3f9d6fed	1.2299782
27	0x3c8222bf	0.015885709
28	0x3f3fb6ee	0.74888504
29	0x400b80a8	2.1797276
30	0x3f8681e3	1.0508388
31	0x3f9fb43e	1.247688
32	0x3f877265	1.0581785
33	0x3ff30f5e	1.8989065
34	0x3fa33c22	1.2752726
35	0x3f85e28d	1.0459763
36	0xbd623b4e	-0.05523234
37	0x3fad0140	1.3516006
38	0x3fa967a5	1.3234755
39	0x3fd7d976	1.6863239
40	0x3f712c0e	0.9420785
41	0x3fa8460d	1.3146378
42	0x3fc79e9d	1.559528
43	0x3fbdc82c	1.4826713
44	0x3f9a2632	1.2042906
45	0x3fdb0e9e	1.7113836
46	0x3fd7a3e9	1.6846896
47	0x3f970031	1.1796933
48	0x3fa82cf9	1.3138725
49	0x3f66f2e9	0.902144
50	0x3fe6cf21	1.8031961
51	0x3f8b33ac	1.0875144
52	0x3fc9e636	1.577338
53	0x3faf4259	1.3692123
54	0x3fefcf75	1.8735186
55	0x3fbd55ba	1.4791787
56	0x3fbc949a	1.473285
57	0x40079df6	2.1190162
58	0x3fac1f54	1.344706
59	0x3f9e348e	1.2359788
60	0x3fe510fd	1.789581
61	0x3f85a6a8	1.0441484
62	0x3fc282e1	1.5196191
63	0x3f843c0c	1.0330825
64	0x3fca84c4	1.5821767
65	0x3e7b8341	0.24561788
66	0x3f9e09bc	1.2346721
67	0x3fe60ef5	1.7973315
68	0x3f9747d8	1.18188
69	0x3fda1286	1.7036903
70	0x3fa63fe5	1.2988249
71	0x3f97f40d	1.1871353
72	0x3fef3780	1.8688812
73	0x3fb8f63f	1.4450148
74	0x3f7045a6	0.93856275
75	0x3feae5a8	1.8351336
76	0x40068cd0	2.1023445
77	0x3fef9646	1.8717735
78	0x3f6c5dd0	0.92330647
79	0x3feb756d	1.839521
80	0x3fd341bc	1.6504436
81	0x3fb324ac	1.3995566
82	0x3fbb0086	1.4609535
83	0x3f97128e	1.1802537
84	0x3f6552bf	0.89579386
85	0x3fd78584	1.6837621
86	0x3fde3b11	1.7361776
87	0x3f2351a1	0.6379643
88	0x3f8e81a1	1.113331
89	0x3f9995af	1.1998805
90	0x3fcc6989	1.5969707
91	0x3fc389fe	1.5276487
92	0x3fb20d4d	1.3910309
93	0x3fc08b6b	1.5042547
94	0x3f7e8cbe	0.99433506
95	0xbbe70674	-0.00705033
96	0xbdd82d63	-0.10555532
97	0x3fd25b34	1.6434083
98	0x4001c1f9	2.0274642
99	0x3fbf9dd8	1.4970045
100	0x3f9e7229	1.2378589
101	0x3fb60b51	1.4222203
102	0x3f97a3ce	1.1846864
103	0x3f9ca048	1.2236414
104	0x3f622eda	0.8835274
105	0x3fb0c2d1	1.3809453
106	0x3fd2490e	1.6428545
107	0x3fe54478	1.791152
108	0x3ff045cc	1.87713
109	0x3fba197c	1.4539027
110	0x3f3a4700	0.7276459
111	0x3f7b2eb5	0.98118144
112	0x3ff3b3bf	1.9039229
113	0x3ce275e5	0.027644107
114	0x3fb6a0ec	1.426786
115	0x3f755a8c	0.9584129
116	0x3fd85ae1	1.6902734
117	0x3fe5a0e8	1.793973
118	0x3f90fa06	1.1326301
119	0x3dbffd35	0.09374467
120	0x3fc67f94	1.5507684
121	0x3fce6902	1.6125796
122	0x3f524f3f	0.8215217
123	0x3fbc3491	1.4703542
124	0x3fc000ae	1.5000207
125	0x3fd4fd8a	1.6639874
126	0x3fa6074d	1.2970978
127	0x3fd02909	1.6262523

bn3.bias f4 [128]
0	0x3e7cc367	0.24683915
1	0xbc7a36cb	-0.015271853
2	0x3e20e9f1	0.15714242
3	0xbcbd97d3	-0.023143684
4	0x3e0a9504	0.13533407
5	0xbd0bd993	-0.03414304
6	0xbd8e5cde	-0.06951307
7	0xbd6a5599	-0.05721054
8	0x3be3e3bd	0.0069546388
9	0x3eac833e	0.3369388
10	0xbe2835a7	-0.16426717
11	0x3e4c36d0	0.19942784
12	0x3e5e1580	0.21687889
13	0x3e6b4f8b	0.22979562
14	0x3ea6f1f5	0.32606474
15	0xbde4ece1	-0.111779936
16	0xbe9d3539	-0.30704668
17	0xbd5bea81	-0.053690437
18	0xbb0f7cdd	-0.0021894493
19	0x3d880dd2	0.06643261
20	0x3eb5072d	0.35357037
21	0xbdc597f5	-0.09648124
22	0xbdb79a4e	-0.08964978
23	0x3ea28364	0.31740868
24	0x3caea5e0	0.02131933
25	0x3d156b82	0.03647948
26	0x3e8387ee	0.25689644
27	0x3b128faf	0.0022363474
28	0x3e1d2e1e	0.15349624
29	0x3e64872f	0.22317193
30	0x3d75aa92	0.05997712
31	0x3dad95d6	0.084758446
32	0x3e112dd7	0.14177643
33	0x3ed09680	0.40739822
34	0xbea20ac2	-0.31648833
35	0x3e6b2fb7	0.2296742
36	0x3c506e00	0.012721539
37	0xbe191000	-0.1494751
38	0xbdd22a2d	-0.10261951
39	0x3d8ae8c9	0.067826815
40	0xbd60f08c	-0.054916903
41	0x3d94e4b5	0.07270185
42	0x3d19f397	0.03758582
43	0xbce1f51f	-0.027582703
44	0x3ceb3a51	0.02871433
45	0x3df32519	0.1187231
46	0x3e3f5f41	0.1868868
47	0x3d94a6d1	0.0725838
48	0xbd6ec3d6	-0.058292232
49	0x39d8c42e	0.00041344896
50	0x3c22e465	0.009942149
51	0xbdd6f276	-0.104954645
52	0xbe85b5b1	-0.26115182
53	0x3d5eb882	0.05437518
54	0x3df55aa1	0.11980177
55	0x3d1ff15e	0.039048545
56	0xbc084457	-0.008317075
57	0x3cfa12c7	0.030526532
58	0xbd3e7c50	-0.046505272
59	0x3e13cae3	0.14432864
60	0x3d804a39	0.06264157
61	0xbe8abc46	-0.27096766
62	0xbc83ff9e	-0.016113099
63	0xbe8489fe	-0.2588653
64	0xbd5e7b80	-0.054316998
65	0xbe1f865b	-0.15578596
66	0x3dc69d09	0.09697921
67	0x3e88d753	0.2672678
68	0xbd1a006f	-0.03759807
69	0x3ecf42db	0.40480694
70	0xbda68dcb	-0.081325136
71	0x3e4b5701	0.19857408
72	0x3e9899c0	0.29804802
73	0xbd9e389e	-0.077256426
74	0x3e175568	0.14778674
75	0x3b960e95	0.004579375
76	0x3e98dcef	0.2985606
77	0xbd416be4	-0.047222033
78	0xbe59e587	-0.21278964
79	0x3e4da9b9	0.20084275
80	0x3d03b8e0	0.032158732
81	0x3d91c7b1	0.07118166
82	0x3e6ddcc9	0.23228754
83	0x3e31a094	0.17346412
84	0x3c9291e0	0.017891824
85	0x3e8933b4	0.2679726
86	0x3ec3d134	0.38245547
87	0xbded8803	-0.11598208
88	0x3e546d9f	0.20744942
89	0xbde8cb5b	-0.11366912
90	0x3e818b67	0.25301668
91	0x3e4b5b1b	0.19858973
92	0x3dc3416b	0.09533962
93	0x3db4c364	0.0882633
94	0xbe593a4c	-0.21213645
95	0xbb34810a	-0.0027542734
96	0x3d67fc48	0.05663708
97	0x3e069833	0.13143997
98	0x3eb5bea8	0.35497022
99	0x3e72ef22	0.23724034
100	0xbd507bba	-0.050899245
101	0x3d819b2f	0.06328427
102	0xbe27c379	-0.1638316
103	0x3e3d91c3	0.18512635
104	0x3d000d5b	0.031262737
105	0xbe0455a0	-0.12923288
106	0xbcee3d36	-0.029081922
107	0xbe04ba53	-0.12961702
108	0x3da1b6c7	0.0789619
109	0x3d5f75f4	0.05455585
110	0xbe541a13	-0.20713072
111	0x3d75d1f8	0.060014695
112	0x3e313188	0.17304051
113	0xbb56d0c7	-0.003277825
114	0xbdb03847	-0.08604484
115	0x3d08583b	0.033287268
116	0x3e40fa48	0.18845475
117	0x3e715537	0.23567663
118	0x3da2ab88	0.07942873
119	0xbd3c0601	-0.045904163
120	0x3e9a8dcc	0.30186307
121	0x3d08382f	0.033256706
122	0xbd6e2aa2	-0.058146127
123	0x3e01ffd0	0.12695241
124	0x3c2f1e28	0.010688342
125	0x3e470541	0.19435598
126	0x3dce78c2	0.100816265
127	0x3e4aa415	0.19789155

bn3.running_mean f4 [128]
0	0xbf6b1da7	-0.9184212
1	0xbf35a174	-0.7094948
2	0xbdd38907	-0.1032887
3	0x4115db0f	9.365981
4	0xbe883db1	-0.26609567
5	0xbf4b6267	-0.79447025
6	0xbf032d19	-0.5124069
7	0xbf12ed7a	-0.5739361
8	0xbf7fd5e8	-0.9993577
9	0x3ff7d33e	1.9361341
10	0xbf12026f	-0.57034963
11	0xbec7a8f2	-0.38996083
12	0xbeba88f1	-0.36432603
13	0xbebceb67	-0.36898348
14	0x3d4a649f	0.049412366
15	0xbeb1a8a5	-0.34698978
16	0x408972dc	4.295271
17	0xbf7ff36c	-0.9998081
18	0xbf736986	-0.9508289
19	0xbebc75ca	-0.36808616
20	0x3f90066f	1.1251963
21	0x40e7d7cc	7.2450924
22	0xbf05df94	-0.5229428
23	0x3ee1e429	0.44119385
24	0xbf7fba32	-0.99893486
25	0xbf6f28ad	-0.9342144
26	0xbf078762	-0.5294095
27	0x4135c4e8	11.360573
28	0xbf6c5ee5	-0.923323
29	0xbe37166d	-0.17879649
30	0xbf441296	-0.7659086
31	0x3f40588b	0.75135106
32	0xbefdd0e0	-0.4957342
33	0x3f54754e	0.8299149
34	0x41040d5b	8.253261
35	0x3f6e2c06	0.93035924
36	0x4115a6e3	9.353244
37	0x401613a7	2.3449495
38	0xbee8b272	-0.45448643
39	0xbf7e27a1	-0.9927922
40	0xbf5cf57d	-0.86312085
41	0xbf6227a4	-0.88341737
42	0x3e3a953d	0.18220992
43	0xbf47a89c	-0.7799165
44	0xbed62639	-0.41826037
45	0xbf0768a6	-0.52894056
46	0xbf692e2d	-0.91086084
47	0x3da7848a	0.08179577
48	0xbf1af9ad	-0.60537225
49	0xbf2d69bb	-0.67739457
50	0x3e6f1324	0.23347145
51	0xbf56c063	-0.8388731
52	0x3d620266	0.05517807
53	0xbf5533e6	-0.83282316
54	0x3ef76e39	0.4832628
55	0xbf526f78	-0.8220134
56	0xbf14b1df	-0.5808391
57	0x3ecb0c1f	0.39657685
58	0x3edeb236	0.4349534
59	0xbf11b1ba	-0.56911814
60	0xbf468c86	-0.7755817
61	0x3f12980b	0.5726325
62	0xbea6a1e3	-0.32545385
63	0x3ef67037	0.48132488
64	0xbf2d1f90	-0.67626286
65	0x4106d168	8.426125
66	0xbed94b35	-0.4244019
67	0xbf58c390	-0.84673405
68	0xbf46beae	-0.77634704
69	0xbe0eda8c	-0.13950557
70	0xbf7ffa6b	-0.9999148
71	0x3dc26946	0.094927356
72	0x3e948498	0.2900741
73	0xbf5a1e89	-0.8520284
74	0x3d217e73	0.039427232
75	0x3df91b3e	0.12163399
76	0x405f3ac0	3.4879608
77	0x3eaf8c43	0.342867
78	0xbe630106	-0.22168359
79	0xbe1347ba	-0.1438283
80	0xbe07e086	-0.13269243
81	0xbf563a18	-0.83682394
82	0xbf17dfac	-0.5932567
83	0xbf5628be	-0.8365592
84	0x40a7d344	5.2445393
85	0xbf3db6d7	-0.74107116
86	0xbed2d8de	-0.41181082
87	0xbf7ff9e0	-0.99990654
88	0xbe7c505f	-0.24640034
89	0xbf6112e9	-0.8791948
90	0xbf78337e	-0.9695357
91	0xbecb01a7	-0.39649698
92	0xbea49145	-0.32142082
93	0x3e000959	0.12503566
94	0xbf27c726	-0.6553825
95	0x40dafb09	6.843144
96	0x40d55e05	6.667727
97	0xbf2b5ef1	-0.66941744
98	0x3c11cd3e	0.008899031
99	0xbed8909c	-0.42297828
100	0x3d256acf	0.040385064
101	0xbf703076	-0.93823946
102	0xbf5a6097	-0.85303634
103	0x3fc1d8e1	1.5144311
104	0x3fd09d0f	1.629793
105	0xbf1d768a	-0.61509
106	0xbf05a70e	-0.5220803
107	0xbf7fdfa7	-0.9995064
108	0xbf7ffffc	-0.99999976
109	0xbdf7c8f6	-0.12098877
110	0x3e929fb6	0.28637475
111	0x3dcab89e	0.09898494
112	0xbec508a9	-0.3848317
113	0x41139613	9.224139
114	0x3fb90dc2	1.4457324
115	0xbf0d433c	-0.55180717
116	0xbf3bb142	-0.7331735
117	0xbf2a045a	-0.6641289
118	0x3fa87aff	1.3162535
119	0x41275839	10.459039
120	0x3f383e1c	0.7196977
121	0xbe594f6e	-0.21221706
122	0xbf0e566d	-0.55600625
123	0x3f31daa1	0.69474226
124	0xbf08d469	-0.5344911
125	0x401e51ea	2.4737496
126	0xbf46b037	-0.7761263
127	0xbf1036c8	-0.5633359

bn3.running_var f4 [128]
0	0x3eb36952	0.3504129
1	0x400bf333	2.1867187
2	0x40cf3de7	6.4763064
3	0x4236c49b	45.691998
4	0x4146a364	12.41489
5	0x3fb0526d	1.3775154
6	0x4063cec1	3.5594943
7	0x40559c15	3.3376515
8	0x3a4359fb	0.0007452068
9	0x420a8b11	34.635807
10	0x4024799f	2.5699232
11	0x407d779a	3.960425
12	0x40d3e711	6.6219563
13	0x40ae32f5	5.4437203
14	0x413f5a70	11.959579
15	0x40cc98a0	6.393631
16	0x423af39e	46.737907
17	0x382a63a5	4.062396e-05
18	0x3e59927b	0.21247284
19	0x40c16a82	6.0442514
20	0x41de5458	27.791183
21	0x4237192f	45.774593
22	0x40369550	2.8528633
23	0x40fa3ad3	7.8196807
24	0x3b85ea66	0.0040867804
25	0x3e5b0faf	0.21392702
26	0x4054be70	3.3241234
27	0x426a3908	58.555695
28	0x3e76afd5	0.24090512
29	0x40da939f	6.83052
30	0x3f8427fb	1.0324701
31	0x41a8f91b	21.121634
32	0x40f0c031	7.523461
33	0x411f1e5b	9.944911
34	0x428eacd5	71.33756
35	0x4200c319	32.190525
36	0x426b3834	58.804886
37	0x4197f973	18.996801
38	0x405e45fe	3.473022
39	0x3c3c480b	0.011491786
40	0x3f952cd5	1.1654307
41	0x3e6961b8	0.22791183
42	0x41617ad5	14.092488
43	0x3ff9da7d	1.9519802
44	0x40bc9af9	5.8939176
45	0x40068431	2.1018183
46	0x3ef976d4	0.4872347
47	0x40f07693	7.5144744
48	0x409522b7	4.6604877
49	0x401f3046	2.4873214
50	0x41c26640	24.299927
51	0x3f2cc764	0.67491746
52	0x41189d5e	9.53842
53	0x3fae5c31	1.3621885
54	0x41ab2983	21.39527
55	0x3f84ebad	1.0384423
56	0x404b8892	3.1802106
57	0x411b18f8	9.693596
58	0x41397e88	11.593391
59	0x4014ebed	2.3268998
60	0x401393d5	2.305898
61	0x41ac3c26	21.52937
62	0x405fbc81	3.4958804
63	0x417affe9	15.687478
64	0x401c9f71	2.4472315
65	0x42bf5604	95.668
66	0x409d9981	4.9249883
67	0x3f8a3cc9	1.07998
68	0x3f8d4875	1.1037737
69	0x40ee37a7	7.4442935
70	0x3703b174	7.849525e-06
71	0x4108cb4b	8.549632
72	0x40fe7d75	7.9528146
73	0x3f0e987e	0.55701435
74	0x412876f0	10.529037
75	0x4153bdd6	13.233847
76	0x42047afe	33.12011
77	0x411e0744	9.876774
78	0x40c3fe9a	6.1248293
79	0x40d8709c	6.7637463
80	0x40b5744e	5.6704473
81	0x3f27b367	0.6550812
82	0x400cc762	2.1996694
83	0x3f707f03	0.93943805
84	0x4305a13f	133.62987
85	0x3fc244cd	1.5177246
86	0x40c14757	6.0399585
87	0x37f847f8	2.9597417e-05
88	0x410bf33c	8.746883
89	0x3f1f6d3b	0.6227605
90	0x3d9cec30	0.07662237
91	0x40b91eba	5.785001
92	0x40a08479	5.016171
93	0x410ae194	8.680073
94	0x4013123a	2.2979875
95	0x420bec13	34.98054
96	0x4232d72b	44.710125
97	0x3faef3e0	1.3668175
98	0x41ae0c06	21.75587
99	0x4039bb6b	2.902064
100	0x411badbe	9.729918
101	0x3e64356d	0.22286005
102	0x3f1f65f2	0.6226493
103	0x428d940d	70.78916
104	0x41ca1a31	25.262789
105	0x402da0a5	2.71293
106	0x409e91b5	4.9552865
107	0x39cecc43	0.0003944357
108	0x2a92db2e	2.6086896e-13
109	0x40ba202b	5.8164268
110	0x415d20c3	13.820498
111	0x411643d4	9.39156
112	0x40957816	4.670909
113	0x42a1993b	80.79928
114	0x420028e4	32.039932
115	0x407fc7ad	3.9965622
116	0x3f8b277a	1.0871422
117	0x3f8be42b	1.0929006
118	0x417021c5	15.0082445
119	0x42280f8c	42.015182
120	0x418c791e	17.55914
121	0x41818290	16.188751
122	0x405d981e	3.4624095
123	0x4157ad17	13.479758
124	0x40196e28	2.3973484
125	0x41ebad31	29.459566
126	0x3fac1100	1.3442688
127	0x402df3ae	2.717998

fc1.weight f4 [128, 24]
0	0xbedc8713	-0.43071803
1	0xbebb93ea	-0.36636287
2	0xbf59465f	-0.84873
3	0xbf25f97c	-0.6483381
4	0x3f45a7f8	0.77209425
5	0x3c8bed9d	0.017081076
6	0xbf1e0ac2	-0.61735165
7	0xbf05739a	-0.5212952
8	0xbe7a000e	-0.24414083
9	0xbf0d227f	-0.5513076
10	0xbf124e78	-0.57150984
11	0xbda25132	-0.07925643
12	0x3e278d36	0.16362461
13	0x3c2cc415	0.0105447965
14	0xbf09b168	-0.53786325
15	0xbcf28b9e	-0.02960759
16	0xbf6b68bd	-0.9195669
17	0xbf23b526	-0.63948286
18	0xbebda05d	-0.3703641
19	0xbf4adc86	-0.7924274
20	0xbe32bbf8	-0.17454517
21	0x3e2494f8	0.16072452
22	0xbe45d5b5	-0.19319804
23	0xbf3fd1c7	-0.7492947
24	0x3f218e81	0.6310807
25	0x3d0e20cd	0.03469925
26	0xbcd7cdd9	-0.026343273
27	0x3e81f061	0.25378707
28	0x3eac3a5e	0.3363828
29	0xbf4edb88	-0.8080373
30	0xbf0318a7	-0.5120949
31	0x3d95aa37	0.073078565
32	0xbe1c683b	-0.15274136
33	0xbf92d9e5	-1.1472746
34	0x3e44fd25	0.19237192
35	0xbe2bfd9a	-0.1679596
36	0xbdb40841	-0.08790637
37	0xbd3c8d2d	-0.046033073
38	0xbee5f6d8	-0.4491489
39	0xbea11073	-0.31457862
40	0x3f3b3761	0.73131377
41	0xbf730973	-0.94936293
42	0xbf11caf2	-0.56950295
43	0xbe556750	-0.20840192
44	0x3ef974af	0.48721835
45	0xbe437efe	-0.19091412
46	0xbf5411d2	-0.8283969
47	0xbe9e148c	-0.3087505
48	0x3e27f352	0.16401413
49	0x3ec2435a	0.3794201
50	0x3c5445d4	0.012956101
51	0x3db2fb71	0.08739365
52	0xbf2f3027	-0.6843285
53	0x3f363736	0.71177995
54	0xbed1f828	-0.4100964
55	0xbd9a8813	-0.07545485
56	0xbde154c1	-0.11002494
57	0xbe97c91b	-0.2964562
58	0x3eb909a3	0.36140165
59	0xbeb90bd4	-0.36141837
60	0xbff4859b	-1.9103273
61	0x3e332969	0.17496265
62	0x3c23da9e	0.010000853
63	0xbebe8d3f	-0.37217137
64	0x3e8ac1b3	0.27100906
65	0xbea07de3	-0.31346044
66	0x3eec25c0	0.4612255
67	0xbf3ee218	-0.7456374
68	0xbf7bd172	-0.98366463
69	0xbf1ac3c0	-0.6045494
70	0x3e9e7d8c	0.3095516
71	0xbf1e2373	-0.6177284
72	0x3e0ceea7	0.13762914
73	0x3ebac939	0.36481646
74	0xbe5670eb	-0.20941512
75	0xbf806f3f	-1.003395
76	0x3eb22bf3	0.34799156
77	0x3f2d1aad	0.6761883
78	0xbf4f7370	-0.8103552
79	0xbfb6dc76	-1.4286029
80	0xbf7a2952	-0.977193
81	0xbe52ba15	-0.20578797
82	0x3dc350aa	0.0953687
83	0xbee8243e	-0.4534015
84	0xbe3c64ba	-0.18397799
85	0x3ef8037c	0.48440158
86	0xbf1e0ae3	-0.6173536
87	0xbeed9c79	-0.46408442
88	0xbfb44d81	-1.4086152
89	0xbdf09e1b	-0.11748906
90	0x3dd1c4a6	0.10242586
91	0x3e9e1190	0.30872774
92	0xbdb03d9f	-0.08605503
93	0x3ecf325d	0.40468112
94	0xbe802b9a	-0.25033265
95	0x3dbf465b	0.09339591
96	0xbe046a7f	-0.1293125
97	0xbf120566	-0.5703949
98	0xbf1bd384	-0.6086962
99	0xbd51a97a	-0.051187016
100	0xbf5174d2	-0.8181888
101	0x3d55ec05	0.05222704
102	0xbda89c17	-0.08232897
103	0x3c50ec46	0.0127516445
104	0x3df25b28	0.11833793
105	0x3e169ac4	0.14707476
106	0xbf23e796	-0.6402525
107	0x3e1367d8	0.14395082
108	0xbe2cb0bb	-0.16864292
109	0xbef3e46b	-0.47635207
110	0xbd328036	-0.043579303
111	0x3dace301	0.08441735
112	0xbe9d5474	-0.30728495
113	0x3e3833a5	0.17988451
114	0xbf0a81d4	-0.5410435
115	0xbee4db11	-0.44698384
116	0xbf168259	-0.58792645
117	0xbf27d506	-0.6555942
118	0xbea53341	-0.32265666
119	0xbea5c52f	-0.32377002
120	0xbe925ec9	-0.2858794
121	0x3eb61895	0.3556563
122	0x3e9c6e63	0.30552968
123	0x3ebe6b68	0.3719132
124	0xbed0c000	-0.40771484
125	0x3e24efdf	0.16107129
126	0xbf0299fc	-0.5101621
127	0x3da5e859	0.081009574
128	0xbfb867ab	-1.4406637
129	0xbd692a1b	-0.05692492
130	0x3e899747	0.26873228
131	0x3e858636	0.26078957
132	0xbf78c9be	-0.97182834
133	0x3ee227bd	0.44170943
134	0xbf1b0cbb	-0.605663
135	0x3eaf141d	0.34195033
136	0xbfa552b5	-1.2915865
137	0xbdb6cc93	-0.08925738
138	0xbebd55c8	-0.36979508
139	0xbeab8328	-0.33498502
140	0xbe437501	-0.19087602
141	0x3f2f55d9	0.6849037
142	0xbf4e406a	-0.8056704
143	0xbf03ed18	-0.5153365
144	0x3f1a72b5	0.6033128
145	0x3f05eae5	0.52311546
146	0x3edb4c02	0.42831427
147	0xbd3a842c	-0.045536205
148	0xbdf6853f	-0.120371334
149	0x3d4cdcb9	0.050015185
150	0x3d4a541b	0.049396615
151	0xbe8149ce	-0.2525162
152	0xbf01930d	-0.50615007
153	0x3f4caef4	0.7995446
154	0xbf90bc03	-1.1307377
155	0x3e338a37	0.17533194
156	0xbe532092	-0.20617893
157	0x3c7a45ad	0.015275401
158	0xc0046924	-2.0689173
159	0x3e8936af	0.26799533
160	0xbe22a654	-0.15883762
161	0x3f1868cf	0.59534925
162	0x3e2fcd90	0.1716826
163	0xbec0e1d2	-0.37672287
164	0x3e8649c3	0.2622815
165	0xbc9b953b	-0.018992057
166	0x3ddc2370	0.10748947
167	0xbf0c53ad	-0.5481518
168	0xbf14ffd1	-0.58202845
169	0x3f3cf8fa	0.7381741
170	0x3e9110c8	0.28333116
171	0xbd9722d9	-0.073796935
172	0x3e90dd06	0.28293628
173	0xbf8ce43d	-1.1007153
174	0xbeee7b4c	-0.46578443
175	0xbeb4ec8d	-0.35336724
176	0xbf852d5d	-1.0404469
177	0x3df9fce0	0.12206435
178	0xbd9966ab	-0.074902855
179	0xbdf02863	-0.11726453
180	0x3b83f03f	0.0040264423
181	0xbf399eae	-0.7250775
182	0xbf23ff83	-0.64061755
183	0xbe1b0527	-0.15138684
184	0xbda4ecf7	-0.0805301
185	0x3ee371b0	0.44422674
186	0xbddb5c6d	-0.10710988
187	0xbe18ebdc	-0.14933723
188	0xbe649810	-0.22323632
189	0xbf852e4f	-1.0404757
190	0xbefae764	-0.49004662
191	0xbea2acde	-0.31772512
192	0x3f225dc1	0.6342431
193	0xbf151d63	-0.58247966
194	0x3cd142d5	0.025544563
195	0x3d79135d	0.060809482
196	0x3f3c9656	0.73666894
197	0x3e543596	0.20723566
198	0xbeaea02b	-0.34106573
199	0x3d8fb863	0.07017591
200	0xbe14693f	-0.14493273
201	0xbfbb0b2b	-1.4612783
202	0xbeeac1ca	-0.45850974
203	0xbe424c00	-0.18974304
204	0x3e709b00	0.23496628
205	0x3f1abbc3	0.6044275
206	0xbf556532	-0.83357537
207	0xbe159c76	-0.14610466
208	0xbecb9ddd	-0.39768878
209	0xbf40f5a9	-0.7537485
210	0xbf54bfd3	-0.831052
211	0x3ebd082a	0.3692029
212	0xba7ce8b3	-0.0009647712
213	0x3f4042fb	0.75102204
214	0xbf82715b	-1.0190843
215	0x3e85dc10	0.26144457
216	0x3ff19874	1.887465
217	0x3f3668da	0.7125374
218	0xbe4b5e36	-0.19860157
219	0x3ee31779	0.44353846
220	0x3ecae5c7	0.3962843
221	0xbedf0ba6	-0.43563575
222	0xbf1a7c23	-0.6034567
223	0x3e8c7f2e	0.2744078
224	0xbc3711eb	-0.011173706
225	0x3dc65bbb	0.09685465
226	0x3f620d9c	0.88302016
227	0x3e8224ea	0.25418788
228	0xbd24b248	-0.040209085
229	0x3ec2022e	0.37892288
230	0xbecb24b3	-0.39676437
231	0x3e25a09b	0.16174547
232	0x3e7bf411	0.24604823
233	0x3d022206	0.03177073
234	0x3f3c9275	0.73660976
235	0xbe7f4515	-0.24928696
236	0x3f0ec432	0.5576812
237	0x3f24da64	0.6439574
238	0x3e1e5a03	0.15464024
239	0xbf0730bf	-0.52808756
240	0x3ef6f61d	0.48234645
241	0x3f809dce	1.0048158
242	0x3dd04f08	0.10171324
243	0x3ed7bafc	0.42134845
244	0x3f318cc6	0.6935543
245	0xbdb526f9	-0.08845324
246	0xbf03ecd5	-0.5153325
247	0x3e9641c4	0.2934705
248	0xbea58b66	-0.32332915
249	0x3e9956cf	0.29949042
250	0x3e9064af	0.28201815
251	0xbf6c72e3	-0.92362803
252	0x3ece2419	0.40261915
253	0x3ea9c8c7	0.33160993
254	0xbef13cce	-0.47116703
255	0xbf8d4093	-1.1035331

fc2.weight f4 [128, 128]
0	0xbeb60eaf	-0.35558078
1	0x3ebb25d5	0.365523
2	0xbee17335	-0.44033208
3	0xbea18c2b	-0.31552252
4	0xbe75a7c3	-0.23989777
5	0x3d9e9249	0.077427454
6	0x3e96fcca	0.29489738
7	0x3dd0c89d	0.10194514
8	0x3eb69179	0.35657862
9	0x3f2fa1bd	0.6860617
10	0x3f770137	0.9648623
11	0xbe0ad6f7	-0.13558565
12	0x3e36f89f	0.17868279
13	0x3ecbb8a0	0.39789295
14	0xbeabc606	-0.33549517
15	0xbe237267	-0.1596161
16	0xbe07ec89	-0.13273825
17	0xbe739bbe	-0.2378988
18	0xbea33cf2	-0.31882435
19	0x3f25277b	0.6451337
20	0xbdebfaf7	-0.11522477
21	0xbe71280d	-0.23550434
22	0xbed33123	-0.41248426
23	0x3ea11abe	0.31465715
24	0x3e9f6848	0.31134248
25	0xbf4c472c	-0.797961
26	0x3f679408	0.9046025
27	0xbeb6135f	-0.35561654
28	0x3f2620fc	0.6489408
29	0xbde5b581	-0.1121626
30	0x3f09070d	0.53526384
31	0x3dc99358	0.09842557
32	0x3ef331e3	0.47498998
33	0x3f026824	0.50940156
34	0xbf28ac96	-0.65888345
35	0xbebd6f26	-0.36998862
36	0xbf0c3cc1	-0.54780203
37	0xbf8054d3	-1.0025886
38	0x3e5d7383	0.21626095
39	0xbeae2bff	-0.3401794
40	0xbf50def8	-0.81590223
41	0xbf9df947	-1.2341698
42	0xbe8e75ef	-0.2782435
43	0xbd826333	-0.06366577
44	0x3e45e68d	0.1932623
45	0x3ea05d8a	0.31321365
46	0x3eea7b50	0.45797205
47	0x3e700b5b	0.23441832
48	0xbf363817	-0.71179336
49	0xbf1eec1c	-0.62079024
50	0xbf2024b9	-0.62556034
51	0xbdf3b3d9	-0.118995376
52	0x3c1fbac3	0.009749117
53	0x3f3869c2	0.72036374
54	0xbf6f151a	-0.93391573
55	0x3dbbdbca	0.09172781
56	0xbf02933e	-0.51005924
57	0x3eb72a81	0.35774615
58	0x3dc40c87	0.09572702
59	0x3eb8a5e8	0.36064076
60	0xbd83997d	-0.0642576
61	0x3e0e2f62	0.13885263
62	0xbe9b7f12	-0.30370384
63	0x3eabc12a	0.3354581
64	0xbedc389b	-0.43011937
65	0xbf13b530	-0.57698345
66	0xbc9f39e0	-0.019436777
67	0xbf785c60	-0.97015953
68	0xbf0da83c	-0.5533483
69	0x3e65168e	0.22371885
70	0x3f59d247	0.8508648
71	0xbe5c3c0e	-0.21507284
72	0xbf237b2b	-0.63859814
73	0xbf5a457f	-0.8526229
74	0xbe767f9d	-0.24072118
75	0xbeb06949	-0.34455326
76	0xbeecaa09	-0.46223477
77	0x3f4ad255	0.7922719
78	0xbf80cb90	-1.0062122
79	0xbf544d87	-0.829308
80	0x3e28e6cd	0.16494294
81	0xbc613e8c	-0.0137478225
82	0x3ddf0424	0.10889462
83	0xbf61739a	-0.8806702
84	0x3eb9eee6	0.36315078
85	0x3dd47ee8	0.10375768
86	0xbdb3d47b	-0.08780762
87	0x3e5feb26	0.21867046
88	0x3ef1c777	0.47222492
89	0x3ef31a23	0.47480878
90	0xbf0b40fa	-0.5439602
91	0x3e7abe6c	0.24486703
92	0x3e4ef390	0.20210099
93	0xbdd211a1	-0.10257269
94	0x3d6cb39e	0.057788484
95	0xbd175dc0	-0.03695464
96	0x3e95f6d4	0.29289877
97	0xbf81de9d	-1.0146061
98	0xbf367207	-0.7126774
99	0x3e0be388	0.13661015
100	0xbe81fc31	-0.2538772
101	0xbebac6f6	-0.3647992
102	0x3f0c3ec5	0.5478328
103	0x3e003771	0.12521149
104	0xbe54a687	-0.2076665
105	0xbe476248	-0.19471085
106	0x3eb703f9	0.35745218
107	0xbf97a99b	-1.1848634
108	0xbbd7fcb5	-0.0065914043
109	0xbf1b7808	-0.6073003
110	0xbdebf481	-0.11521245
111	0xbdaf3da7	-0.08556681
112	0x3eba7706	0.36418933
113	0x3ea4d94a	0.32197028
114	0x3ec0394b	0.3754371
115	0xbed53c15	-0.416474
116	0xbeae4677	-0.34038135
117	0xbea99aca	-0.33125907
118	0x3ec4da13	0.38447627
119	0xbe79b048	-0.24383652
120	0xbe4031f4	-0.18769056
121	0xbd4df4c4	-0.050282255
122	0xbf88bb1c	-1.0682101
123	0xbd2626a0	-0.04056418
124	0x3f725854	0.9466603
125	0xbf96c9b6	-1.1780307
126	0x3e410a87	0.18851672
127	0x3e4c52ae	0.19953415
128	0xbc94ec59	-0.018179106
129	0xbe23a4b8	-0.15980804
130	0x3dbbc112	0.091676846
131	0x3f74f251	0.95682245
132	0xbdbb3db3	-0.091426276
133	0x3ebc7c9d	0.36813822
134	0xbe516fed	-0.20452853
135	0xbd8007df	-0.06251501
136	0xbe985420	-0.29751682
137	0xbecf1587	-0.40446112
138	0x3e18224b	0.14856832
139	0xbc9e4d03	-0.019323831
140	0xbed77726	-0.4208309
141	0xbf014148	-0.50490236
142	0xbe92da81	-0.2868233
143	0x3ecad942	0.3961888
144	0xbd35e506	-0.044407867
145	0x3d85056b	0.06495174
146	0xbe8841b5	-0.2661263
147	0xbe8136d8	-0.25237155
148	0x3f399e0b	0.7250678
149	0xbd8c9e6c	-0.06866154
150	0x3ddbb4be	0.10727833
151	0x3f24409b	0.6416108
152	0x3ca9c120	0.020721972
153	0xbfd3ceb7	-1.6547459
154	0xbcf6bc4c	-0.030119084
155	0xbf78237f	-0.9692916
156	0x3dc65864	0.09684828
157	0xbed7a552	-0.42118317
158	0xbde11afd	-0.10991476
159	0xbdab834c	-0.08374652
160	0xbef63a3f	-0.48091313
161	0x3e1756d7	0.1477922
162	0xbd577d2c	-0.052609608
163	0xbf360c27	-0.71112293
164	0xbe689993	-0.22714834
165	0x3ecdd5ed	0.40202275
166	0xbe7aee54	-0.24504977
167	0xbecc3376	-0.39883012
168	0xbee7cc58	-0.4527309
169	0xbf211630	-0.6292448
170	0x3e23dd85	0.16002472
171	0xbf4582f2	-0.7715293
172	0x3e675c17	0.22593723
173	0x3e8b22c9	0.27174976
174	0xbe95a6f9	-0.29228953
175	0xbf4b0bd0	-0.793149
176	0x3e861617	0.26188728
177	0xbee99fe8	-0.4562981
178	0xbf07cfae	-0.5305127
179	0x3e41937a	0.18903914
180	0xbe9943f2	-0.2993465
181	0x3ea7b337	0.32753918
182	0xbe499bbb	-0.19688313
183	0x3ed2bd95	0.41160265
184	0xbf4f60a3	-0.8100683
185	0x3e93baa7	0.28853342
186	0xbc28429f	-0.01026979
187	0xbf404af5	-0.75114375
188	0x3d2691d4	0.040666416
189	0x3f29dbe2	0.6635114
190	0xbe81cfc3	-0.25353822
191	0xbebda38d	-0.37038842
192	0xbe94df42	-0.29076582
193	0x3ddcadc0	0.10775328
194	0xbf03ed53	-0.51534003
195	0x3eaa5fbb	0.33276162
196	0xbef874ce	-0.48526615
197	0x3e922b89	0.2854884
198	0xbe9066f7	-0.28203556
199	0x3d7e994d	0.062157918
200	0xbe8ebbf0	-0.2787776
201	0x3f0b3076	0.5437082
202	0x3e20b925	0.15695627
203	0xbf0056ba	-0.50132334
204	0xbf7934c9	-0.9734617
205	0x3f0ad555	0.5423177
206	0xbf23c5ee	-0.6397389
207	0xbe7cd95b	-0.2469229
208	0x3eba5930	0.3639617
209	0xbf180433	-0.5938141
210	0x3ed9738d	0.4247097
211	0xbf8b9513	-1.0904869
212	0xbe7be920	-0.24600649
213	0xbf1787e3	-0.5919172
214	0xbe8c1ee5	-0.2736732
215	0xbf23c94c	-0.6397903
216	0xbe401274	-0.1875704
217	0x3eee67da	0.46563607
218	0x3e8bdbc9	0.2731612
219	0x3f194920	0.59877205
220	0xbe213db0	-0.15746188
221	0xbf6edc94	-0.93305326
222	0xbf244610	-0.64169407
223	0xbf27ba6d	-0.6551884
224	0x3eb192c9	0.346823
225	0xbf91f3c3	-1.1402515
226	0xbe751851	-0.23935057
227	0x3e080581	0.1328335
228	0xbe8780bd	-0.26465407
229	0x3f148eea	0.5803057
230	0xbd8ba2a4	-0.068181306
231	0xbf29fb39	-0.6639896
232	0xbe0c8050	-0.13720822
233	0x3eb1d1a0	0.34730244
234	0xbd775766	-0.060386084
235	0x3e4bf7ac	0.19918698
236	0x3e610d12	0.21977642
237	0xbeda3386	-0.42617434
238	0xbdeadbb0	-0.11467683
239	0x3eaa97dd	0.33318987
240	0xbed2fbf3	-0.41207847
241	0xbd34aa9f	-0.04410803
242	0x3f3e5c87	0.74359936
243	0xbe1e18f2	-0.15439203
244	0xbe190d59	-0.14946498
245	0xbf246b19	-0.6422592
246	0xbef089da	-0.46980172
247	0xbde56b09	-0.11202056
248	0x3ea81d36	0.32834786
249	0x3f9c0b51	1.2190953
250	0xbf1cd49d	-0.6126192
251	0xbcdf469d	-0.02725535
252	0xbe33729a	-0.17524186
253	0x3efec3b4	0.49758685
254	0x3e4985a7	0.1967989
255	0x3e174bb4	0.14774972

fc3.weight f4 [2, 128]
0	0x3eabbdc6	0.33543223
1	0xbe4b4758	-0.19851434
2	0x3e9ecb19	0.31014326
3	0x3cbea22b	0.023270687
4	0x3f77ecb7	0.96845573
5	0xbad2de60	-0.0016088001
6	0xbe984d8e	-0.2974667
7	0xbefb907b	-0.49133667
8	0x3e429137	0.19000708
9	0x3f60e0df	0.87843126
10	0xbf5ff970	-0.87489986
11	0x3e822e29	0.25425842
12	0x3ef9af9c	0.48766792
13	0x3f562d32	0.8366271
14	0x3eb02f21	0.34410957
15	0xbefc4cea	-0.4927743
16	0xbc010599	-0.00787487
17	0x3b516051	0.0031948278
18	0x3e6044d9	0.21901263
19	0xbe899238	-0.2686937
20	0x3f0423c2	0.5161706
21	0xbcf6d48b	-0.030130645
22	0xbe014ddb	-0.12627356
23	0xbd7ce7f7	-0.061744656
24	0xbd8af6da	-0.067853644
25	0xbe2c13a1	-0.16804363
26	0x3f1e5771	0.61852175
27	0xb98ebb31	-0.0002722382
28	0x3d82f10f	0.063936345
29	0x3f4313b5	0.76201946
30	0xbe1e653a	-0.15468302
31	0x3e11e8ae	0.14248917
32	0x3ede7145	0.43445793
33	0x3efd1fac	0.49438226
34	0xbba73c3e	-0.005103617
35	0x3f1eaeba	0.6198536
36	0xbc2cc49a	-0.01054492
37	0xbd2fcc15	-0.042919237
38	0xbec30f80	-0.38097763
39	0xbda3cd4d	-0.079981424
40	0xbecb7243	-0.39735612
41	0xbe8cbcbe	-0.2748775
42	0xbef2995b	-0.47382626
43	0x3e271c42	0.16319373
44	0xbe324d80	-0.17412376
45	0xbe1c9ee5	-0.15294988
46	0x3dbee39e	0.09320758
47	0xbc976582	-0.01848102
48	0xbec9b6c1	-0.39397243
49	0xbedcfddf	-0.43162438
50	0xbecf4547	-0.40482542
51	0x3dc1dc4a	0.09465845
52	0xbe8329b0	-0.25617743
53	0x3ea6776d	0.3251299
54	0x3d429d52	0.047513314
55	0x3ea34242	0.31886488
56	0xbf10bef5	-0.5654138
57	0xbc1b388a	-0.009473929
58	0x3ec09b90	0.37618685
59	0x3edd4b55	0.43221536
60	0x3e87d2f0	0.2652812
61	0xbec4e7cc	-0.38458097
62	0xbea43dfa	-0.32078534
63	0xbe1209fa	-0.14261618
64	0xbe74fd3a	-0.23924723
65	0xbb51829f	-0.0031968725
66	0x3f2155da	0.63021624
67	0x3e9ebd77	0.31003925
68	0x3d22fb92	0.039790697
69	0x3e912201	0.28346255
70	0xbedf27d1	-0.43585065
71	0x3e5f56c2	0.21810439
72	0x3d32a5f0	0.04361528
73	0xbdd39e9f	-0.10332989
74	0x3dcdb7c8	0.10044819
75	0x3edcf8dd	0.43158618
76	0x3f314cf4	0.69258046
77	0xbedd7523	-0.4325343
78	0x398546c6	0.00025420467
79	0x3ef09fe3	0.46996984
80	0xbe88ac2f	-0.26693866
81	0xbe9abba0	-0.30221272
82	0x3daef0bf	0.085420124
83	0x3e9d2972	0.30695683
84	0x3ee7e67f	0.45293042
85	0x3f0beba8	0.5465646
86	0x3ef7556f	0.48307368
87	0xbe6fe223	-0.23426108
88	0x3ea208ba	0.31647283
89	0xbe994656	-0.29936475
90	0x3e710626	0.23537502
91	0xbed7063d	-0.41996947
92	0x3e6869f9	0.22696675
93	0xbd5ccb74	-0.053904966
94	0xbe90c994	-0.28278792
95	0xba901dfc	-0.0010995264
96	0xbca0732a	-0.019586165
97	0xbe20eb36	-0.15714726
98	0x3f758370	0.9590368
99	0x3eb7c230	0.3589034
100	0xbe9494bf	-0.29019734
101	0xbe2c91c7	-0.16852485
102	0xbe6d0f11	-0.23150279
103	0x3f053f6f	0.52049917
104	0x3e3ff3c5	0.18745334
105	0xbea8e0e5	-0.3298408
106	0x3ef40c6f	0.47665736
107	0xbd86bbec	-0.06578812
108	0x3e31b288	0.1735326
109	0x3e258115	0.16162522
110	0x3da52153	0.08062997
111	0xbe1b744e	-0.15181085
112	0x3ec950e7	0.39319536
113	0x3bac8eca	0.005266045
114	0x3bf4a931	0.0074664582
115	0xbdfa7005	-0.12228397
116	0x3d4fb9b3	0.050714206
117	0x3da48839	0.08033795
118	0xbe1732e0	-0.14765501
119	0x3cc7c784	0.024387129
120	0x3f0bd8c4	0.54627633
121	0xbee5a533	-0.448526
122	0xbe956c83	-0.2918435
123	0xbed65880	-0.41864395
124	0xbeb6a0b9	-0.35669497
125	0x3f6b2d37	0.9186587
126	0x3ef06742	0.4695378
127	0x3f3a071d	0.72667104
128	0x3f4c7eb3	0.7988083
129	0xbf2ce1c4	-0.6753199
130	0x3f5f53d3	0.8723728
131	0xbe3b239e	-0.18275306
132	0x3e605dc6	0.21910772
133	0xbfad24be	-1.3526838
134	0x3edfec59	0.43735006
135	0x3f918358	1.1368208
136	0xbf8a394f	-1.0798739
137	0xbd66970a	-0.056296386
138	0x3e8a11cb	0.269667
139	0x3f72a1d4	0.9477818
140	0xbf91eb15	-1.1399866
141	0xbf2bbb44	-0.6708262
142	0xbf5f1641	-0.8714333
143	0x3dbbdee5	0.09173373
144	0xbf981330	-1.1880856
145	0xbfa9a478	-1.3253317
146	0xbf73c4fa	-0.9522244
147	0x3f779d9f	0.96724886
148	0xbe3d1677	-0.18465601
149	0xbf2f0dcc	-0.6838043
150	0x3f2ade7d	0.6674574
151	0x3fd35fc0	1.6513596
152	0xbf0b6c8f	-0.5446252
153	0x3f8ffe00	1.124939
154	0x3f9a151d	1.2037693
155	0xbd7b9de5	-0.061429877
156	0x3f02a854	0.510381
157	0xbffa4adb	-1.9554094
158	0x3f9175ee	1.1364114
159	0xbfa804e3	-1.3126491
160	0x3dbdf28a	0.09274776
161	0xbfe12d37	-1.7591923
162	0x3fa36e78	1.2768087
163	0xbe183080	-0.14862251
164	0x3e1d194a	0.15341678
165	0xbfb68c60	-1.4261589
166	0x3e140a0c	0.14456958
167	0xbf443392	-0.7664119
168	0x3dcf96c1	0.10136176
169	0x3f85e120	1.0459328
170	0x3f0aaf6c	0.5417392
171	0xbfea9add	-1.832851
172	0x3f3db9af	0.74111456
173	0x3f4ce98d	0.8004387
174	0xbf670b5c	-0.9025171
175	0xbf99b7a5	-1.2009169
176	0x3e8f0961	0.27936843
177	0x3e22ec1f	0.15910386
178	0x3f091d16	0.53560007
179	0xbfa8839a	-1.3165162
180	0x3fbbd0a1	1.4673043
181	0xbf3acbfc	-0.72967505
182	0x3fcdd591	1.60808
183	0x3f76cb41	0.9640389
184	0x3ea9f289	0.33192852
185	0xbfddbe3e	-1.7323682
186	0xbebdce52	-0.37071472
187	0xbf0e343c	-0.55548453
188	0x3feace2c	1.8344169
189	0x3ddd880e	0.10816966
190	0x3eaccdcf	0.3375077
191	0x3ebc62a5	0.3679401
192	0x3f80c4a5	1.0060011
193	0x3e05e6ee	0.13076374
194	0xbc7bd5a6	-0.015370762
195	0xbee60fbf	-0.44933888
196	0xbfb15047	-1.3852624
197	0xbf57294e	-0.840474
198	0x3f51b5fc	0.8191831
199	0xbfc35843	-1.526131
200	0xbfd6b986	-1.6775367
201	0xbfddf88a	-1.7341473
202	0x3fa8dbb0	1.3192043
203	0xbf9255ab	-1.1432394
204	0xbfa74f62	-1.3071101
205	0x3f2b9fbf	0.6704063
206	0xbf70a294	-0.93998075
207	0xc026de91	-2.6073344
208	0x3db8d742	0.09025432
209	0xbf8925e8	-1.0714693
210	0x3faaa9de	1.3333089
211	0xbeab1cd9	-0.33420447
212	0x3b15966b	0.0022825252
213	0xbeebd0e7	-0.46057817
214	0xbeaba69b	-0.33525547
215	0x3f761c93	0.9613735
216	0xbf7c2a27	-0.9850182
217	0xbf13c2e1	-0.57719237
218	0xbf12e0e7	-0.57374424
219	0x3ec1279e	0.37725538
220	0xbfc65c33	-1.5496887
221	0xbfa1250f	-1.2589434
222	0x3fb6c15c	1.4277759
223	0x3d6da07a	0.05801437
224	0x3e3ee2d6	0.18641219
225	0x3fa36b41	1.2767106
226	0xbdfdacdf	-0.12386488
227	0xbfa5e3d6	-1.2960155
228	0xbd38e58f	-0.0451408
229	0xbefd18a2	-0.49432856
230	0x3f12eba7	0.57390827
231	0xbefbe05a	-0.49194604
232	0x3eddf0c0	0.4334774
233	0x3f140c8f	0.5783166
234	0x3fa9a435	1.3253237
235	0xbfbf5e69	-1.4950687
236	0xbf4206c5	-0.7579158
237	0xbf6cbfa6	-0.9247993
238	0xbf6ecc0a	-0.9328009
239	0x3f31ad95	0.6940549
240	0xbfed0825	-1.851811
241	0xbdfd3ac5	-0.12364725
242	0x3f87212a	1.0556996
243	0x3fac4c61	1.3460809
244	0xbf6a68f7	-0.91566414
245	0x40006826	2.0063567
246	0xbf90d1e9	-1.131406
247	0xbe4b94be	-0.1988096
248	0xbf3c0625	-0.73446876
249	0x3df61e28	0.120174706
250	0x3ed3e16a	0.41382915
251	0x3f4c075b	0.79698724
252	0xbfcfcefb	-1.623504
253	0x3db577c7	0.08860736
254	0xbe9dc0ea	-0.30811244
255	0x3f14c97e	0.5811995
