models/checkpoint_actor_local_0.pth (torch_old, 80877 bytes, 6 tensors)

fc1.weight f4 [128, 24]
00000000: 5b29 263d 7212 993e 4b8e 02be e9f4 713e
00000010: 5ba2 debe 8107 99be 4d2a 7abe 771d 153e
00000020: e359 273e 7e91 ec3e d273 16bd 7825 273e
00000030: 19bd ccbe 9916 f0be 7ae3 38bd 01a6 233e
00000040: ea4d ad3d 4760 be3e 1259 21bc 447b 9c3d
00000050: 6df5 a4be 50f5 59bf 3121 84bc 9d7e 5b3e
00000060: 5883 0b3e 0337 033b 5d15 eebd 5e00 b8be
00000070: 05d6 973d beec e43e a41e 7dbd 78b1 cebe
00000080: 4899 c83e b4e0 823d 73e6 21be 6ae5 67bf
00000090: b859 873e 0b72 923e 06ca c9bd 9078 84bf
000000a0: e73b 913e bff1 c33d f34b 573d b700 55bf
000000b0: 17a3 5e3d 4dbc 443e c711 203c f5fe 55bf
000000c0: b8c4 1ebe 1f2a 433e 49f7 8abe ce70 59be
000000d0: e9d9 3f3d a87f a0be 8fbc e2be 817a 8dbe
000000e0: c91b 53bd 7da3 823e 77ad 1c3e 1c91 4cbe
000000f0: 2509 7b3e 6b32 cebe e3a3 143e 72d9 24be
00000100: 02be 3bbe 265e fcbc d0ea e53d f51d 06be
00000110: ab73 2c3e 719e 1bbe 1ac0 7d3e 0cff 6fbc
00000120: ade8 24be 2788 953e 0bc8 94bd 4dc1 333e
00000130: e552 5c3e a04a a13d 956e 8cbc 4339 253e
00000140: 0341 86be 91df 803e 07cc 53bd 4dfc e63d
00000150: 7642 453e 399c b03d c5ab e8bd 3424 413e
00000160: f323 32be fe22 9c3e 2f64 1c3d 0ab8 8e3e
00000170: 4588 88bc af89 123b 80d3 76bd ac08 923e
00000180: ad5c 193f 5266 313e 5792 25be 8f15 153e
00000190: b6c9 183e 0ded edbd bcc4 01be 75a4 533e
000001a0: 4617 1b3f aa1e 4c3e bb28 8cbe ea2b 4f3e
000001b0: 5995 813e f570 59be 5d72 39be 613c 973e
000001c0: 91ed 8d3e c113 0e3e 7b0d a8bc 01be c33e
000001d0: d0d7 acbe 45f1 2b3b 5098 f8bd bdb8 c53e
000001e0: 7779 a1be f3c0 8fbe 9a16 293d 5eba a63d
000001f0: aa6b b03e 80d4 c5be cb01 b63d c834 3f3d
00000200: 0347 82be 308b 58be 97ff db3d 6a6d bcbd
00000210: fd82 193f c1fa bfbe b7a2 933d 3759 363d
00000220: 7669 2ebd 64d7 e8bd 8228 033e 94c1 c0bc
00000230: bd9a 093f 4df4 99be 2f86 bf3d 2d7e 433d
00000240: b9ff f53d 9c72 3f3f d2be 07bc 9c58 8abd
00000250: e2bf be3e a406 d03d 8877 103d a7f0 b7bd
00000260: b04c 2bbe bd1c 863e e2f0 d03c 8201 87be
00000270: b2b1 ef3e cca9 2e3f 55d6 2c3d c431 9cbe
00000280: a7b7 1abe d946 4b3e 5b5e 0a3e f5b0 26be
00000290: f2ea cb3e 513a e03e ec9c 293e 882c 6fbe
000002a0: 5ff8 aa3e e99f 8b3e 1f5c 68bd 7c13 d2bd
000002b0: 69ba 91be 2252 c8be 187d 003b e43e 4ebe
000002c0: 300b 853e 423a df3d 7c72 bbbe 7251 4cbe
000002d0: 0226 52be 879f cfbe 6ae2 96be c25b 85be
000002e0: 9672 183e 24f8 773e 81ba 523e 0380 a73e
000002f0: 7b82 823d 560e 21bf 768c c73d 170d b93e
00000300: d04e e53d 720a f13d 1a41 20bd 8814 a03e
00000310: 07ce 5cbd 0eb5 abbe ca2d b7bd 2f62 453e
00000320: 85b3 883e 8460 883e f698 2e3c e200 9a3e
00000330: 750b 733e d6a9 05bf 569e 6bbc 3848 933e
00000340: 55db 373e 072a 783e 904b ffbd a45d d23d
00000350: 4dea 25bd b1c5 99be 4114 04be 7502 2d3e
00000360: defb 0f3e 62a4 d1bc 60a5 953e 992a bbbe
00000370: d829 10bd d041 903e e5d2 853e 7f3c d6be
00000380: f1cd 053e ba8a 8d3d c0f3 90be ba0a 003b
00000390: a196 963d d271 ca3e 5038 a2be f60b d6bd
000003a0: ed3f 873d 7420 58be c8b1 043f 664d 2cbd
000003b0: d492 1c3e 4462 fb3e 6b85 293f f7bf ec3c
000003c0: 77cd 33be 79e2 a7bd e617 e2be 3995 d8be
000003d0: 6cf6 e2bd 3d4c cebb 0638 c9be 0f17 02bf
000003e0: 7353 89bd 4a3e 3fbd e3d2 2fbd bc68 6cbd
000003f0: 2700 d13c daa1 78be 76f2 9dbc 0386 5abd
0.040566783 0.29896885 -0.12749593 0.23628582 -0.43483242 -0.29888538 -0.24430199 0.14562021
0.16342883 0.46204752 -0.03673155 0.16322887 -0.3998802 -0.4689224 -0.045138814 0.15981294
0.084621266 0.3718283 -0.009847896 0.076406986 -0.32218495 -0.8513994 -0.016129108 0.21435018
0.13624322 0.0020021803 -0.116251685 -0.3593778 0.07413868 0.4471187 -0.0617968 -0.40369773
0.39179444 0.06390515 -0.15810566 -0.90584433 0.26435637 0.28602633 -0.09852986 -1.0349293
0.28366014 0.09567594 0.052562665 -0.83204216 0.054354753 0.19212456 0.009769863 -0.8359216
-0.1550473 0.19059037 -0.2714179 -0.21234438 0.046838675 -0.31347394 -0.44284484 -0.27632526
-0.05154017 0.25515357 0.15300547 -0.1997723 0.24515207 -0.4027284 0.14515643 -0.16098574
-0.18334201 -0.030806612 0.112264276 -0.13097365 0.16840999 -0.1519716 0.24780312 -0.01464821
-0.16104384 0.29205438 -0.07264718 0.17554207 0.21515997 0.07875562 -0.017142573 0.16135125
-0.26221475 0.25170568 -0.051708248 0.11278591 0.19263634 0.08623547 -0.113608874 0.18861467
-0.17396526 0.30495447 0.03818148 0.27874786 -0.01666654 0.0022359898 -0.060260296 0.2852224
0.59907037 0.17324188 -0.16169105 0.14559005 0.14920697 -0.116174795 -0.12672704 0.20668204
0.6058239 0.19933572 -0.27374825 0.20231596 0.25309256 -0.21234496 -0.18110032 0.29538253
0.2772031 0.13874723 -0.02051424 0.382309 -0.33758402 0.0026236337 -0.12138426 0.38617507
-0.31537983 -0.28076896 0.04128132 0.081410155 0.3445714 -0.38638687 0.08887061 0.046681195
-0.25444803 -0.21146846 0.10742109 -0.092005566 0.599655 -0.37495998 0.0720877 0.044518676
-0.042581044 -0.113692075 0.12808421 -0.023529805 0.53751737 -0.300692 0.09351765 0.047727752
0.12011666 0.74784255 -0.008285241 -0.06755182 0.3725577 0.101575166 0.035270244 -0.08981448
-0.16728473 0.261938 0.025505487 -0.26368338 0.46815258 0.6822784 0.04219659 -0.30506718
-0.1510912 0.19851245 0.13512556 -0.16278441 0.39827687 0.43794492 0.16563767 -0.23356831
0.33392617 0.2727044 -0.05672848 -0.102576226 -0.28462532 -0.39125162 0.0019605812 -0.20141178
0.25985098 0.10899784 -0.36610782 -0.19952944 -0.20522311 -0.40551397 -0.29469615 -0.26046568
0.14887461 0.24215752 0.20578958 0.32714853 0.063725434 -0.629125 0.09743588 0.361428
0.11196673 0.117695704 -0.039124586 0.31265664 -0.05390742 -0.3353657 -0.089442804 0.19275735
0.26699463 0.26636136 0.010656586 0.300788 0.2373484 -0.52212274 -0.014381012 0.28766036
0.17954762 0.24234782 -0.12465584 0.10271767 -0.04050665 -0.3003364 -0.12898351 0.16895469
0.14060923 -0.02559108 0.29227734 -0.36555937 -0.035196155 0.2817521 0.26137462 -0.4184303
0.13066842 0.069112256 -0.28310966 0.0019537644 0.07352949 0.39539963 -0.31683588 -0.104515
0.0660399 -0.2110613 0.5183377 -0.042066 0.15290385 0.49098408 0.66219205 0.02890013
-0.17558847 -0.08197493 -0.44158858 -0.42301348 -0.110821575 -0.0062957094 -0.39300555 -0.50816435
-0.0670537 -0.046690263 -0.042925727 -0.05771707 0.025512768 -0.24280491 -0.019280653 -0.05335046

fc1.bias f4 [128]
00000000: 0ff5 293d 3d9e b7be c02d 65be cb78 3cbd
00000010: 91a4 81be eea9 503e 1a02 38bd 0af2 aabe
00000020: 23dd 63be 7aaa 223e 90b7 f7be 3b7b 78be
00000030: 4b5c 5d3e 0cc4 b1bc b7a1 51bb 8783 2c3c
00000040: b0fc debd 8bc3 d5be a7b0 eabe 1166 e53d
00000050: 9dcf 88be a062 05be 7e07 593d 62c8 75bd
00000060: 5dc3 b6be 88e7 2fbf b607 81be a42f a8bc
00000070: 41f6 89be 54aa ebbe 618c 4bbe 87a1 b3be
00000080: 8117 41be a55d ecbd f551 a53d b569 ffbd
00000090: 9eab 06bd a08d c7be f0c9 aebe 7bab 68be
000000a0: 9c92 56bc 1e81 9f3b 0d41 da3d e994 8dbe
000000b0: 9c48 f9bd 70b0 00be 1cb2 013c 8029 06be
000000c0: df32 8ebe 6fd3 6a3d 80f5 05bf a137 a63d
000000d0: 75c4 b9bd 10a2 a8be 8b00 6dbe 7e3d ad3d
000000e0: 9bfa 6ebd 3e08 b13d eaca 9b3d e2bf e7be
000000f0: 9018 eabd 1587 a33e 0096 323e 683f bfbd
00000100: 8e74 d43d 213f 3abd e89c b3bd b3fb c83d
00000110: 227c f53d 0150 f2bc cdaa 8b3e 0caa ec3a
00000120: 45fc 42be d357 11be a09b 5c3d 89c8 60be
00000130: 41d8 553e 0d7c 0fbf 1a73 7e3e dea5 153e
00000140: 0725 5fbe d8d7 a83d cb00 c1be 3a75 553d
00000150: 90f4 fb3d 3fb3 053e 8751 c8bb 45ac eabd
00000160: 3cb5 ffbe 8924 91be 2d97 09bb 17dc 24be
00000170: 5921 0ebf 79bb cabd 70a5 693e a1fc 1cbe
00000180: 43e9 78be dcd5 1abe 63d9 1fbe 8af6 02be
00000190: c7e3 18bd 80b6 04be 0861 77be 373b e23d
000001a0: db09 a1be 92b4 f53c 4a42 0f3e 44ca 993d
000001b0: 3a55 5cbe 3eda 4cbe 033f babd b7c2 98bd
000001c0: e079 0abd d387 f2be e825 a4bd 7fdc 1f3e
000001d0: 0e7b 4dbe 5c5a 18bf f607 99be dad3 3e3e
000001e0: b242 36b9 1b55 acbe 8b98 9fbe daf8 743e
000001f0: f60d adbe 339b e13d 30a6 a93e fa98 c43d
0.04149347 -0.35862914 -0.22380733 -0.046013635 -0.25320867 0.20377323 -0.04492388 -0.33387786
-0.22252326 0.15885344 -0.48382235 -0.24265759 0.21617238 -0.021699928 -0.0031987259 0.010529405
-0.1088804 -0.4175075 -0.458379 0.11201108 -0.26720896 -0.13025904 0.05298566 -0.060005553
-0.35695925 -0.68712664 -0.25201195 -0.02053053 -0.2694569 -0.46028388 -0.19877769 -0.35084173
-0.18856622 -0.11541299 0.08072273 -0.12471334 -0.03287851 -0.3897524 -0.3413844 -0.22721665
-0.013096478 0.004867687 0.10656939 -0.27652672 -0.12172052 -0.12567306 0.007916 -0.13101768
-0.27773187 0.057330545 -0.5232773 0.08116079 -0.09070674 -0.32936144 -0.23144738 0.08458994
-0.058344465 0.0864415 0.07607062 -0.45263582 -0.11430466 0.31938997 0.17440033 -0.09338266
0.103737935 -0.04547036 -0.08770162 0.09813633 0.11986567 -0.029579164 0.27278748 0.0018056049
-0.19041546 -0.14193659 0.053859353 -0.21951498 0.20883276 -0.5604866 0.24848595 0.14614055
-0.21791469 0.08244294 -0.37695917 0.05211375 0.12302506 0.13056658 -0.0061132344 -0.11458639
-0.49942958 -0.28348187 -0.0020994649 -0.16099583 -0.55519634 -0.09899039 0.22817016 -0.15330745
-0.24307732 -0.15120643 -0.1561027 -0.1278936 -0.0373266 -0.12960243 -0.24158108 0.110464506
-0.31452832 0.02999333 0.13990131 0.07509282 -0.21516886 -0.20005128 -0.0909405 -0.07459014
-0.033807635 -0.4736925 -0.080150425 0.15611456 -0.20066473 -0.5951288 -0.29888886 0.18635502
-0.00017381718 -0.3365868 -0.3117107 0.23923054 -0.33799714 0.1101593 0.33134604 0.095994905

fc2.weight f4 [128, 128]
00000000: 2aa9 17be 5b1c 5ebc f44c de3d 3fca 63bd
00000010: fac5 04be f9a7 6f3d 5784 f33d 8ca4 c53c
00000020: 07c8 423d 46a0 a23d b921 193d 0bd9 02bd
00000030: 3729 cd3d 0d06 b3bc 9f04 18bf ae1e 143d
00000040: ccd1 6fbd 44bc f9bc 3110 c5bd 0449 41bd
00000050: a55e 063d 0676 51be 2440 9bbd a930 003e
00000060: cef1 1cbe df18 5dbe 6041 0ebb 046a e93d
00000070: a104 f73d cedb 7cbd c747 e8bd 1ba4 323e
00000080: 6e9b 18bd b764 193c 5f03 0fbc 7a51 efbe
00000090: 5c3e 27be 1a59 f4bd b407 c13d 3cfa a3bd
000000a0: d3f5 983b 1175 5ebe bc2e 93bc 3631 5fbf
000000b0: f7a3 e63d ace9 4abd 9420 cebd c852 38bd
000000c0: cd90 b8bd 4bc0 04be fa36 4c3c 691a 16be
000000d0: cb63 24bf 2e37 35be e1fc 55bd 9097 813d
000000e0: b07f 6b3e b76e fbbe dc0a 5fbe eade b1be
000000f0: 3417 e9bd 4cde 8b3d 99b1 18be 63f9 5bbe
00000100: 15fa 2abe e257 c83d fd0e abbe 6e24 1dba
00000110: ce9d 03bc 1080 a9be fd59 4cbe d35f ef3d
00000120: fbf7 0dbd 1dcb f6bd 1ae1 2e3d a576 08bd
00000130: 49d7 0b3b c59b 9dbe 27ab 393d c961 c33c
00000140: e7a9 ea3d 3e29 22be 61a2 23be 821e 86be
00000150: 83ef 84be 65d0 41bd 94e6 943d b12f e83d
00000160: 55f2 1cbe e1e7 50bf a39a 8f3d 8ee8 653d
00000170: 6afd 393d 2922 d2bd d60e 96bd 3883 5e3d
00000180: 2b32 2ebe 51f7 d7bc 0ab3 76bd 176f d6be
00000190: f3e8 043e 679a eabe 9680 4bba 94ff 09bd
000001a0: c0c0 ae3d 175f d9bd d0a1 6bbf 157a 5bbe
000001b0: 92f0 e73d 44e5 bebe 5f78 1c3e 4ab5 4d3d
000001c0: de2c 07be 9345 a63c ee70 d9be 69a4 4fbe
000001d0: 1bc0 2f3e 5bc3 93bd 5cd7 6ebe a782 43bd
000001e0: 7fdf ecbd a733 90bf af92 c5bd 2380 1a3e
000001f0: 05a8 77be 47d4 e0bd e422 6f3e f574 83bd
00000200: 033d 9ebe 5ada a63e 52ce 3cbe 3f31 8ebf
00000210: 7aad 6bbd 1705 1ebf ea42 dfbd 18ab 3fbe
00000220: 697e 06bd e71d e6bd 55ae 9c3d db65 583e
00000230: 347a 97be 8a1c 79bf b18c f33e a6bc 103e
00000240: aebc a2be 6d48 2c3e 6b99 f5be 3bea 80be
00000250: e47f 42be 38c0 013f 9c8e a3be d25a 44bd
00000260: c4e3 ac3d 48e6 febd 74d9 0cbe 62ca ee3c
00000270: 26e4 b63e 8039 63be 5660 063e 0278 d63d
00000280: e0ac 86bd d761 fcbc 1491 a2be f51e 5ebd
00000290: e3ec 8dbe 5803 2c3c e1b0 8c3e 8905 a63e
000002a0: ede4 98be 4e45 873d e473 433e 5c51 96be
000002b0: 77c3 07be 5dc1 3ebc 82c2 e6be bd55 b5be
000002c0: 590f 28bd c02c eebe c86e 12bf b03d 243e
000002d0: df2e 113f 2f8a ecbe d972 24be 6011 873e
000002e0: 575f 95be 4900 683e b8b8 d5be bc2c ab3e
000002f0: 65e7 06bf 4f23 a0be eb8a 1a3e f155 67be
00000300: 1d50 043c d076 023e 4f2b cabb 86f8 95be
00000310: 1dae 3abe e8a8 633e 9fde acbe 9727 f43e
00000320: 1104 e63c 4f39 ecbc 5dd1 e5bc 5aa8 8f3e
00000330: 186e 39bf 384d 573d 8398 0b3d b558 753e
00000340: 18b9 a4be 6e48 c8be 97ca 943e 3097 acbc
00000350: 53eb 20be 8db8 613e a03d d03d 99b8 a23d
00000360: 261e f43e 7d49 173d d9dc 523e dffe 97bd
00000370: c801 0fbd 35c9 fc3d 039a 97be 727c c4be
00000380: 8002 3b3f 0d39 b8be c4b9 74bd 123b 1ebd
00000390: 9b6f 47be c4b8 90be 4efc a93d 1bd3 e63b
000003a0: 9184 e33d 8442 683e 9822 56bc 7a4d e7bd
000003b0: 0b55 fcbd 52cf f0be c0b7 3abf 1bfd 263f
000003c0: 1487 cfbe 1c20 95bd 9263 03bd c3c0 1b3d
000003d0: 2ada 8f3d 36e7 54be b91f 413e 99d9 373e
000003e0: f3d8 8abe 9f62 d43d f786 59bd a2d4 2fbe
000003f0: e033 673e d504 423e 90ce d33d 77e0 08be
-0.14810625 -0.013556565 0.108545214 -0.0556128 -0.12966147 0.0585098 0.11890476 0.024126314
0.047554042 0.07940726 0.037385676 -0.03194527 0.10017627 -0.021853471 -0.5938205 0.03616207
-0.058549687 -0.03048528 -0.09622229 -0.047188774 0.032805104 -0.20455179 -0.07580593 0.12518562
-0.15326616 -0.21591519 -0.0021706447 0.11397174 0.1206143 -0.06173306 -0.113418154 0.17445414
-0.037257604 0.009362391 -0.008728831 -0.4674185 -0.16332382 -0.11931057 0.094252974 -0.08006713
0.0046679764 -0.21724345 -0.01796662 -0.87184465 0.112617426 -0.049539253 -0.100648075 -0.04500082
-0.090119936 -0.12963979 0.012464279 -0.14658512 -0.6421477 -0.1769683 -0.052243117 0.063277364
0.22997928 -0.49107906 -0.21781486 -0.34740382 -0.11381379 0.06829509 -0.14911498 -0.21481852
-0.16696961 0.09782387 -0.33409873 -0.0005994503 -0.008033229 -0.33105516 -0.19956203 0.11688199
-0.03466032 -0.120504595 0.042695142 -0.033316273 0.0021338037 -0.30782905 0.04532924 0.023850339
0.114581876 -0.15836045 -0.15979911 -0.2619515 -0.25963983 -0.04731788 0.07270542 0.113372214
-0.15326817 -0.8160382 0.070119165 0.056129985 0.04540769 -0.10260422 -0.073270485 0.05432436
-0.17011325 -0.026363047 -0.06022934 -0.4188163 0.12979488 -0.45820925 -0.0007762996 -0.033691004
0.08532858 -0.1061384 -0.9204378 -0.2143329 0.11325182 -0.3728429 0.15280293 0.05022172
-0.13200709 0.020296847 -0.4246897 -0.20277561 0.17163126 -0.072149955 -0.2332434 -0.04773202
-0.11566066 -1.1265763 -0.09647118 0.15087943 -0.24185188 -0.10977989 0.23353153 -0.06418792
-0.30905923 0.32588464 -0.1843808 -1.1108779 -0.057538487 -0.61726516 -0.10901435 -0.18717611
-0.032835398 -0.11236172 0.07650439 0.21132605 -0.2958542 -0.9730917 0.47568277 0.14134464
-0.31784576 0.16824503 -0.4796861 -0.25178704 -0.18994099 0.5068393 -0.3194474 -0.047938175
0.0844188 -0.124462664 -0.13754827 0.029149238 0.35720938 -0.22189903 0.13122687 0.104721084
-0.06575942 -0.030808372 -0.3175131 -0.05422874 -0.27719793 0.010498844 0.27478698 0.32426098
-0.29862157 0.06605016 0.19087178 -0.29358947 -0.13258158 -0.011642781 -0.45070273 -0.35416976
-0.04103026 -0.46518517 -0.5720029 0.16039157 0.56712145 -0.46199176 -0.16059436 0.26380444
-0.291743 0.22656359 -0.41742492 0.33432567 -0.5269683 -0.31276938 0.15092055 -0.22591378
0.008075741 0.12740636 -0.0061697136 -0.2929117 -0.18230481 0.22232401 -0.33763596 0.47686455
0.02807811 -0.02883592 -0.028053934 0.2805813 -0.72433615 0.052563876 0.034080993 0.2395962
-0.32172465 -0.3911776 0.29060814 -0.021068186 -0.15714769 0.22043057 0.10168004 0.079453655
0.4767925 0.03693532 0.20592059 -0.0742166 -0.034913808 0.12343065 -0.2960969 -0.38376194
0.7305069 -0.35981026 -0.059747472 -0.038630553 -0.19476168 -0.28265965 0.083000764 0.0070442087
0.111092694 0.22681624 -0.013069771 -0.11294074 -0.12320908 -0.47033173 -0.7293663 0.6522996
-0.40532744 -0.07281515 -0.03207738 0.03802563 0.07024033 -0.20791325 0.18859757 0.179541
-0.27118644 0.10370373 -0.053107228 -0.17170957 0.22578382 0.18947156 0.10342133 -0.13366877

fc2.bias f4 [128]
00000000: 04a7 5a3d 4e30 c1be 4700 afbe b26a 5c3e
00000010: f77f 03bf 3e50 34be 0f1c 89bd 4d30 1bbd
00000020: 9f3c 95bd 179d d4bd 1b6a 8d3c 3387 b5be
00000030: 6e95 1abe d210 92bd 7eb5 0bbe 0186 c6bd
00000040: e2bc 853c 9768 2cbe e53f d93c 4cc5 f73c
00000050: 86a2 d1bd 34ce 0cbb 9960 39bd abca ffbb
00000060: 79d4 2dbe 3aea afbe aa98 e6bd db47 36be
00000070: 74da 3d3d 323f ccbd 321c 433d e2a1 b9be
00000080: 67e3 a9be 40b5 0bbe 08e1 113e 6fa3 d2be
00000090: 7500 05bd 2cf3 85be 3d79 19be b58c 59be
000000a0: d55e aebe f3be 643c 4a32 2fbe 9e5d 39be
000000b0: d08a c7bd 87b3 47be 109f 96be 2eab af3d
000000c0: 1475 e5bc c31d 3a3c 9b56 1ebc e4e0 8a3e
000000d0: cc6d 92be bb79 8dbe 09e4 273d e9ba 90bd
000000e0: c366 1fbe 3481 5cbd c846 3c3e dd45 c7bd
000000f0: 91d5 00bf bdf9 b8be 9ce2 bcbe 5ced 0cbe
00000100: 6f9c 1bbe 8938 cfbd 3bb4 7cbd 9d7b 22be
00000110: 81c9 0dbe b24e 01bf 5f11 e23d ab02 44be
00000120: 9cfd acbd a7eb 9bbe 04b4 153e ca90 b2bc
00000130: 1a36 a1be f9fa 6fbe d1f0 59be 2aef dbbe
00000140: 283b b23c 361d 7ebe 8700 17be 4b72 c23d
00000150: fe5c 683d 810e 83be a563 adbe 0e48 23be
00000160: 83b8 d3be fc26 723c 3808 b5be 0679 f63b
00000170: db8c 203d 9b6f b63d 5486 44be f01a fdbe
00000180: 24fe e5be 86ed 67bb 9685 1f3e cd58 203e
00000190: 4a84 d8be 332c 30be 1b12 d4bd 1a1c 3ebd
000001a0: 6512 cabe 3311 e23c 3426 00be 991c 17bf
000001b0: dab6 b93c cb3c 03be 451e 8dbe 7d04 bbbd
000001c0: 1faf 19be 4b2e 6abe 4d3b 5fbe f852 2abe
000001d0: a170 0dbd d680 0c3e 6660 27be 3a04 9fbe
000001e0: be52 81be 7c70 0fbe 06d0 ffbd ee48 9cbe
000001f0: efb4 10be 3c03 4cbd 8153 51be 047d 53be
0.053381935 -0.37732166 -0.341799 0.21525076 -0.51367134 -0.17608735 -0.06694805 -0.03788786
-0.07286953 -0.10381525 0.01726251 -0.3545471 -0.15096065 -0.071321145 -0.13643453 -0.09693528
0.016325418 -0.16836773 0.026519725 0.030245446 -0.10236077 -0.0021485211 -0.04525814 -0.0078061423
-0.16975583 -0.34358388 -0.11259587 -0.17800848 0.04635091 -0.09972991 0.04763431 -0.3625632
-0.33181307 -0.1364336 0.14245999 -0.41140315 -0.03247114 -0.26162088 -0.14987655 -0.21245082
-0.34056726 0.0139615415 -0.17109028 -0.18102118 -0.09743273 -0.19502078 -0.2941823 0.08577572
-0.028009929 0.011359635 -0.009664203 0.27124703 -0.28599393 -0.27631935 0.040988956 -0.070669
-0.15566544 -0.053834155 0.18386376 -0.09730122 -0.50325876 -0.36128035 -0.3689164 -0.1376242
-0.15196393 -0.10118205 -0.06169532 -0.15867467 -0.13846399 -0.50510705 0.110384695 -0.19141643
-0.0844681 -0.30453226 0.14619452 -0.021797556 -0.3148659 -0.23435582 -0.2128327 -0.42955905
0.021756724 -0.2481583 -0.14746295 0.09494456 0.05672931 -0.25597003 -0.33865085 -0.15945455
-0.4135171 0.014779802 -0.35357833 0.0075217513 0.03919683 0.08908006 -0.19191867 -0.49434614
-0.44920456 -0.0035389378 0.15578303 0.15658875 -0.4228843 -0.1720436 -0.10355016 -0.04641352
-0.3946716 0.027596092 -0.12514573 -0.5902801 0.022670198 -0.1281616 -0.27562156 -0.091317154
-0.1500821 -0.22869222 -0.21799965 -0.16633213 -0.03453124 0.13721022 -0.16345367 -0.31057912
-0.2525844 -0.14007753 -0.12490849 -0.3052439 -0.1413152 -0.049807772 -0.2044201 -0.20653158

fc3.weight f4 [2, 128]
00000000: 9ce5 8a3d 0ae6 b7be d069 ba3d 9082 8fbe
00000010: fc03 f43c 82f9 893d 1a80 ecbc e8de 60be
00000020: 6b63 62be eb67 cfbc ec03 d1bd 7bd8 263e
00000030: 4436 343e 377b 07be e7cf a4be a667 c7bd
00000040: 29ae 91be 6db8 9e3e ef48 103e 5e92 a0bb
00000050: 47bd bb3e d9d6 d03d 5a79 df3d 799a 79be
00000060: 88dc 73bd 1ccf 05be dea0 1b3e 07bc 013e
00000070: 70df 8a3e d13e e5bd 1b36 b63b 4356 5ebd
00000080: 95be 61be 9969 e6bd 5c89 833e 1979 633b
00000090: a221 2c3e 59ff 703e f629 7e3b bbd0 793e
000000a0: e725 1cbe d0e0 78bd c7de 89bd 9c51 9abd
000000b0: da83 32bc 3b9d 18be 5cea 4d3e dc22 63bd
000000c0: 5663 27be e3d0 5e3e 5f14 2f3d acec 1d3e
000000d0: e47e 833d 4718 6abe c0c3 f53d 6943 0dbe
000000e0: c8d6 0a3e 85f4 093e 9b99 4dbc cb2d a0be
000000f0: 9326 6fbd abbd d83e 4872 02be a00b 7b3e
00000100: 5900 68be 70f2 eeba 3a15 5f3e 54a3 8a3c
00000110: cfde a9bd 87e8 783e 669a a93d 73cf 343d
00000120: 1dd5 1a3e dee8 253e a4af f2bc 6a70 733e
00000130: ba55 e3bd 4081 803e 0d18 003e fa6d 60bd
00000140: aaf1 62bd 9774 3cbe aaf1 79be ae75 99be
00000150: f05a 013d bf44 5cbe 9c21 653d ae7e c1bb
00000160: a8e8 c0bc 1194 a43c 0bc4 95bd 4b0a 333e
00000170: 74a4 8abe 4064 8dbe 522a 18be 1bda 293d
00000180: b665 9a3e a721 5f3e 14ae 63bd ab83 633e
00000190: 5c6e 18be 3744 5c3c 3b3c 003e 1228 ff3d
000001a0: 8f75 943d 4742 e23c e41c b33d 63ef 63be
000001b0: 4fae 553e dda5 733d 4e60 24bd 6813 1fbc
000001c0: ae36 953e 533a 6fbe aa43 21bd 7692 64bd
000001d0: a015 5cbe 13f0 3f3c b89e 973d 73ae 99be
000001e0: b7bb d73d 3aca 71be aa1b b53d 5a05 04be
000001f0: 3f26 66bb 94b9 0dbd f8a0 f03d 788b 8fbe
00000200: 357c 973d f728 923d 4e7f c33e d8aa 9cbd
00000210: 4118 0dbe bf56 103e 7502 da3d e45f d83d
00000220: 719b 00be 8734 cb3d 6808 4cbe df45 003e
00000230: 8c8f f13d 64a1 a63d 23ac 0dbd 575e 08bc
00000240: 1e62 c1be 2168 b5bb 7ede 873e bb4c fcbd
00000250: 28a9 5b3e 378c 53bd 10ce 6c3e c13f 95be
00000260: aff7 eebd 668d e2bd 94fe 5d3e 8a1f c83d
00000270: 2e93 ca3e 5818 3dbe 6894 5f3d 9c7f c43c
00000280: d56b 43bd 1c7a 53be 2c25 263e fadd 3cbe
00000290: ebdc 873e cb31 993d 55bd 273e 94c2 6cbd
000002a0: b6e1 b8bd a666 c6bc 0dc2 87be 15dc bbbd
000002b0: b384 6e3e 2147 87be 8493 2e3e 777e 433b
000002c0: 16e7 c0bd ef50 213e d17f aebe 90e5 b93e
000002d0: 85f7 4dbe 5bee d1bc 8888 7e3e b50f c33d
000002e0: 02b9 2e3d b29e 54bd 064f 313e 3d66 e3bc
000002f0: 3a8c 593e 370d 6b3e 4cff b53d e031 013e
00000300: 4ad0 5c3b 2c13 ed3d 672e 743e 1e97 933d
00000310: 914e 83be 1846 8bbe 31d2 ee3d db62 8abe
00000320: 9c8e 4fbd eafc 14be b7b1 a53d a2cf 6a3e
00000330: d87f 2abe 9d39 1d3e 0fdf 00be 3738 86bb
00000340: 04b7 65be f119 37be 3588 45bd c34b 3dbd
00000350: 17fe 803d daa5 333d 7f46 623e b03a 6bbe
00000360: cadb 9abe 941b e23c 6e3b 24bd 4eec ef3d
00000370: 58dc 853d 91aa 43bd 9151 52be cff3 75be
00000380: c46b 1f3f d4e7 373e 0fc6 25be c4a0 8d3e
00000390: 0846 85be e674 3ebe 3fd8 e43d 492b 6c3e
000003a0: 1175 88be 28a8 933d 1313 fa3d 4ccf 9fbe
000003b0: 82a0 373e 77e6 7a3d 621d eabc 53a4 0cbe
000003c0: 5272 043d f1c5 11bc a8c9 8cbe d919 0b3e
000003d0: e5b0 bcbe 3059 85be 686d 873e 9106 88be
000003e0: b9f1 6cbe 7fc7 043d 112c 863e 740c f53c
000003f0: c7d4 60be c815 c13c bcd3 36bd 2041 97bd
0.06782076 -0.35917693 0.091022134 -0.280293 0.029787056 0.06737043 -0.028869677 -0.21960032
-0.22108237 -0.025318107 -0.10205826 0.16293518 0.17598826 -0.13230596 -0.32189867 -0.09736566
-0.28453186 0.3100008 0.14090322 -0.004900261 0.36667845 0.10197229 0.10911818 -0.24375333
-0.059536487 -0.13067287 0.15198085 0.12669383 0.27123594 -0.11193622 0.005560649 -0.054281484
-0.22045358 -0.1125061 0.25690734 0.003470963 0.16809705 0.23534907 0.0038782335 0.2439603
-0.15248834 -0.060761273 -0.067319445 -0.07535097 -0.010895694 -0.14903729 0.20108932 -0.055453166
-0.16346487 0.21759371 0.042744037 0.15422314 0.06420687 -0.22860824 0.12000227 -0.13795246
0.13558495 0.13472183 -0.012548829 -0.31284937 -0.058386397 0.42332205 -0.12738907 0.24516153
-0.22656383 -0.0018230211 0.21785441 0.016923584 -0.082944505 0.24307452 0.08281402 0.04414315
0.15120359 0.16202113 -0.029624768 0.23773351 -0.111003354 0.2509861 0.12509175 -0.05479238
-0.05540625 -0.1840385 -0.24408594 -0.29972595 0.031580865 -0.215106 0.055940256 -0.005904994
-0.02354844 0.020090135 -0.07312783 0.17484395 -0.27078593 -0.27615547 -0.14859894 0.041467767
0.30155724 0.21790181 -0.055585936 0.22218196 -0.14885849 0.013443998 0.12522976 0.12458815
0.07248985 0.027619494 0.08745745 -0.22259288 0.20867275 0.05948435 -0.040130906 -0.009709217
0.2914328 -0.23362093 -0.03937117 -0.05580374 -0.21492624 0.011714953 0.0740332 -0.30015907
0.10533851 -0.236123 0.08843167 -0.12892666 -0.0035118011 -0.03460081 0.11749452 -0.28036094
0.073967375 0.0713672 0.38183063 -0.07649773 -0.13778783 0.14095591 0.10645 0.10565165
-0.12559296 0.09922128 -0.19925082 0.12526654 0.117949575 0.081362516 -0.03458799 -0.008323274
-0.3777017 -0.005536095 0.26536936 -0.12319323 0.21451247 -0.05164739 0.23125482 -0.29150203
-0.11668336 -0.11062126 0.21679145 0.097716406 0.39565414 -0.18466318 0.05458489 0.02398663
-0.04771026 -0.2065205 0.16225117 -0.18444052 0.26535735 0.074802004 0.16380818 -0.05780275
-0.09027426 -0.024218868 -0.26515236 -0.09172837 0.23292808 -0.26421455 0.1704846 0.0029830018
-0.09419076 0.1575353 -0.3408189 0.36307955 -0.20113952 -0.025626352 0.2485677 0.0952448
0.042656906 -0.051909156 0.17315301 -0.027758712 0.21244898 0.2295426 0.08886585 0.12616682
0.0033693486 0.11575922 0.23845826 0.07206558 -0.2564588 -0.27201915 0.116611846 -0.27028546
-0.050673112 -0.14549604 0.08090537 0.22930768 -0.16650331 0.15354009 -0.1258509 -0.004096057
-0.22433096 -0.1788099 -0.0482256 -0.04621483 0.06298464 0.04385934 0.22097205 -0.22971606
-0.3024581 0.02760104 -0.04009574 0.117149934 0.06536168 -0.047770087 -0.20538928 -0.24018787
0.6227381 0.17959529 -0.16188835 0.27661717 -0.26029992 -0.1859928 0.11174058 0.23063387
-0.26651815 0.07209808 0.12210669 -0.31212842 0.17932323 0.061254945 -0.028578464 -0.1373456
0.032335587 -0.008897291 -0.27497602 0.13584079 -0.3685371 -0.26044607 0.26450658 -0.2656751
-0.23139085 0.032416817 0.26205495 0.029913165 -0.21956168 0.023569956 -0.04463552 -0.073854685

fc3.bias f4 [2]
00000000: 52cc cebb d6f9 0fbe
-0.006310978 -0.14060149
