models/checkpoint_critic_local_1.pth (torch_old, 94696 bytes, 5 tensors)

fc1.weight f4 [128, 48]
0.69391286 -0.14512388 -0.03274171 -0.5112284 -0.3717471 -1.2150795 0.0524062 -0.43206432
0.30757105 -0.5658605 -0.098078534 -0.5613336 0.18361838 -0.29639947 -0.11172272 -0.5817448
0.31853825 -0.6203096 0.52657104 -0.6739513 0.36607125 -0.48224142 0.48109668 -0.6422972
0.7512448 -0.021867985 0.22172558 0.9217068 0.25778776 -1.1163623 0.26822618 0.8234595
0.57335454 -0.32552624 0.25352642 -0.13657324 -0.3023172 -0.31241167 0.23871043 -0.14142612
0.6024137 -0.15128212 0.12203341 1.1146587 -0.25658712 -0.3809676 0.10799199 1.1477543
0.444605 -1.2661291 -0.17355902 -1.0166228 0.15719135 -0.14444594 -0.11678851 -1.0303851
0.572299 -0.82892215 -0.116092846 0.08951908 -0.26508594 -0.15672629 0.0017022106 0.11043733
0.6888983 -0.63694495 -0.16205786 0.30406544 0.012890986 0.093746535 -0.12666155 0.33294013
0.57132626 -0.15709293 -0.25399536 0.4542933 -0.07707773 -0.17715229 -0.18422344 0.30784163
0.76868623 0.49256748 0.13729069 -0.606155 0.19117443 -0.1139706 0.12348424 -0.5930266
0.45397827 0.5381942 0.19218513 -0.4032699 -0.01814335 0.22613169 0.09204317 -0.38816464
0.19903114 0.34576923 0.20588614 0.5067188 -0.17942572 0.011362726 0.14892657 0.5081287
0.21736532 0.50841624 -0.21653879 0.285867 0.13586023 0.07953404 -0.19621769 0.28338698
0.48041803 0.050047204 0.039195724 -0.08408823 0.069868 0.38274005 0.039170884 -0.03179581
0.6476082 0.9087912 0.37029076 0.15269195 0.22555648 0.14804024 0.35512066 0.19884814
0.7916078 0.7025004 0.16632602 0.64777553 -0.20017278 -0.008774917 0.12576818 0.71020913
0.33720434 -0.017528249 0.009138317 -0.5011466 -0.03151069 0.4551327 0.09902702 -0.4570277
0.5544089 0.55244434 0.06233949 -0.29188412 -0.043345463 -0.024471493 0.026350334 -0.2578871
0.5356218 0.92041457 -0.25172403 0.44481176 0.28529188 -0.014268066 -0.28367016 0.43821788
0.59067255 0.65547293 -0.09018087 1.0982264 0.5711685 0.0045021484 -0.008049628 1.0528797
0.33234665 0.42767948 -0.07934047 -0.359474 -0.076915726 0.053679448 0.04725507 -0.24806455
0.66814685 0.42249662 -0.20783079 0.32147637 -0.2527364 -0.024547724 -0.17155337 0.22233638
0.31687108 0.479264 0.07171375 0.31485993 -0.55069 0.15450539 0.10957528 0.2769736
0.07290722 0.6711088 -0.017650515 0.208731 -0.38932398 0.55104595 -0.078220494 0.23005685
0.5915245 0.7074582 -0.25997585 0.30605128 -0.25935683 0.47692552 -0.16602279 0.24097478
0.72731096 0.6479644 -0.17928882 0.4269203 0.07836473 0.27730745 -0.063144356 0.4196093
-0.4233713 1.0682694 0.22346619 -0.545095 0.38732123 0.6486712 0.10767583 -0.6001032
-0.17022033 0.91710323 0.17924535 -0.47375804 0.14245544 0.4997285 0.035001148 -0.46354002
-0.57555324 0.3929482 0.03498169 -0.1634074 -0.13999762 0.21904753 0.07685337 -0.11363508
0.32015166 0.030886251 -0.2872232 -0.06419022 0.028865432 -0.42848805 -0.21771969 0.024381055
0.022114035 -0.2544202 -0.40663832 -0.050928645 0.18467365 -0.2717221 -0.44600376 -0.08001373
00000000: 46a4 313f 5b9b 14be 2c1c 06bd dddf 02bf
00000010: a355 bebe ba87 9bbf e2a7 563d 8937 ddbe
00000020: f479 9d3e 3cdc 10bf 66dd c8bd 8fb3 0fbf
00000030: 7506 3c3e acc1 97be e2ce e4bd 3aed 14bf
00000040: 7217 a33e 9ccc 1ebf 5ccd 063f 1388 2cbf
00000050: b16d bb3e 59e8 f6be 4e52 f63e 976d 24bf
00000060: 9451 403f 7d24 b3bc 080c 633e faf4 6b3f
00000070: c2fc 833e f6e4 8ebf f154 893e 3ece 523f
00000080: 5dc7 123f 60ab a6be 37ce 813e dbd9 0bbe
00000090: 52c9 9abe 6cf4 9fbe 8270 743e 02d2 10be
000000a0: c937 1a3f b3e9 1abe a7ec f93d 23ad 8e3f
000000b0: 635f 83be 2f0e c3be e82a dd3d 9de9 923f
000000c0: 44a3 e33e 8510 a2bf 75b9 31be b220 82bf
000000d0: c5f6 203e a3e9 13be d02e efbd a9e3 83bf
000000e0: 3082 123f 3e34 54bf 16c2 edbd c855 b73d
000000f0: 58b9 87be db7c 20be b61c df3a f82c e23d
00000100: a45b 303f d30e 23bf 7ff2 25be 77ae 9b3e
00000110: b734 533c 2ffe bf3d 91b3 01be 2177 aa3e
00000120: 7042 123f f8dc 20be ae0b 82be 2299 e83e
00000130: eeda 9dbd 6967 35be 12a5 3cbe 6b9d 9d3e
00000140: 9fc8 443f ce31 fc3e ee95 0c3e f92c 1bbf
00000150: 3bc3 433e 6b69 e9bd 4ee5 fc3d 97d0 17bf
00000160: d76f e83e 18c7 093f 2ecc 443e 6479 cebe
00000170: 5da1 94bc 118f 673e 2181 bc3d 84bd c6be
00000180: d2ce 4b3e aa08 b13e d1d3 523e 53b8 013f
00000190: 60bb 37be ba2a 3a3c 3580 183e b914 023f
000001a0: 0495 5e3e 9127 023f 58bc 5dbe 295d 923e
000001b0: f21e 0b3e bee2 a23d 4aed 48be 1918 913e
000001c0: 5af9 f53e 4cfe 4c3d b28b 203d 7336 acbd
000001d0: f416 8f3d 81f6 c33e a671 203d 533c 02bd
000001e0: a7c9 253f 8aa6 683f c096 bd3e 475b 1c3e
000001f0: 47f8 663e dc97 173e 60d2 b53e d99e 4b3e
00000200: cfa6 4a3f 11d7 333f 5e51 2a3e 9ed4 253f
00000210: 18fa 4cbe abc4 0fbc 60c9 003e 44d0 353f
00000220: 0ca6 ac3e 6797 8fbc e1b8 153c 254b 00bf
00000230: 5a11 01bd 2707 e93e aece ca3d 89ff e9be
00000240: beed 0d3f fe6c 0d3f b157 7f3d d671 95be
00000250: 038b 31bd 7178 c8bc a8dc d73c c709 84be
00000260: 831e 093f 4aa0 6b3f f9e1 80be 5ebe e33e
00000270: c711 923e 9bc4 69bc 373d 91be 185e e03e
00000280: 5136 173f 13cd 273f bfb0 b8bd af92 8c3f
00000290: 1938 123f c286 933b 96e2 03bc c3c4 863f
000002a0: 5729 aa3e cef8 da3e 427d a2bd fa0c b8be
000002b0: fe85 9dbd fbde 5b3d 888e 413d a204 7ebe
000002c0: ac0b 2b3f 7a51 d83e 98d1 54be 8d98 a43e
000002d0: aa66 81be 4f18 c9bc b0ab 2fbe 26ac 633e
000002e0: ed3c a23e 1762 f53e a9de 923d 5235 a13e
000002f0: 05fa 0cbf a936 1e3e 0169 e03d 7ccf 8d3e
00000300: 6150 953d c9cd 2b3f d097 90bc 94bd 553e
00000310: 7955 c7be 5911 0d3f 1132 a0bd 0694 6b3e
00000320: 266e 173f fb1b 353f 8e1b 85be c1b2 9c3e
00000330: 6bca 84be 952f f43e e101 2abe 18c2 763e
00000340: 0d31 3a3f ffe0 253f 7d97 37be 4c95 da3e
00000350: b07d a03d 3efb 8d3e d451 81bd 08d7 d63e
00000360: 1fc4 d8be 0dbd 883f 52d4 643e 598b 0bbf
00000370: f84e c63e 510f 263f 2585 dc3d 5da0 19bf
00000380: 3d4e 2ebe 47c7 6a3f 188c 373e 6a90 f2be
00000390: d7df 113e 6adc ff3e 5d5d 0f3d 1e55 edbe
000003a0: 7557 13bf 8230 c93e f648 0f3d 4554 27be
000003b0: 895b 0fbe ff4d 603e 4d65 9d3d 82b9 e8bd
000003c0: ebea a33e 2a05 fd3c eb0e 93be 2976 83bd
000003d0: 3377 ec3c c962 dbbe e9f1 5ebe c7ba c73c
000003e0: 7e28 b53c 5d43 82be e632 d0be 8e9a 50bd
000003f0: 171b 3d3e 291f 8bbe 9b5a e4be 3dde a3bd

fc1.bias f4 [128]
0.00411053 -0.26223573 -0.03746396 -0.10749254 -0.17795932 0.097419076 0.27578452 0.08480243
-0.2778572 -0.1700101 -0.12734167 -0.011264437 -0.27764162 -0.46096063 -0.05006296 -0.12390689
-0.20171906 -1.5559242 -0.30219883 -0.21573573 0.3247611 -0.38230708 0.006187057 -0.37404242
0.15778473 0.1442871 -0.6995552 -0.48617837 -0.96475565 -0.07648735 -0.12215053 0.14532837
0.21308336 -0.14156306 -0.7603351 -0.13688505 -0.22135495 0.34372628 -0.03346665 -0.06904222
-0.0001567026 0.18698059 -0.07492829 -0.23237589 -0.13967621 -0.5855804 0.18395449 -1.4910343
-0.54687 0.05053193 -0.44879907 -0.6250832 -0.43072936 -0.3278285 0.0675384 -0.6639466
-0.71182466 0.29582912 -0.89789265 -0.32855836 -0.50585765 0.40882605 0.07069043 -0.271357
-0.06308376 -0.22381753 -0.23270428 -0.7060457 -1.1701361 0.11008725 0.02369862 -0.09203464
-0.43187228 -0.60261536 -0.49607614 0.20511721 -0.45896262 -0.25319993 0.020266794 0.12944373
-0.036825664 -0.41650513 -0.7672513 -0.106393196 -0.021714495 -0.062528625 -0.07454949 -1.2244743
-0.7899439 -1.2341535 -0.1822516 0.04607443 -0.7706712 -0.87080735 -0.058524508 0.15476279
0.16137557 -0.4331321 0.33337724 0.18611778 -0.13112898 0.5027516 -0.112707846 0.3215466
-1.5240669 -0.21232024 0.07787271 -0.75242984 -0.0120407175 -0.03123962 0.12848857 -0.2531478
-0.03991533 -0.40146807 -0.119004145 0.07450405 -0.05278167 0.18244891 -0.23909622 0.14917938
-0.079121396 0.21551351 -0.26810357 0.1371029 -0.35026482 -0.27825516 -0.21517907 -0.45100957
00000000: a0b1 863b c343 86be cf73 19bd 0c25 dcbd
00000010: f83a 36be a783 c73d a133 8d3e e5ac ad3d
00000020: 4d43 8ebe 2117 2ebe db65 02be 798e 38bc
00000030: 0b27 8ebe 0803 ecbe d10e 4dbd e5c2 fdbd
00000040: 718f 4ebe 8628 c7bf ceb9 9abe d4e9 5cbe
00000050: 1647 a63e c1bd c3be ccbc ca3b 7d82 bfbe
00000060: 5292 213e ffbf 133e 0d16 33bf 5fec f8be
00000070: 3afa 76bf 66a5 9cbd 0f2a fabd f6d0 143e
00000080: 8632 5a3e e8f5 10be 52a5 42bf 982b 0cbe
00000090: dfaa 62be e4fc af3e 5314 09bd 0266 8dbd
000000a0: 8950 24b9 d777 3f3e 0174 99bd f2f3 6dbe
000000b0: 4807 0fbe 99e8 15bf 915e 3c3e 36da bebf
000000c0: acff 0bbf 92fa 4e3d fec8 e5be 7405 20bf
000000d0: 8f88 dcbe 23d9 a7be 9351 8a3d 68f8 29bf
000000e0: 243a 36bf ea76 973e 4bdc 65bf cd38 a8be
000000f0: e37f 01bf a651 d13e 25c6 903d 4eef 8abe
00000100: 0f32 81bd 6c30 65be 084a 6ebe 69bf 34bf
00000110: 05c7 95bf 6d75 e13d 9c23 c23c a87c bcbd
00000120: 5d1e ddbe 0045 1abf b1fd fdbe 3f0a 523e
00000130: 26fd eabe 6ca3 81be 8c06 a63c e68c 043e
00000140: 82d6 16bd 2940 d5be 956a 44bf ade4 d9bd
00000150: 99e2 b1bc 020f 80bd 67ad 98bd 93bb 9cbf
00000160: c339 4abf bef8 9dbf 2aa0 3abe 8bb8 3c3d
00000170: b54a 45bf 3bed 5ebf 65b7 6fbd 237a 1e3e
00000180: a33f 253e 7ec3 ddbe 6cb0 aa3e a995 3e3e
00000190: ad46 06be 54b4 003f 5fd3 e6bd c2a1 a43e
000001a0: a014 c3bf 7a6a 59be ba7b 9f3d 3e9f 40bf
000001b0: 6e46 45bc 3bea ffbc 8292 033e 979c 81be
000001c0: 427e 23bd 398d cdbe 72b8 f3bd 9495 983d
000001d0: 9831 58bd e3d3 3a3e a4d5 74be 7bc2 183e
000001e0: 660a a2bd 93af 5c3e df44 89be b464 0c3e
000001f0: e955 b3be 7677 8ebe e757 5cbe baea e6be

fc2.weight f4 [128, 132]
-0.36547717 0.16268238 0.13548662 -0.22907652 -0.011632896 0.13775595 0.38854963 -0.032791562
-0.13518704 -0.3176421 0.4487247 -0.16051017 0.22669047 0.10681237 0.18979731 -0.033726115
-0.7607921 0.4558847 -0.28214335 -0.18756264 -0.32077563 -0.043294914 0.21784058 0.30207816
-0.042258047 0.13395612 0.07845156 0.0074064946 0.48577166 0.32488936 -0.018500958 -0.41745812
0.08633236 -0.3974932 0.34854496 -0.2605594 -0.109126665 0.29785034 0.028556328 -0.88015085
-0.36216027 0.080755696 -0.9692059 0.33509785 -0.023260366 0.72638893 0.18447424 0.5001861
0.30182633 -0.28382853 0.4256457 -0.5471991 0.115074664 0.02417259 -0.2892423 0.24123472
0.40972224 -0.23617163 0.26172826 0.23448609 0.36344054 -0.45445192 -0.5690631 0.31349248
0.2629224 -1.1715891 0.20350422 -0.010617531 0.46677646 -0.21932398 -0.19316298 -0.22583362
-0.19288118 0.22963531 0.26735535 -0.9859541 0.33602968 -0.09166839 -0.49503818 0.004073135
-0.07251149 -0.043228876 0.48480788 -0.12742081 -0.8359638 -0.6770035 -0.1284642 0.33715817
-0.107677884 0.56635803 0.14144243 -0.5666557 0.23216268 0.41326007 0.033384304 -0.1927436
0.40956646 0.19430624 -0.15297963 0.3719037 -0.37162966 -0.7992137 0.015725 0.04678288
0.48903054 0.41575944 0.30791777 0.480331 -0.059951846 0.20051432 0.34979954 -0.26957712
-0.19614445 -0.19079055 -0.470803 -0.74026644 0.07358843 -0.06766549 -0.2066864 -0.43692613
-0.532521 -0.077616446 0.25025833 -0.40551537 -0.097444825 0.1560967 -0.32156888 0.07377447
1.0129085 0.6705066 0.20253128 -0.74148715 -0.15290566 0.24867222 -0.107652225 -0.11431899
-0.27248755 -0.04102715 0.14792342 0.24320358 0.0320404 -0.31980482 0.0691762 0.07337794
-0.121543504 -0.19795233 0.018753083 0.017422233 -0.09835626 0.36772534 -0.3863847 -0.09245826
-0.26715413 0.07843761 -0.045219377 0.033158384 -0.17103632 -0.018746534 -0.08990311 -0.24058424
0.5176145 -0.087858066 -0.18984792 0.21698812 -0.081060626 -0.35609126 0.17733262 0.10768478
0.037878904 -0.02804756 -0.13577205 -0.5003386 0.08430667 0.41221797 -0.1598184 -0.113021515
-0.33356208 -0.18465185 -0.253453 0.3935863 0.25638053 -0.2247393 0.15007052 -0.7156859
0.27364257 -0.084805526 -0.39558998 0.27973408 0.21457581 -0.16047458 0.17441726 -0.19509642
0.032184143 -1.1063433 -0.40382135 -0.05555737 -0.12178956 0.05433564 -0.30613098 0.043537337
0.15176187 0.13839345 -0.3165227 -0.43521872 0.19341694 0.16291073 0.05728464 -0.27438405
0.12819704 -0.16771564 -0.19907692 -0.84802717 -0.0052531892 0.21146688 0.39690852 0.0704708
-0.48443073 0.0051683467 -0.012575905 0.38478228 -0.13151905 0.39289585 -0.053302873 -0.19178821
0.18676697 0.20238703 -0.2326335 -0.3847739 -0.0050086454 0.03193898 -0.7208505 0.25021642
-0.36070213 0.14410958 -0.052063756 -0.1311122 0.2571219 -0.0372825 0.25953498 -0.2785638
-0.08602908 0.07362077 0.3756618 -0.37646633 0.06963424 -0.058428485 -0.40966007 -0.3011878
0.51026857 -0.38532797 -0.13670143 0.042047866 -0.21101175 0.090706564 -0.06909711 -0.7073717
00000000: d31f bbbe 3696 263e 01bd 0a3e 0993 6abe
00000010: e797 3ebc e50f 0d3e faef c63e 7250 06bd
00000020: 796e 0abe fca1 a2be 3ebf e53e c75c 24be
00000030: 8c21 683e 72c0 da3d 3a5a 423e 6524 0abd
00000040: 45c3 42bf b869 e93e 1875 90be 6c10 40be
00000050: b43c a4be 0256 31bd 9a11 5f3e fda9 9a3e
00000060: c616 2dbd cb2b 093e 36ab a03d 2eb2 f23b
00000070: 10b7 f83e e657 a63e 528f 97bc 12bd d5be
00000080: 05cf b03d 3b84 cbbe 7c74 b23e 0b68 85be
00000090: cd7d dfbd d77f 983e f6ee e93c 9151 61bf
000000a0: 126d b9be 3e63 a53d e11d 78bf f291 ab3e
000000b0: 868c bebc a0f4 393f d1e6 3c3e 320c 003f
000000c0: fb88 9a3e f951 91be 3cee d93e 3d15 0cbf
000000d0: 44ac eb3d 9805 c63c 9117 94be 3c06 773e
000000e0: 1dc7 d13e fad6 71be 3f01 863e 1f1d 703e
000000f0: e114 ba3e ecad e8be 1fae 11bf 1682 a03e
00000100: c49d 863e a2f6 95bf 6963 503e 27f5 2dbc
00000110: 53fd ee3e 7796 60be 84cc 45be ee40 67be
00000120: a582 45be 8525 6b3e cde2 883e 7d67 7cbf
00000130: 150c ac3e a3bc bbbd a575 fdbe ef77 853b
00000140: e780 94bd c310 31bd bd38 f83e 9a7a 02be
00000150: b901 56bf 1a50 2dbf 1f8c 03be ff9f ac3e
00000160: 3986 dcbd d7fc 103f 49d6 103e 5910 11bf
00000170: 0ebc 6d3e d396 d33e fbbd 083d 945e 45be
00000180: b2b2 d13e 37f8 463e b1a6 1cbe 296a be3e
00000190: 3e46 bebe 4599 4cbf b7d1 803c 689f 3f3d
000001a0: 3662 fa3e 6cde d43e 66a7 9d3e f2ed f53e
000001b0: 1190 75bd a053 4d3e ed18 b33e 0306 8abe
000001c0: 17da 48be 995e 43be 170d f1be 1a82 3dbf
000001d0: 88b5 963d 3494 8abd 9aa5 53be c8b4 dfbe
000001e0: 4c53 08bf 5ff5 9ebd dc21 803e b69f cfbe
000001f0: 2791 c7bd d0d7 1f3e ada4 a4be 1217 973d
00000200: fca6 813f 52a6 2b3f 5c64 4f3e 1ad2 3dbf
00000210: 4d93 1cbe eea3 7e3e c578 dcbd 1320 eabd
00000220: 7d83 8bbe 160c 28bd 3d79 173e 5c0a 793e
00000230: cb3c 033d 75bd a3be 40ac 8d3d 2c47 963d
00000240: cdeb f8bd 04b4 4abe 11a0 993c 12b9 8e3c
00000250: 026f c9bd 7f46 bc3e 37d4 c5be c25a bdbd
00000260: 6dc8 88be e6a3 a03d f437 39bd 16d1 073d
00000270: 2524 2fbe 5592 99bc 1f1f b8bd b75b 76be
00000280: 6282 043f eeee b3bd 7e67 42be 2232 5e3e
00000290: 1d03 a6bd 9851 b6be af96 353e d789 dc3d
000002a0: e926 1b3d ffc3 e5bc d407 0bbe 3116 00bf
000002b0: faa8 ac3d 3c0e d33e 6fa7 23be d377 e7bd
000002c0: a6c8 aabe 6015 3dbe 97c4 81be 2584 c93e
000002d0: 4f44 833e 0f22 66be 16ac 193e 3137 37bf
000002e0: e11a 8c3e 85ae adbd c58a cabe 4e39 8f3e
000002f0: c3b9 5b3e 7353 24be 709a 323e 5bc7 47be
00000300: 85d3 033d a89c 8dbf acc1 cebe 2090 63bd
00000310: ce6c f9bd 0c8f 5e3d 33bd 9cbe 3554 323d
00000320: 7767 1b3e 03b7 0d3e 430f a2be fdd4 debe
00000330: 170f 463e 12d2 263e 4ca3 6a3d 117c 8cbe
00000340: 1646 033e a6bd 2bbe d2da 4bbe 4f18 59bf
00000350: f222 acbb c68a 583e 9837 cb3e ff52 903d
00000360: 4e07 f8be 3c5b a93b 2b0b 4ebc 2f02 c53e
00000370: eeac 06be a529 c93e 1d54 5abd 2164 44be
00000380: d73f 3f3e 8c3e 4f3e 7a37 6ebe 1601 c5be
00000390: 901f a4bb 73d2 023d a989 38bf 5e1c 803e
000003a0: f3ad b8be 7691 133e ce40 55bd 4742 06be
000003b0: 7ba5 833e 89b5 18bd c5e1 843e ea9f 8ebe
000003c0: 0430 b0bd 7cc6 963d be56 c03e 32c0 c0be
000003d0: 659c 8e3d b552 6fbd f7be d1be 4a35 9abe
000003e0: f6a0 023f b549 c5be 76fb 0bbe 623a 2c3d
000003f0: 7713 58be 5dc4 b93d c982 8dbd 5016 35bf

fc2.bias f4 [128]
-0.5049869 -0.5143926 -0.21458751 -0.64250857 -0.6403603 -0.45140854 -0.1968933 -0.7747316
-0.38300756 -0.5384296 -0.32038605 -0.37946963 -0.4484547 -0.2412695 -0.2522602 -0.43902948
-0.60759974 -0.14891958 -0.49909604 -0.59962064 -0.6105019 -0.22645594 -0.37910745 -0.29618984
-0.3982597 -0.59919137 -0.56873727 -0.46340388 -0.28219217 -0.3684587 -0.66707104 -0.64819765
-0.61109096 0.060461838 -0.71780014 -0.25078034 -0.57152593 -0.4686911 -0.5408789 -0.3359533
-0.5083777 -0.3756722 -0.39868793 -0.3605639 -0.31419453 -0.3322185 -0.4376265 -0.61636204
-0.5841117 -0.3939593 -0.6302017 -0.6335767 -0.7155272 -0.3598582 -0.41320357 -0.28319746
-0.3814994 -0.4074703 -0.33409518 -0.42735445 -0.24541084 -0.14778139 -0.74124914 -0.27608955
-0.50423557 -0.2795521 -0.39270896 -0.22714467 -0.4787465 -0.44178572 -0.37599173 -0.64220154
-0.50855494 -0.27410296 -0.630527 -0.47109494 -0.23097065 -0.66787076 -0.35766238 -0.36455348
-0.36482388 -0.25991973 -0.48158544 -0.43121862 -0.45031175 -0.24850595 -0.53266263 0.005633377
-0.50090486 -0.48732948 -0.29092637 -0.3283187 -0.22403575 -0.38887453 -0.44196013 -0.5995521
-0.3924191 -0.39211646 -0.44444224 -0.20632437 -0.16709936 -0.23921764 -0.54326314 -0.43437517
-0.16179341 -0.3030717 -0.25053322 -0.3448211 -0.6498043 -0.49214065 -0.4590516 -0.8714927
-0.3870192 -0.29698253 -0.53498054 -0.5415899 -0.18610863 -0.70563513 -0.20824358 -0.36995414
-0.47168475 -0.1864569 -0.49453995 -0.57489735 -0.25279102 -0.5071018 -0.36560267 -0.5460902
00000000: d246 01bf 3caf 03bf d4bc 5bbe 717b 24bf
00000010: a7ee 23bf 051f e7be 669e 49be cf54 46bf
00000020: 9119 c4be 86d6 09bf a409 a4be d849 c2be
00000030: db9b e5be 5a0f 77be 4028 81be 79c8 e0be
00000040: a88b 1bbf 607e 18be 8489 ffbe bd80 19bf
00000050: da49 1cbf 11e4 67be 5f1a c2be 32a6 97be
00000060: b2e8 cbbe 9b64 19bf c498 11bf 4643 edbe
00000070: 7e7b 90be 9ea6 bcbe 2bc5 2abf 48f0 25bf
00000080: 7570 1cbf d5a6 773d c0c1 37bf 4866 80be
00000090: 864f 12bf 48f8 efbe 0a77 0abf 1202 acbe
000000a0: 0a25 02bf 1b58 c0be d320 ccbe d59b b8be
000000b0: 1bde a0be 8b18 aabe 9510 e0be e7c9 1dbf
000000c0: 5888 15bf 09b5 c9be e654 21bf 1532 22bf
000000d0: ca2c 37bf 563f b8be 6b8f d3be 42ff 90be
000000e0: e453 c3be f29f d0be 860e abbe 34ce dabe
000000f0: fb4c 7bbe 0154 17be 81c2 3dbf 9c5b 8dbe
00000100: 9515 01bf 7421 8fbe 2611 c9be 9d98 68be
00000110: 431e f5be bd31 e2be fd81 c0be 5267 24bf
00000120: a830 02bf 3957 8cbe 386a 21bf 5b33 f1be
00000130: 9283 6cbe 94f9 2abf 861f b7be c1a6 babe
00000140: 32ca babe 3314 85be 5e92 f6be b0c8 dcbe
00000150: 438f e6be 5878 7ebe 945c 08bf 3198 b83b
00000160: 4d3b 00bf 4083 f9be 4df4 94be 6319 a8be
00000170: a169 65be 901a c7be 9948 e2be 3f7c 19bf
00000180: 28eb c8be 7dc3 c8be ef8d e3be b246 53be
00000190: 181c 2bbe 78f5 74be 4b13 0bbf 6c66 debe
000001a0: 2cad 25be 372c 9bbe e445 80be 648c b0be
000001b0: 9359 26bf dcf9 fbbe d008 ebbe 251a 5fbf
000001c0: 6127 c6be 180e 98be 7cf4 08bf a3a5 0abf
000001d0: 4393 3ebe 81a4 34bf ce3d 55be a16a bdbe
000001e0: aa80 f1be 8fee 3ebe 5734 fdbe 792c 13bf
000001f0: d36d 81be 6cd1 01bf 4630 bbbe 91cc 0bbf

fc3.weight f4 [1, 128]
0.007736566 0.001372994 0.0013114763 -0.012607308 0.0097089615 -0.0043661473 0.0019416846 0.0022362762
-0.0008448219 -0.0064467792 -0.0019455262 -0.00052231306 -0.021363325 -0.002047395 -0.0024414952 0.0017404556
0.009753425 0.005206622 0.00082216726 0.003234183 0.0041775084 0.00036297415 0.02749999 -0.009017225
0.0021765637 -0.021939147 0.01123584 0.00168062 0.00020666006 0.0062063276 0.00628492 0.008084818
-0.0031979452 -0.007180639 -0.015325561 0.004631403 -0.0071783946 0.0130905 0.009997027 -0.0005565009
-0.0047840443 -0.005977949 0.004899952 0.005174947 -0.013486362 -0.01236445 -0.0070748376 0.0013324772
0.008663616 0.0012541354 -0.006688673 0.009185157 0.012038989 -0.037585754 0.0028052079 -0.0060716574
0.002893492 -0.015997713 -0.010165773 0.0009103277 0.0015461803 -0.0009797199 0.03796121 -0.00068614935
-0.010061551 -0.0028489046 0.0074936934 -1.6207792e-05 0.0060754265 -0.004801784 -0.033217788 -0.026026798
0.034084637 -0.01518289 0.0072822915 -0.0074027567 0.0032752496 -0.010262269 -0.017882114 0.029375585
-0.0041812854 0.012851286 0.014868603 0.0013627068 0.017132027 -0.0017771213 -0.013579539 -0.0003540675
0.013860987 0.0066994363 -0.007045868 0.0040718173 -0.02562335 -0.01618306 -0.010209812 0.006654995
0.010201842 -0.0066463873 0.006614598 2.3952016e-05 -0.0019473216 -0.015482484 0.0030577832 0.00016533928
-0.00020582191 -0.0005629532 0.0041562263 0.0026729973 0.024428917 0.011108148 -3.2918397e-06 0.0044773757
-0.007152411 -0.004416381 -0.018915936 0.0021938812 -0.007268638 0.028178457 -7.253386e-05 -0.0010600685
0.014955943 -0.000954221 0.010442628 -0.04930762 -0.0013881134 0.00087472476 0.020922506 -0.012124814
00000000: 0583 fd3b 09f6 b33a d8e5 ab3a e28e 4ebc
00000010: 5612 1f3c e611 8fbb 2080 fe3a 7d8e 123b
00000020: 0a77 5dba 813f d3bb 0701 ffba d6eb 08ba
00000030: 2402 afbc 972d 06bb 7e01 20bb 0020 e43a
00000040: d4cc 1f3c 509c aa3b b686 573a 96f4 533b
00000050: 7be3 883b 914d be39 a947 e13c fcbc 13bc
00000060: aea4 0e3b bab9 b3bc 8716 383c 4048 dc3a
00000070: e3b2 5839 735e cb3b bbf1 cd3b 2f76 043c
00000080: 9e94 51bb 914b ebbb 1018 7bbc 06c3 973b
00000090: bd38 ebbb 8979 563c 92ca 233c 25e2 11ba
000000a0: 79c3 9cbb ace2 c3bb c78f a03b 9a92 a93b
000000b0: e7f5 5cbc 4394 4abc 0ad4 e7bb 84a6 ae3a
000000c0: d7f1 0d3c cd61 a43a a82c dbbb 577d 163c
000000d0: 2e3f 453c 85f3 19bd 94d7 373b c1f4 c6bb
000000e0: bea0 3d3b a30d 83bc 588e 26bc 0fa3 6e3a
000000f0: 34a9 ca3a f269 80ba 377d 1b3d b4de 33ba
00000100: 34d9 24bc b0b4 3abb a88d f53b f8f5 87b7
00000110: 5f14 c73b 4958 9dbb 600f 08bd 2736 d5bc
00000120: 559c 0b3d a8c1 78bc 4aa0 ee3b d392 f2bb
00000130: 92a5 563b 1323 28bc 837d 92bc 11a5 f03c
00000140: 2a03 89bb 338e 523c 719b 733c da9c b23a
00000150: 7758 8c3c 4cee e8ba b77c 5ebc 23a2 b9b9
00000160: 3119 633c f286 db3b 06e1 e6bb e16c 853b
00000170: 0fe8 d1bc 5692 84bc 0e47 27bc 2512 da3b
00000180: a025 273c f0c9 d9bb 45bf d83b 90ec c837
00000190: 453d ffba 3faa 7dbc 1765 483b ed5e 2d39
000001a0: e6d1 57b9 2693 13ba f430 883b 742d 2f3b
000001b0: 271f c83c f3fe 353c 60e9 5cb6 f3b6 923b
000001c0: c65e eabb 4ab7 90bb 98f5 9abc 38c7 0f3b
000001d0: c12d eebb 82d6 e63c 521d 98b8 fff1 8aba
000001e0: c609 753c b024 7aba 8e17 2b3c c9f6 49bd
000001f0: 5bf1 b5ba c94d 653a ad65 ab3c 28a7 46bc
