models/checkpoint_critic_local_0.pth (torch_old, 95311 bytes, 8 tensors)

bn1.weight f4 [48]
00000000: 39a3 fd3e dd83 003f 6286 5d3e 2081 563e
00000010: f38a b1bf 73c6 463f 7923 9c3e 17ed cc3e
00000020: 66d3 3a3e ea66 5c3d db60 c43c 1657 043d
00000030: a5b3 c9be 5fa3 623e 07e2 e23e bf3d 0f3f
00000040: 40de ac3f 84c7 7f3f 32e8 153f a3c8 8e3f
00000050: 1f38 c23f f843 513f c175 cb3d cf90 f13e
00000060: 66a7 b73e 4246 e13e dea3 b13e dcbf d03e
00000070: a7e5 b0be 0075 be3e bf14 5c3d bc8f 85be
00000080: 3315 7e3e ee13 c7bc 9fb0 e63e e3a3 d33e
00000090: 707e 153f 36d1 de3e 90b0 0a3f 8a35 e33d
000000a0: 626e ea3f ddf4 4e3f 94fd 383f 9abf 053f
000000b0: f0f2 da3f 79a1 ac3f f68a fc3d 3704 353f
0.49538592 0.5020121 0.21633294 0.20947695 -1.3870529 0.7764656 0.30495813 0.40024635
0.18244705 0.053809084 0.023971966 0.032309614 -0.3939487 0.22132634 0.4431307 0.5595359
1.3505325 0.9991381 0.58557427 1.115498 1.5173377 0.8174434 0.09934569 0.47180793
0.35869902 0.43998915 0.34695333 0.40771377 -0.3455021 0.3719864 0.053730723 -0.26086223
0.24812774 -0.024301495 0.45056626 0.41335973 0.58396053 0.4351899 0.54175663 0.11094196
1.8314936 0.8084238 0.7226193 0.52245486 1.7105389 1.3486778 0.12331192 0.70709556

bn1.bias f4 [48]
00000000: ffb2 19bc 1452 b0bb a831 3f3d 1547 31bf
00000010: 4dc5 dd3e 42a6 bf3e 94e7 70bd 6468 223e
00000020: d192 8dbd 4ee0 653e 067c bcbb 580f 043a
00000030: 7a34 bebd 2377 ba3d bd82 e53d 90f3 8ebd
00000040: 2326 5abf 3ce9 703f c61f ed3c bd7f 3f3c
00000050: de82 43bf 994b 6bbe 8e89 973b 4e8c ed3e
00000060: 1e86 973e 7932 233e 46c6 483d 065c 5a3c
00000070: ac4e dc3e f1b2 a13d 6cf5 833e 7e13 09bd
00000080: 87c0 863e 143c 53bf f5c2 f7be 2617 0ebc
00000090: 153f 2f3f 07cc 8abe 4db5 4e3f d2be 973c
000000a0: a0db 503f fbfc fd3e 98c7 b03e 6fe2 2a3e
000000b0: a492 843f d9b3 b6be 7ea7 b33d 1af8 36bd
-0.009381055 -0.005380878 0.046678215 -0.6924909 0.4331459 0.37431532 -0.0588146 0.15860134
-0.06912769 0.22448847 -0.0057520894 0.0005037687 -0.09287353 0.09104755 0.11206577 -0.069800496
-0.8521444 0.9410589 0.028945815 0.01168817 -0.7637156 -0.22978057 0.004624552 0.46396106
0.2959451 0.15937223 0.049017213 0.013327604 0.43028772 0.078954585 0.2577318 -0.033465855
0.26318762 -0.82513547 -0.48390928 -0.008672511 0.6845563 -0.27108786 0.80745393 0.018523607
0.8158512 0.4960707 0.34527278 0.1668794 1.0357251 -0.35684088 0.08772181 -0.0446702

bn1.running_mean f4 [48]
00000000: 4359 ffc0 a3c9 d0be 7dd9 0b40 f112 a4bd
00000010: 6af3 dfbe 7cf6 6840 7dd9 0b40 f112 a4bd
00000020: 8324 00c1 602d dcbe 09e3 2c40 d5a3 e7bd
00000030: b939 e3be c216 6a40 09e3 2c40 d5a3 e7bd
00000040: ff34 02c1 df51 e6be db35 0540 9637 e4bb
00000050: 6553 f0be 36e0 6b40 db35 0540 9637 e4bb
00000060: 2d4c 54c0 cad5 41bf e8ff 5341 3706 c6bd
00000070: 6af3 df3e 7cf6 6840 e8ff 5341 3706 c6bd
00000080: 64e3 58c0 4f27 48bf 2e40 5841 ab8a 15be
00000090: b939 e33e c216 6a40 2e40 5841 ab8a 15be
000000a0: 5532 5ec0 4451 51bf c43c 5c41 3682 36be
000000b0: 6553 f03e 36e0 6b40 c43c 5c41 3682 36be
-7.979646 -0.40778837 2.1851494 -0.08011425 -0.43740398 3.6400442 2.1851494 -0.08011425
-8.008914 -0.43003368 2.7013571 -0.11310545 -0.44379976 3.657639 2.7013571 -0.11310545
-8.1379385 -0.44984338 2.081412 -0.006964634 -0.46938625 3.6855597 2.081412 -0.006964634
-3.3171494 -0.7571684 13.249977 -0.09669154 0.43740398 3.6400442 13.249977 -0.09669154
-3.3888788 -0.7818498 13.515669 -0.14603679 0.44379976 3.657639 13.515669 -0.14603679
-3.471822 -0.81764627 13.764835 -0.17823109 0.46938625 3.6855597 13.764835 -0.17823109

bn1.running_var f4 [48]
00000000: 4eb7 5a41 d185 723f 97b4 9143 4501 7841
00000010: 642c f141 b6ca 4640 97b4 9143 4501 7841
00000020: 7202 4b41 9299 753f ac2f 9643 7e89 8341
00000030: 178c f941 6134 4840 ac2f 9643 7e89 8341
00000040: f67a 3a41 db31 7a3f 9945 9f43 8f2d 8341
00000050: 6643 0242 ebba 5140 9945 9f43 8f2d 8341
00000060: edb6 5541 1293 903f 696a d243 c77e 4541
00000070: 642c f141 b6ca 4640 696a d243 c77e 4541
00000080: e7a9 5341 90e9 8f3f 6b08 d843 2390 4841
00000090: 178c f941 6134 4840 6b08 d843 2390 4841
000000a0: 690d 5141 f578 8f3f 1574 d843 c3aa 5141
000000b0: 6643 0242 ebba 5140 1574 d843 c3aa 5141
13.669752 0.9473544 291.41086 15.50031 30.146675 3.1061225 291.41086 15.50031
12.688097 0.95937455 300.37244 16.442135 31.193403 3.128197 300.37244 16.442135
11.65502 0.97732323 318.54373 16.397245 32.56582 3.2770336 318.54373 16.397245
13.35716 1.1294882 420.83133 12.3434515 30.146675 3.1061225 420.83133 12.3434515
13.22898 1.1243153 432.06577 12.53519 31.193403 3.128197 432.06577 12.53519
13.065774 1.1208788 432.9069 13.10419 32.56582 3.2770336 432.9069 13.10419

fc1.weight f4 [128, 48]
00000000: d12a 63bf 75c4 663f 3a6e 013e 1fe9 633e
00000010: 0efa 51bf 7f0c 97be c590 04bd e577 9fbf
00000020: 004b 783e 5090 94be 18df 3dbe 6114 243e
00000030: 1584 b33c 016a d93e df18 3dbf dc98 863e
00000040: da16 2e3f 8574 923f 97d9 3f3e e80a fc3e
00000050: 28c0 0dbf 0b2c 3cbe c54c fc3d 2851 cebe
00000060: 9e5a 48bf f579 b7be fe38 093f f659 7ebf
00000070: cdd8 bebe f350 98bd 6ef2 bebe ae6c 993e
00000080: eb9b e1bf a90f 043f 89cc d63d af0f a4bf
00000090: d2ca e1bf 3a59 a93e 248c a4bf d00f abbf
000000a0: 200c fcbf 6a47 49bd c77d 293e 3a13 aebf
000000b0: dd3a ec3e ce25 f0be 993e 74bd 10d8 b4bf
000000c0: 1c53 e0bf 5c54 903f b73e ebbe 74bd ba3f
000000d0: 1bdf fdbe eaa2 8bbe 1bda 873e 8bfb aa3e
000000e0: 07a1 24bf 08ed f0bd 2e03 153e 17bb f0bd
000000f0: 90b8 87be 9014 b83f 606d 77bf cc92 0e3f
00000100: 1312 78bf 1bf2 633e d36e 8b3d 5fea ea3f
00000110: ab9d 973f 7ff5 b13c 5c6d bebd b612 453f
00000120: f797 ae3f 94a8 883f 9dbe 443f 6090 e3be
00000130: 320c c1be 2c52 0b3c adc7 5cbf ccb7 6f3e
00000140: b692 743f f992 8a3f 838a 7e3f 13f9 babd
00000150: ac17 5bc0 38a7 d03f 854b 84bf b87b 83bf
00000160: dce9 833e d10c 58be e337 8c3d 62f2 4e3f
00000170: afb5 d8bf 95f4 72be 3cd1 9ebd 3a4e d53f
00000180: 4798 95be b7bd 70bf 54ba dbbe 0e2c fc3f
00000190: 393b 943f 6d42 86bf 3049 0c40 549c 09bf
000001a0: f434 7e3f 7f21 e7bf 7b15 66be 8b1a a5bc
000001b0: 83aa f33f 97de 0e3f f778 ae3e 45f4 d63c
000001c0: 6037 4040 d559 b1bf e949 323f c7b3 ba3e
000001d0: a284 c5bf 7504 583f fcde 4b3f 8288 41bf
000001e0: 9ebe 1bbe dc5d 5b3f 37f4 a43f 3920 25bf
000001f0: 0d92 9bc0 a03e 51be 4d9d d3bf c8f9 d1be
00000200: c0e5 86be ed8a d53f 880d 1b40 67df 983d
00000210: b3c3 be3e ab46 663f a702 74bf 7f33 6cbe
00000220: 156a 28bd 9c5b 023f ac7f bd3e 58fa 963e
00000230: a2fb 9a3f 268e 3c3f ccab 2a3e 2142 ad3f
00000240: a400 28c0 4749 01bf e015 98bf 5092 943f
00000250: 7720 5abf c274 a6bf 9107 703f fd57 f8bf
00000260: afbc a6be 456d 78bf 2fa5 013e abde da3d
00000270: d592 433f 38bb 7dbf 67f1 a1be aa24 c3bd
00000280: 1540 aebe e409 2c3f de30 973e a65f fd3f
00000290: 0138 213d fee7 0e40 55a6 d83e 156d cf3e
000002a0: f83b 1ebe f3c9 91bf e98e 10be b1fd 21be
000002b0: 1eea cebf b808 97bf 0f0b 85bf 9e51 b2bc
000002c0: fcf1 313f 5094 6440 7dd4 b63f c97a 6d3e
000002d0: 0e52 46bf 2354 3fbf b702 b9bf faf0 9ebe
000002e0: 0256 0f3f 39b5 8b3f 5371 8fbd 7f29 26bd
000002f0: e0e2 0bbf d0e9 d93f 2a74 9bbe 6760 1c3f
00000300: 7c13 b8bf 3547 d83e 636f 13bf 66de a03f
00000310: 73f3 1f40 726a d5be 89b5 e83d fcae 8dbf
00000320: 3223 0bbf 98db 103c 0d7f fdbd 0eae 033e
00000330: 46f4 513f f3ff c1bf b0a9 77bf 7a8e 9dbd
00000340: 2ef7 13be c94a 973f 56fb 1cbf a919 e0be
00000350: 7e9a 0640 6015 1040 8c44 c2be 3004 d7bf
00000360: a6c8 c7bf 1c2c 5fbe 914a ac3e ea6b 10bf
00000370: 3bc2 b4bf 97a6 bdbe 9a55 3bbf a8cf 113f
00000380: 720c 26c0 0f5f aa3f 16d4 933f 3874 ec3c
00000390: fbc3 1140 c176 b4be 0445 7bbf 7f13 7abf
000003a0: 278e a33d 21d6 b93f 859e d2be 6c6a 43be
000003b0: 8b15 24c0 5c7e 3340 b524 e6be 9f66 e23e
000003c0: a69a e6be f155 053f 70b0 2dbf dca9 513e
000003d0: 5afd 8c3d f9ef 3a3e d32f 78be 0156 31be
000003e0: 48d4 72bf 82b7 113f 5c8f 89bc bd8b 963d
000003f0: 4df0 9ebe 9b9a 4c3f 4409 13be f426 1e3f
-0.8873721 0.9014352 0.12639704 0.22256897 -0.8202218 -0.2950172 -0.032364625 -1.2458464
0.2424736 -0.29016352 -0.18542135 0.16023399 0.021913568 0.42463687 -0.73866075 0.26288497
0.6800362 1.1441809 0.18735348 0.4922707 -0.5537133 -0.18376176 0.1231933 -0.40296292
-0.7826327 -0.35835233 0.5360259 -0.9935602 -0.3727478 -0.07437315 -0.37294334 0.2996573
-1.7625707 0.51586396 0.10488231 -1.2817286 -1.7640021 0.33075887 -1.2855268 -1.33642
-1.96912 -0.04914037 0.16551886 -1.3599617 0.4613866 -0.46903843 -0.05963001 -1.4128437
-1.7525363 1.1275744 -0.45946285 1.4589067 -0.49584278 -0.2727273 0.2653359 0.33395037
-0.6430821 -0.1176396 0.14551994 -0.117544346 -0.26507998 1.4381275 -0.9665127 0.55692744
-0.9690258 0.22260325 0.068082474 1.8352774 1.1844991 0.021723507 -0.092982024 0.76981676
1.3640126 1.0676446 0.7685335 -0.44446087 -0.37704617 0.008503478 -0.8624218 0.23409957
0.95536363 1.0826102 0.994301 -0.091295384 -3.4233198 1.6301031 -1.0335547 -1.0272131
0.25764358 -0.21098639 0.06846597 0.80838597 -1.6930445 -0.23726113 -0.07754752 1.6664498
-0.2921774 -0.9403948 -0.42915595 1.9700944 1.1580573 -1.0489022 2.191967 -0.5375416
0.9929955 -1.8057097 -0.22469132 -0.020154258 1.9036411 0.55808395 0.34076664 0.026239524
3.0033798 -1.385554 0.6964403 0.36465284 -1.5431101 0.843818 0.7963712 -0.7559892
-0.15209433 0.85690093 1.2887028 -0.6450229 -4.8615785 -0.20434046 -1.6532379 -0.4101088
-0.2634716 1.6683022 2.422701 0.074644856 0.37258682 0.8995158 -0.9531655 -0.23066519
-0.041116793 0.50921035 0.37011468 0.29487872 1.2108042 0.736544 0.16667098 1.3535806
-2.625039 -0.5050244 -1.1881676 1.1607151 -0.8520579 -1.3004382 0.93761545 -1.9401852
-0.3256583 -0.9704173 0.12660669 0.10687002 0.7639592 -0.991138 -0.31629488 -0.095284775
-0.34033266 0.6720259 0.2952947 1.9794815 0.03936005 2.2329097 0.423144 0.4051291
-0.15452564 -1.1389755 -0.14117016 -0.15819432 -1.6165197 -1.1799536 -1.0394 -0.021767434
0.69509864 3.5715523 1.4283596 0.2319137 -0.77468956 -0.7473776 -1.4453954 -0.31043226
0.5599061 1.091468 -0.07004037 -0.040566918 -0.5464306 1.7024479 -0.30362064 0.610846
-1.4380946 0.42241827 -0.5759184 1.2567871 2.499234 -0.41682774 0.1136275 -1.1069026
-0.5435058 0.008841418 -0.12377749 0.12859365 0.82013357 -1.5156235 -0.967433 -0.07693191
-0.1444976 1.1819698 -0.6132101 -0.43769577 2.1031795 2.2513046 -0.37942922 -1.6798153
-1.5608108 -0.2179417 0.3365064 -0.56414664 -1.4121774 -0.3704116 -0.7317749 0.56957483
-2.5945096 1.331026 1.1549098 0.028864011 2.2775867 -0.35246852 -0.98152184 -0.97686
0.07986098 1.4518472 -0.41136566 -0.19083565 -2.5638149 2.8045874 -0.4494988 0.4421892
-0.45039862 0.5208426 -0.6784735 0.20474952 0.068842605 0.18255605 -0.24236993 -0.17317964
-0.94855165 0.56920636 -0.016791992 0.07350872 -0.3104271 0.7992341 -0.14359003 0.6177819

fc2.weight f4 [128, 132]
00000000: b320 00c0 32f9 3cbf 3e61 6dbe 4798 49bc
00000010: 1bf9 ab3e b499 10bf 2a6f 46be 2475 a0be
00000020: 2468 9f3e 882e 643f f1f5 bf3e 71e8 083e
00000030: 6fcf 7dbf 21bb 4abf 8443 4cbe 2bd5 183f
00000040: a099 37bc 3b9b 0dbd 08a7 863f ce0e 52be
00000050: 006c acbe 7995 933f 37ea 733f f11a 4bbb
00000060: 3469 5a3f 465d 56bf 4059 043f ed22 7d3b
00000070: f71f fcbe f4fc adbd c4cb 073f 182a f1bb
00000080: 70b3 51bf 01bf ed3e 1bc0 913f 2110 213f
00000090: 6c5d aa3f 3b7d 4fbe 385e 2c3f a56c 043d
000000a0: 0a00 47bf 45d6 a63e 4dff ae3e 7842 ddbd
000000b0: 3ddd 98bf f03b d4be 9f25 a43e 8043 693d
000000c0: 45b2 633f 500b db3e 048a 4dbe 239e 10bf
000000d0: 9907 373f 1ac6 a6be af6d 5e3f c94a 9bbe
000000e0: ddbc c23d a426 bcbe 1aec 413f 60ab fbbe
000000f0: 2296 b33e f622 b7bf a062 4e3e 181b 36bf
00000100: 3d7e f5be 7f6d 69bf 6ed2 ebbd eecb 86be
00000110: 9c94 b43e 5c6b b63d c0ca ccbd 2847 813e
00000120: afc5 7bbf f105 10be 6bda e9be d485 93be
00000130: 01e4 913e 767a 75bf 9a3a 393f 2e5b ebbc
00000140: 7668 35bf 28a5 20be 0721 2abd 144b c13e
00000150: 1627 853e bd1b fcbd f061 4cbd 6861 9e3e
00000160: 1204 fbbe d329 c8bd 1367 2cbf 3972 92be
00000170: bc75 c43c 5891 0bbe 8c54 683f ec6c 9e3f
00000180: 9170 fa3e 0745 293f 0eef bd3e 9faa cfbd
00000190: 3deb 553f 70a7 6bbe 269a 72be 2c18 853f
000001a0: 2131 b1bf e5a6 54bf b5fd 59bf 95b0 2c3e
000001b0: 75d0 db3e cc6b 8d3e 312f 04bf 07e5 40bf
000001c0: dd48 7b3e 8735 12bf d2fa 16bf a3d1 98bf
000001d0: 6d11 eb3d 6e2e b33e 5c11 f83e a75b 583f
000001e0: 603e 5e3e 8787 5ebe 5b27 1bbd f481 2abe
000001f0: baa1 9cbf 539b 9a3e 8874 2dbe fc42 373f
00000200: 34f2 06c0 0a48 24c0 e6de 63c0 11be 533f
00000210: ac50 38bf 836c 7d3f 504d ab3e a1b6 ca3e
00000220: aeb6 b23f d947 ca3e 16f5 76be d34f 273f
00000230: 2ffd f8be 1d97 fb39 bd38 c6be 0bd8 803e
00000240: 6316 e2be 37a3 863e 8ad1 90be 6349 073f
00000250: 5bd5 a93e 7ce3 3cbf dc55 3e3f 086d 09bf
00000260: 36f6 67bf 6b5c 1c3e 6733 023f 5b66 6f3f
00000270: 047d 793f 29f6 c53e 2f86 ccbe d998 c7be
00000280: 66d8 5abf 132b e5be ddfd 10bf 6986 2e3d
00000290: a79b 923e 532d 193f 8187 c33e 2b29 bfbf
000002a0: a710 893d 7ab6 093f ce3e d4be be83 9abf
000002b0: 3065 86bf 3d0d 033f ace7 d73e 4c7b 85be
000002c0: 22c7 7ebe 0020 c1be 4cd0 e0be b524 32bf
000002d0: b861 dd3e 5985 953f ddf2 01bf 7827 fc3e
000002e0: e726 91bd f42f 66be 331a 173f 3f3c 233f
000002f0: 0634 39bf edd1 c83d 4cc7 b03e 4a72 673f
00000300: bf4b 813e 1383 dfbf b661 25be a411 7ebf
00000310: 64f5 b3be 85a7 4cbf 9c8d e3be a141 5dbe
00000320: e6ac 113f 25ef 19bf 4fa8 cfbd f263 973e
00000330: fb90 97be 2b5e 9e3e 4e6b c6be 0dde 60be
00000340: ff25 79be 68d3 58bf abc1 c43e 6225 bdbf
00000350: 347d 28bf edf7 02bf a59c 5ebe 9e67 8f3f
00000360: 466c a13e 78a0 02be 915b 1fbf 13eb 213f
00000370: ca35 5bbf 6d0e 0bbe 22a6 73bf bf26 5a3f
00000380: 1d71 ec3d 5997 3f3e e3f3 a73e 85e0 8bbe
00000390: d014 7dbf 2c02 773f 1161 28bf aa0c da3a
000003a0: 5803 563f 6824 323e d080 e5be ef2c 12bf
000003b0: b66f 63bf 84bf 153e bde6 5abf 2b2c cd3e
000003c0: 0d26 a03e 61fc 633f e8f5 6abf 3ae8 f23e
000003d0: b131 c5bc 2c82 38be fc08 20bf 8912 493e
000003e0: 85ae f3bd 3e04 04bf 8e79 a53e f403 803e
000003f0: 4054 0abf 0430 07bf fb02 04bc f6b6 96be
-2.0019958 -0.7381774 -0.23181626 -0.012304372 0.3358849 -0.5648453 -0.19378343 -0.3133937
0.3113414 0.891335 0.37492326 0.1336992 -0.99144644 -0.79191786 -0.1994763 0.5970027
-0.011206061 -0.034571867 1.0519724 -0.2051346 -0.33676147 1.152999 0.9527926 -0.00309914
0.8531678 -0.83736074 0.51698685 0.0038625554 -0.49243137 -0.084955126 0.53045297 -0.0073597543
-0.81914425 0.46434787 1.1386751 0.62915236 1.330976 -0.20262615 0.67331266 0.032330174
-0.77734435 0.3258535 0.34179154 -0.108036935 -1.1942517 -0.4145198 0.32059953 0.05694914
0.8894389 0.42782068 -0.2007218 -0.564913 0.7149597 -0.32573014 0.86886114 -0.30330494
0.09508679 -0.3674823 0.7575089 -0.49154186 0.3507548 -1.4307544 0.2015481 -0.7113509
-0.47947875 -0.911827 -0.11514746 -0.2632746 0.3526963 0.08907196 -0.09999609 0.252496
-0.98348516 -0.14064766 -0.45674452 -0.2881304 0.28494266 -0.95889986 0.72355044 -0.028730001
-0.7086252 -0.15688002 -0.041535404 0.37752593 0.26006383 -0.12309978 -0.049898088 0.3093369
-0.49026543 -0.09773602 -0.6734478 -0.2860277 0.023981921 -0.13629663 0.9075401 1.237699
0.48914006 0.6612095 0.37096447 -0.10139965 0.8356207 -0.23013091 -0.23691615 1.0398002
-1.3843118 -0.8306716 -0.8515275 0.16864236 0.42932478 0.27621305 -0.5163451 -0.7534947
0.24539514 -0.57112926 -0.5897647 -1.1938976 0.11477933 0.3499636 0.48450744 0.8451485
0.21703482 -0.21731387 -0.03787933 -0.16651136 -1.2236855 0.30196628 -0.16938984 0.71586585
-2.108533 -2.566897 -3.5604796 0.82711893 -0.71998096 0.989937 0.33457422 0.3959246
1.3962 0.3950794 -0.2411693 0.6535618 -0.48630664 0.0004798704 -0.38715163 0.25164828
-0.44157705 0.26296398 -0.28284866 0.52846354 0.3317059 -0.73784614 0.7434976 -0.53681993
-0.90610063 0.1526963 0.50859684 0.9351556 0.97456384 0.38664368 -0.39946124 -0.389838
-0.8548645 -0.44759426 -0.56637365 0.042608652 0.28634378 0.59834784 0.3818932 -1.4934438
0.06692629 0.5379406 -0.41454166 -1.2071455 -1.049963 0.51192075 0.4216894 -0.2607063
-0.2488065 -0.37719727 -0.43908918 -0.6958726 0.43238616 1.168132 -0.50761205 0.49248862
-0.07087498 -0.2247923 0.5902435 0.63763803 -0.72345006 0.09805665 0.3452705 0.90408766
0.25253102 -1.7461876 -0.16150555 -0.9924567 -0.35148156 -0.79943115 -0.44443977 -0.21607067
0.5690445 -0.6013053 -0.10139524 0.2956844 -0.296028 0.3093122 -0.38753742 -0.21959706
-0.243309 -0.8469758 0.38429007 -1.4777033 -0.65816045 -0.51159555 -0.21739443 1.1203496
0.3152792 -0.12756526 -0.62249094 0.6324932 -0.8562895 -0.13579722 -0.95175374 0.8521537
0.11545012 0.18710078 0.32803258 -0.27319732 -0.9885988 0.9648769 -0.6577311 0.0016635854
0.8359885 0.173967 -0.4482484 -0.57099813 -0.8884233 0.14623839 -0.8550833 0.4007276
0.3127903 0.89056975 -0.91781473 0.474428 -0.024071546 -0.18018407 -0.6251371 0.19635977
-0.11898521 -0.51568973 0.323193 0.25003016 -0.54034805 -0.5280764 -0.008057351 -0.29436463

fc2.bias f4 [128]
00000000: febd 87bf b951 83bf 4a39 35bf 76ff bdbf
00000010: 7935 a5bf 8f55 89bf 6f91 f9bf 5375 a4bf
00000020: e05e b9bf aa39 83bf fe55 d2bf 5e12 97bf
00000030: 1aac cbbf 9fd7 4ebf 2679 96bf 718e 9ebf
00000040: 4bbc 87bf 448e 80bf 41a5 babf 32ab 9abf
00000050: fc7a 97bf ebd7 92bf 1d23 75bf 0c77 75bf
00000060: e4de 9ebf cf61 c0bf 764a c0bf c3be 2cbf
00000070: 12ac 95bf 4465 edbe 8e08 98bf dd3d 1fbf
00000080: 67aa 76bf 9b47 8dbf 80a8 92bf 3f3c 8cbf
00000090: 73a3 16bf 9eb6 a4bf d871 09bf 3c7e 68bf
000000a0: 4bc7 98bf 4991 4ebf ad49 b3bf 98cd 94bf
000000b0: 9cf2 5ebf 58d1 83bf c9a9 8fbf d24b 65bf
000000c0: 58cf 66bf ed67 0cbf 77ca 74bf cbe3 85bf
000000d0: 4d1a 53bf 9066 b3bf 8b82 bfbf 539c c1bf
000000e0: 2f15 aabf e2a6 8dbf 72f3 82bf f1ac ddbf
000000f0: e82e 84bf 3743 a0bf 55d6 97bf fb94 5fbf
00000100: 50e3 58bf a379 8dbf 2947 7abf a760 0ebf
00000110: 7542 b0bf 0fee 90bf b97a e4bf e76c 5bbf
00000120: 604f 8ebf 7544 1dbf f085 85be 4f4d 9dbf
00000130: 33e4 26bf 6842 01c0 0cbe c5bf 69e0 6abf
00000140: 128a acbf 37cf 8fbf f323 b8bf dca2 b5bf
00000150: d8ad 75bf c7fa a5bf 247e 8cbf b342 44bf
00000160: 65c0 85bf 5b13 8bbf bf20 40bf 5bd0 7fbf
00000170: fe21 a6bf d813 73bf 1efe 71bf 09bc 8bbf
00000180: 84db 3abf b4a3 79bf 3d4f 59bf eb39 bdbf
00000190: 54d4 82bf 9e3e aabf 1c7b 41bf 8028 8dbf
000001a0: cd27 ccbf 8f82 6bbf 71a7 d2bf 8381 bdbf
000001b0: d6e2 4fbf 67b1 90bf 631f aebf 36b3 24bf
000001c0: 5085 69bf 01d2 66bf 8318 c7bf ad89 60bf
000001d0: 5822 5cbf c56c 8cbf e95e a1bf ebda 51bf
000001e0: 9d4b 3bbf c752 adbf bd94 73bf 6991 01c0
000001f0: 684f 52bf 98f3 1abf 349f 50bf 0a7b b6bf
-1.0604856 -1.0259315 -0.7079054 -1.4843585 -1.2906944 -1.0729235 -1.9497508 -1.2848305
-1.4482079 -1.0251973 -1.6432493 -1.180248 -1.5911896 -0.8079776 -1.1755722 -1.238722
-1.0604337 -1.0043416 -1.4581681 -1.2083495 -1.1834407 -1.1472143 -0.95756704 -0.95884776
-1.2411771 -1.5029849 -1.5022724 -0.6747858 -1.1693137 -0.46366322 -1.1877611 -0.6220377
-0.96353763 -1.1037477 -1.1457672 -1.0955886 -0.58843154 -1.286823 -0.53689337 -0.9081762
-1.1935819 -0.8069044 -1.4006859 -1.1625242 -0.8708894 -1.0298262 -1.1223689 -0.8956882
-0.9016013 -0.5484608 -0.95621437 -1.0460142 -0.82462007 -1.4015675 -1.4961714 -1.5125831
-1.3287715 -1.1066554 -1.0230544 -1.7318403 -1.0326815 -1.2520512 -1.1862284 -0.873367
-0.8472185 -1.1052746 -0.9776483 -0.5561623 -1.3770281 -1.132265 -1.7849952 -0.85713047
-1.1117973 -0.6143258 -0.2607875 -1.2289218 -0.65191954 -2.019678 -1.5448623 -0.9174867
-1.3479636 -1.1235112 -1.4385971 -1.4190326 -0.9596839 -1.2967156 -1.0975995 -0.76664275
-1.0449339 -1.0865282 -0.75049967 -0.999273 -1.2979124 -0.94952154 -0.9452838 -1.0916759
-0.72991204 -0.97515416 -0.84886533 -1.47833 -1.0221047 -1.3300359 -0.75578475 -1.1027985
-1.5949646 -0.9199609 -1.6457349 -1.4805149 -0.812055 -1.1304139 -1.3603328 -0.64335954
-0.91219044 -0.9016419 -1.5554355 -0.87710077 -0.85989904 -1.0970694 -1.2607089 -0.8197467
-0.7316225 -1.3540887 -0.9514883 -2.0245001 -0.82152414 -0.60527945 -0.81492925 -1.4256299

fc3.weight f4 [1, 128]
00000000: 49db 8b3c 1fd9 6f3c cd25 ac3b b427 37be
00000010: c0b3 bf3c c9b4 8cbc 0ffc 40bd 5d44 e13b
00000020: 59cd b6ba e136 473c 0a95 c63c 941d 8cbd
00000030: 1a32 a0bc bd23 fd3b 5a3c b9bc 689d 383d
00000040: 7966 2fbc e56c 5c3c de20 3d3d 0781 6bbc
00000050: 220b 15bd cef4 aebb 42e7 1a3c 0b40 6cbc
00000060: 501c 063c 80d8 89bc 4735 663c fbdd 40bc
00000070: ed8d 033d 20e2 cbbc cdd8 d13c 7fd3 d73b
00000080: c635 b83c 7be0 d33b 0462 533c c2f5 c3bc
00000090: d27a b73b 29fe ac3c c73d 9f3b 93ad 9fbb
000000a0: f887 413c 04b4 babb 3850 6cbd cb9d 673c
000000b0: 3dc9 813d 4c62 643c 20e9 b83c a830 ae3d
000000c0: cd10 ca3c 6db6 d6bc 03f0 8abc 4ad5 1c3c
000000d0: 1a37 8f3c d6f8 a5bd faf2 cabb be65 fb3d
000000e0: 19f8 483d 8b5a 89bc ccea a0bd 7cc4 973c
000000f0: ca97 893c 7bd6 93bc e538 653d 5b49 4cbb
00000100: 968f 6b3c e020 3d3c b239 a83b 8d02 593c
00000110: 6414 13bd 1fe8 7c3c ac66 c4bd 0c28 9ebb
00000120: 36f8 043e 6953 57bc 916b fbbb 9df0 0dbd
00000130: d32d 663c c4be 50bd 7d0f 983c b01d 743d
00000140: 91be a23c 152d ef3c 5a72 06be e6fa f9bd
00000150: 68ab 4cbd a14f 8d3c a029 04bc ae30 c6bb
00000160: d0f3 893c 6b2f cfbc 8369 e73c a1aa 1c3e
00000170: b65c bb3d 7d03 4c3c ec28 44bc def6 0bbb
00000180: bfe0 19bc b4bd 193c 39e0 92bc ba0d 83bc
00000190: e97f a1bd fac3 093d ed94 523d 0816 963c
000001a0: 27de 12bd 0215 99bb 78e0 233c bea4 713c
000001b0: 5196 b93c 53ce 9cbd 420c 59bd 125f de3c
000001c0: 0418 093c df11 1c3c 2918 07be b3b5 f93c
000001d0: 33a3 d1bb f773 f8bb f265 443c c6b4 db3c
000001e0: 7927 583d 04eb ec3c ce88 21bc b90e 3abc
000001f0: 90b8 99bb 3514 243c 94cb 6cbd cdfd 3f3d
0.017072337 0.014639168 0.0052535296 -0.1788624 0.023401141 -0.017176049 -0.04711538 0.0068746046
-0.0013946696 0.01215908 0.02424099 -0.06841579 -0.01955514 0.0077252076 -0.022611786 0.04507199
-0.010705584 0.013453697 0.046173923 -0.014374024 -0.03638757 -0.0053392416 0.00945455 -0.014419566
0.008185461 -0.016826868 0.014050788 -0.011771674 0.032117773 -0.024888098 0.025616074 0.0065864916
0.022486579 0.006465969 0.012901787 -0.023920897 0.005599358 0.021117287 0.0048596594 -0.0048729866
0.011812203 -0.005697729 -0.05769369 0.014136742 0.06337211 0.013939451 0.0225721 0.08505374
0.024666214 -0.026210034 -0.01696015 0.009572336 0.01748233 -0.08104102 -0.006193516 0.12275265
0.04906473 -0.016766807 -0.07857284 0.018526308 0.016796011 -0.018046608 0.055962462 -0.0031171653
0.014377495 0.011543483 0.005133831 0.013245237 -0.035908118 0.015436201 -0.095898956 -0.0048265513
0.1298531 -0.013142445 -0.007672735 -0.034653295 0.014049011 -0.05096318 0.018562073 0.059598625
0.01986626 0.029196301 -0.13129559 -0.12206058 -0.049968153 0.017249884 -0.008066565 -0.0060482835
0.016839892 -0.025291165 0.028248554 0.15299465 0.091485426 0.012452004 -0.011972647 -0.002135686
-0.009391963 0.009383608 -0.017929183 -0.015997756 -0.07885725 0.033634163 0.051411558 0.018321052
-0.035856392 -0.004671694 0.010002248 0.01474875 0.022654684 -0.07656541 -0.052990206 0.027144942
0.008367542 0.009525745 -0.1319281 0.030482149 -0.0063976287 -0.0075821835 0.011987196 0.026819598
0.05277202 0.028920658 -0.009859277 -0.011356049 -0.004691191 0.010014583 -0.057811335 0.046872903
