models/checkpoint_critic_local_0.pth (torch_old, 94696 bytes, 5 tensors)

fc1.weight f4 [128, 48]
0.4185594 0.15988302 -0.10853762 -0.14808816 0.30351737 0.6501361 -0.023387771 -0.0689253
0.4823616 0.06536002 0.1503745 0.7226449 0.47226733 0.67325264 0.1367304 0.70223355
0.3649723 0.05275369 -0.16406813 0.9017723 0.25868803 0.49473843 -0.20954233 0.9334267
0.25133795 0.0028625047 -0.3505477 -0.2936085 -0.4174747 0.7488539 -0.3040469 -0.39185697
0.29413822 -0.2318211 0.12560166 -0.85270613 -0.59097016 0.6572395 0.110787526 -0.857559
0.40857446 -0.29999155 -0.13611357 -0.5322486 -0.14920448 0.5960144 -0.15015498 -0.49914822
-0.026230443 0.120584235 -0.059502926 0.16308711 0.30191615 -0.03745066 -0.002732503 0.14932488
-0.05334386 0.10743716 -0.31067163 0.17703392 -0.07579858 -0.3942018 -0.19287652 0.19795187
0.17374206 -0.012057416 -0.2693641 0.30887195 -0.18680157 -0.56542 -0.23396666 0.33774677
0.8647758 0.8609971 0.18480287 0.795683 -0.2218032 -0.07015636 0.25457788 0.6492311
0.699107 1.1141312 0.17303397 0.32994616 0.0018873616 -0.3514456 0.15922783 0.34307498
0.80663633 1.123307 -0.04912062 0.0731616 0.18154879 -0.43303144 -0.14926341 0.08826758
0.657049 -0.93679243 -0.061827313 0.4385034 0.37606204 -0.19281451 -0.11878874 0.4399129
0.6574734 -0.91489995 0.064501405 0.06953638 -0.03325309 -0.26487362 0.0848226 0.067056514
0.58485144 -1.0742838 -0.28957868 -1.2775515 -0.13703905 -0.12138739 -0.2896036 -1.2252567
0.15636656 -1.1782708 0.5711813 -0.35401013 -0.32993132 -0.056136087 0.5560105 -0.30785415
0.4677076 -1.031675 -0.107219726 -0.35237032 -0.031059733 -0.3531843 -0.1477772 -0.2899378
0.25172183 -0.92052263 -0.07043037 1.0475458 0.17539519 -0.048994124 0.019456098 1.091664
0.52027607 -0.6990526 0.0951204 -0.08456553 0.18987873 -0.40701973 0.059130117 -0.050568413
0.26267633 -0.78417575 -0.07793698 -0.007564081 0.18758018 -0.18913087 -0.10988323 -0.014158231
0.14702989 -0.47197962 -0.13931891 0.9400264 0.09409616 -0.0374021 -0.057187885 0.8946807
0.3039693 0.18950874 -0.39921355 0.49456513 -0.31014222 -0.32886964 -0.27261826 0.60597193
0.3882232 -0.07787648 0.63761914 0.2158492 -0.1550249 -0.19941047 0.673897 0.11670956
0.26808327 0.038209125 -0.074229024 0.0534387 -0.07361857 0.112600364 -0.03636731 0.015550275
0.2058077 0.46458632 0.0924821 0.37118176 -0.03952862 0.21219653 0.03191204 0.3925092
0.29064122 0.46755645 -0.17884612 0.25063157 -0.44002178 0.122804776 -0.08489362 0.18555515
0.3010935 0.5325745 -0.2933247 -0.41875127 -0.59102297 -0.10360491 -0.17718108 -0.42606124
-0.13873106 0.39430067 -0.13995717 -0.36975574 0.037525784 0.30982 -0.25574985 -0.42476404
0.14464383 0.53351897 0.2419319 0.3317044 0.32312253 0.1456093 0.097688004 0.34192362
0.16542944 0.6710014 -0.20440662 0.19607595 0.52938896 -0.16186297 -0.16253427 0.24584757
-0.23869687 0.8407518 -0.041099265 -0.30000052 0.21694838 0.50296324 0.028404497 -0.21142735
0.28929514 0.5705654 0.15314105 -0.316409 0.31700146 0.10684671 0.113774486 -0.3454904
00000000: 6b4d d63e 60b8 233e f948 debd 6ca4 17be
00000010: a166 9b3e 526f 263f b697 bfbc b528 8dbd
00000020: 1af8 f63e 79db 853d c6fb 193e 42ff 383f
00000030: 06cd f13e 495a 2c3f 0e03 0c3e 94c5 333f
00000040: a6dd ba3e 4114 583d 7a01 28be 8dda 663f
00000050: c272 843e 5b4e fd3e 4492 56be 0df5 6e3f
00000060: 5eaf 803e dc98 3b3b fd7a b3be da53 96be
00000070: 3ebf d5be e4b4 3f3f 09ac 9bbe 7aa1 c8be
00000080: 4999 963e 8362 6dbe b99d 003e f34a 5abf
00000090: d249 17bf d940 283f 92e4 e23d fd88 5bbf
000000a0: ac30 d13e 7e98 99be 5b61 0bbe 7241 08bf
000000b0: 0fc9 18be 6694 183f 3ac2 19be 5b90 ffbe
000000c0: 3ae1 d6bc def4 f63d 57b9 73bd 4f00 273e
000000d0: c194 9a3e dd65 19bd cb13 33bb 9fe8 183e
000000e0: 177f 5abd 0408 dc3d 5a10 9fbe 6148 353e
000000f0: 493c 9bbd d1d4 c9be 6c81 45be e5b3 4a3e
00000100: 70e9 313e 788c 45bc 17ea 89be 7724 9e3e
00000110: e948 3fbe 5dbf 10bf f594 6fbe 25ed ac3e
00000120: f261 5d3f 4e6a 5c3f f73c 3d3e e2b1 4b3f
00000130: 6120 63be 23ae 8fbd 0858 823e 0234 263f
00000140: adf8 323f da9b 8e3f d12f 313e b4ee a83e
00000150: 5961 f73a adf0 b3be 9f0c 233e 86a7 af3e
00000160: b87f 4e3f 86c8 8f3f b432 49bd c0d5 953d
00000170: ede7 393e 4cb6 ddbe 82d8 18be a2c5 b43d
00000180: 5d34 283f a1d1 6fbf a33e 7dbd 8583 e03e
00000190: 348b c03e 2b71 45be 8347 f3bd 433c e13e
000001a0: 2d50 283f e236 6abf 5019 843d 1769 8e3d
000001b0: 6434 08bd 849d 87be 79b7 ad3d ed54 893d
000001c0: d3b8 153f 2282 89bf a843 94be cf86 a3bf
000001d0: f753 0cbe f499 f8bd ec46 94be 36d5 9cbf
000001e0: 8e1e 203e 94d1 96bf f038 123f d140 b5be
000001f0: c2ec a8be f4ee 65bd b456 0e3f 0f9f 9dbe
00000200: 5f77 ef3e ed0d 84bf 0496 dbbd e269 b4be
00000210: fb70 febc 93d4 b4be e852 17be ba72 94be
00000220: afe1 803e 5fa7 6bbf cc3d 90bd fb15 863f
00000230: cc9a 333e 10ae 48bd 6562 9f3c a5bb 8b3f
00000240: d030 053f 1cf5 32bf 7cce c23d b130 adbd
00000250: 926f 423e e464 d0be 6c32 723d d320 4fbd
00000260: 837d 863e bebf 48bf 6c9d 9fbd 1cdc f7bb
00000270: 0515 403e 86ab 41be 750a e1bd edf7 67bc
00000280: 018f 163e 50a7 f1be 9ea9 0ebe 92a5 703f
00000290: 7db5 c03d f232 19bd d83d 6abd cb09 653f
000002a0: dda1 9b3e 940e 423e b865 ccbe a437 fd3e
000002b0: f6ca 9ebe 9a61 a8be 9f94 8bbe fa20 1b3f
000002c0: 31c5 c63e b47d 9fbd 023b 233f 9307 5d3e
000002d0: d9be 1ebe 4232 4cbe 8484 2c3f 6c05 ef3d
000002e0: 3642 893e 2c81 1c3d 6305 98bd 8ae2 5a3d
000002f0: 55c5 96bd 059b e63d e3f5 14bd 95c6 7e3c
00000300: 41bf 523e 42de ed3e 4167 bd3d 890b be3e
00000310: c3e8 21bd 0c4a 593e 33b6 023d f7f6 c83e
00000320: edce 943e 8f63 ef3e 7023 37be c852 803e
00000330: 894a e1be 1281 fb3d b5dc adbd 2b02 3e3e
00000340: ed28 9a3e cd56 083f a82e 96be 9166 d6be
00000350: 484d 17bf d02e d4bd f56e 35be b324 dabe
00000360: 840f 0ebe c7e1 c93e ef50 0fbe a050 bdbe
00000370: a3b4 193d baa0 9e3e a5f1 82be ac7a d9be
00000380: 831d 143e b394 083f ffbc 773e 29d5 a93e
00000390: 5170 a53e 9b1a 153e a610 c83d 9d10 af3e
000003a0: 5666 293e bfc6 2b3f f84f 51be 22c8 483e
000003b0: 0986 073f 68bf 25be 626f 26be 77bf 7b3e
000003c0: f46c 74be 833b 573f b457 28bd ab99 99be
000003d0: b727 5e3e 33c2 003f 8cb0 e83c 6980 58be
000003e0: 7e1e 943e 9310 123f 02d1 1c3e 5c00 a2be
000003f0: 044e a23e 73d2 da3d 9902 e93d 1ee4 b0be

fc1.bias f4 [128]
0.11987537 -0.4564464 0.25470573 0.21506187 -0.60959554 -0.11372061 0.10169439 -0.47635496
-1.2403198 -0.1815626 0.09913466 0.26125705 -0.4753345 -0.89427584 -0.12831196 -0.8305317
0.049065463 -0.6721923 -0.3317679 -0.07959479 -0.3290304 -0.5476513 -0.0083736675 0.19503224
-0.13292605 -0.34417188 -0.10989887 -0.70891935 -0.94067675 -1.012789 0.16448945 -0.29568404
-0.10986029 -0.45697615 -0.44452775 -0.79152614 0.11696627 -0.8947614 -0.7092624 -0.16967392
0.3741044 -0.27224475 0.17880145 -0.28214154 -0.48521328 -0.24327421 -0.1762437 0.064181305
-1.5261296 0.035396125 -0.50659794 -0.22724803 -0.27847096 0.11919057 -0.11020982 0.20114306
-0.6294069 -0.6487103 -0.8425914 -0.8719175 -0.4314964 -0.57177573 -0.9055815 -0.16033348
0.07208611 -0.23679055 -0.17344724 -0.47025207 0.041687787 -0.6943516 -0.18282524 -0.38397753
-0.70062494 -0.0020673247 -0.39629108 0.169138 -0.6788461 -0.72159666 -0.058299035 -0.10383108
-0.5516771 -0.745259 -0.9952352 -0.24380936 -0.4288666 -0.21833186 -0.7024324 -0.7948271
-0.27646556 -0.7669892 -0.16917269 -0.12187101 -0.11969434 -0.20112261 -0.63985467 0.48932493
0.08914286 0.09082503 -0.7961872 -1.1409891 0.029036755 -0.032350797 -0.36152282 -0.44773352
-0.8661461 -0.13755764 -0.254508 -0.9544033 0.07105492 0.035548016 -0.65015656 0.05536865
-0.3471648 -0.22873737 -0.24077444 -0.29000667 -0.27729416 0.06810484 -0.43277776 -0.14124139
-0.2866199 -0.41016123 -1.0525917 0.084144704 -0.83166075 -0.39979646 0.108256355 -0.8075945
00000000: 3881 f53d 58b3 e9be ca68 823e 2e39 5c3e
00000010: 740e 1cbf 5ae6 e8bd 2645 d03d cce4 f3be
00000020: cdc2 9ebf 8ceb 39be 1d07 cb3d 7cc3 853e
00000030: 0b5f f3be 43ef 64bf 3664 03be ba9d 54bf
00000040: def8 483d cb14 2cbf 7bdd a9be 9802 a3bd
00000050: ac76 a8be e032 0cbf b531 09bc 88b6 473e
00000060: c41d 08be 4c37 b0be a912 e1bd bd7b 35bf
00000070: 31d0 70bf 12a3 81bf ec6f 283e e663 97be
00000080: 6ffe e0bd c7f8 e9be 2499 e3be 75a1 4abf
00000090: 038c ef3d 150f 65bf 3892 35bf 00bf 2dbe
000000a0: 9d8a bf3e aa63 8bbe ba17 373e db74 90be
000000b0: e06d f8be e01c 79be 3a79 34be 7d71 833d
000000c0: 3758 c3bf 87fb 103d 67b0 01bf b5b3 68be
000000d0: bf93 8ebe 301a f43d b0b5 e1bd 72f8 4d3e
000000e0: d020 21bf e111 26bf 12b4 57bf fc35 5fbf
000000f0: 19ed dcbe e55f 12bf 30d4 67bf 762e 24be
00000100: e2a1 933d 3979 72be 279c 31be e1c4 f0be
00000110: d0c0 2a3d 07c1 31bf 8a36 3bbe b498 c4be
00000120: 285c 33bf f47b 07bb aae6 cabe 8332 2d3e
00000130: dcc8 2dbf 8fba 38bf f8ca 6ebd 64a5 d4bd
00000140: b63a 0dbf 4bc9 3ebf bcc7 7ebf 29a9 79be
00000150: 6794 dbbe 6392 5fbe 9cd2 33bf ca79 4bbf
00000160: e58c 8dbe 6759 44bf 9b3b 2dbe 8297 f9bd
00000170: 4e22 f5bd 16f3 4dbe 84cd 23bf cc88 fa3e
00000180: 8890 b63d 7902 ba3d edd2 4bbf ee0b 92bf
00000190: 7dde ed3c 4582 04bd 8519 b9be 543d e5be
000001a0: c0bb 5dbf e9db 0cbe df4e 82be c653 74bf
000001b0: 3e85 913d cc9a 113d a970 26bf 3dca 623d
000001c0: 96bf b1be 213a 6abe 938d 76be c17b 94be
000001d0: 80f9 8dbe 8d7a 8b3d 0c95 ddbe 95a1 10be
000001e0: d8bf 92be a700 d2be 53bb 86bf 0f54 ac3d
000001f0: b8e7 54bf 1fb2 ccbe 82b5 dd3d 83be 4ebf

fc2.weight f4 [128, 132]
0.06061521 0.12582242 -0.0371689 -0.033314828 -0.020575747 -0.17364675 0.0028432237 -0.2295401
0.18557267 0.15793706 -0.53203034 -0.06010353 0.084337614 -0.01931705 -0.09149422 0.2358278
-0.19294965 0.30912355 0.2633711 -0.3943445 0.21902873 -0.06671997 -0.13586861 0.33188328
-0.240041 0.01286222 -0.34495503 0.20265672 0.10625529 0.17966084 -0.18833484 -0.080601655
-0.134417 -0.23092152 -0.46518373 0.1360634 -0.14223577 -0.30584973 0.013757949 -0.2903817
-0.079920195 -0.023142833 -0.18358546 -0.07885011 -0.15773024 0.34180313 0.2671066 -0.6076779
0.22279797 -0.104090415 0.18361795 0.007583551 0.07031398 0.048414793 0.13484524 -0.15789405
0.26258186 0.08862561 0.29370365 0.09515454 0.03452793 0.1964358 -0.021807047 0.3406542
-0.05017283 -0.10068471 -0.21628317 -0.08700482 -0.31028876 -0.17696846 -0.03932232 -0.23058285
0.27829614 -0.021400534 0.15699916 -0.094640866 0.26369008 -0.13840193 -0.37269336 -0.5039344
0.32706514 0.27968383 0.2377299 -0.008769558 0.32040873 -0.10306146 -0.19360007 0.27531704
-0.41257465 0.2676102 -0.412427 -0.07283421 -0.024908032 -0.22925262 -0.26218987 0.16688691
-0.3865517 0.36548004 -0.030679816 -0.19920824 -0.22749813 -0.15367566 -0.01179548 -0.010873224
-0.14995266 0.07846937 0.16346359 -0.29827142 0.015521908 -0.06441109 -0.012404269 -0.3339518
-0.4041532 -0.12112189 -0.2996296 -0.31052077 0.012113103 -0.014091628 -0.021568708 -0.07734397
0.13786274 0.17344934 0.23175687 -0.47181863 0.27918118 -0.20855819 -0.5408449 0.44283175
-2.7157047 -0.8149594 1.3364128 0.80396897 -0.007090373 0.11714349 -0.0075039533 -0.012317061
-0.030617516 -0.07988869 0.04443196 -0.08692526 0.04199393 -0.019482926 0.09860241 -0.019999808
-0.3378537 0.17409296 0.06848559 0.23845156 -0.06929657 0.08415001 -0.11525648 0.12592554
-0.025990779 0.039577313 0.049039632 0.0021329538 -0.13199957 -0.059501126 0.069507316 0.08538963
0.11530916 0.114284866 0.022531927 -0.06781664 -0.008565781 0.065658376 0.30744052 -0.20942202
-0.17742202 0.007505334 0.077857584 -0.09736312 -0.36304232 0.021708008 -0.2742367 0.00027487744
-0.017051313 -0.28433445 0.055344135 -0.0053961095 0.028052595 -0.017876765 -0.010549115 0.084158815
-0.17303865 -0.28148538 0.13376518 0.13183765 0.1185159 0.025937239 0.031017004 0.107515566
-0.06838577 -0.03162303 0.00171754 0.019424845 -0.08752807 -0.004489837 0.0006740369 -0.04094233
-0.008983349 -0.097843096 -0.0506198 -0.019714946 -0.02655358 0.020992937 0.03213731 0.006809059
-0.06253251 -0.07362938 0.0257845 -0.11088299 -0.24091245 -0.072956696 0.0520391 0.0007139635
0.06912224 0.04764639 0.06678607 0.15057172 -0.19309355 0.13689204 -0.022370439 -0.1368998
-0.37773108 0.16468197 -0.3405989 -0.04188025 0.101688825 -0.06263026 -0.29051518 -0.026520416
-0.06108918 -0.08202299 -0.069635645 0.045605563 0.0148414485 -0.18872158 0.022082271 -0.33611187
-0.1201786 0.12073785 -0.025757601 -0.120421566 -0.00402485 -0.0062560393 0.039220262 0.15915404
0.06945557 -0.025528267 -0.16674817 -0.0003152698 0.08118651 -0.13514793 -0.09077104 -0.11055494
00000000: a847 783d 98d7 003e 6b3e 18bd 2175 08bd
00000010: 788e a8bc 74d0 31be 6155 3a3b 8f0c 6bbe
00000020: c306 3e3e 41ba 213e 2433 08bf 1e2f 76bd
00000030: 33b9 ac3d ca3e 9ebc 5261 bbbd d87c 713e
00000040: 9894 45be 7145 9e3e 94d8 863e 86e7 c9be
00000050: 1149 603e 7ba4 88bd 2421 0bbe 9bec a93e
00000060: 4fcd 75be 10bc 523c f29d b0be 3e85 4f3e
00000070: 609c d93d 03f9 373e d9da 40be 7b12 a5bd
00000080: 9ca4 09be b176 6cbe 902c eebe 3454 0b3e
00000090: 41a6 11be 5698 9cbe 0569 613c e9ac 94be
000000a0: 33ad a3bd 0a96 bdbc d4fd 3bbe 2b7c a1bd
000000b0: 0984 21be d200 af3e 32c2 883e c790 1bbf
000000c0: 2725 643e 5b2d d5bd 5806 3c3e 707f f83b
000000d0: c700 903d 974e 463d df14 0a3e faae 21be
000000e0: 2171 863e 5881 b53d 5360 963e 62e0 c23d
000000f0: 296d 0d3d 7726 493e b1a4 b2bc 3a6a ae3e
00000100: 0682 4dbd c933 cebd 5679 5dbe 952f b2bd
00000110: 2bde 9ebe 3837 35be 7110 21bd e91d 6cbe
00000120: d57c 8e3e 2c50 afbc 63c4 203e 12d3 c1bd
00000130: 6302 873e 3cb9 0dbe aad1 bebe d801 01bf
00000140: 1575 a73e b832 8f3e 786f 733e 31ae 0fbc
00000150: 9d0c a43e e311 d3bd 193f 46be 5bf6 8c3e
00000160: fc3c d3be 3404 893e a229 d3be 1a2a 95bd
00000170: ee0b ccbc 33c1 6abe c03d 86be 67e4 2a3e
00000180: 1bea c5be 3320 bb3e 3d54 fbbc 3ffd 4bbe
00000190: 45f5 68be 275d 1dbe d441 41bc 9b25 32bc
000001a0: 318d 19be 8db4 a03d 0063 273e 08b7 98be
000001b0: 9a4f 7e3c f6e9 83bd 463b 4bbc bbfb aabe
000001c0: 2bed cebe c10e f8bd 0d69 99be 94fc 9ebe
000001d0: 0976 463c 92e0 66bc dcb0 b0bc 8466 9ebd
000001e0: e42b 0d3e b49c 313e ac51 6d3e 3692 f1be
000001f0: d6f0 8e3e 4790 55be d074 0abf d8ba e23e
00000200: 1bce 2dc0 2ea1 50bf 930f ab3f e9d0 4d3f
00000210: 5c56 e8bb ede8 ef3d b9e3 f5bb 80cd 49bc
00000220: 96d1 fabc ae9c a3bd 49fe 353d df05 b2bd
00000230: d401 2c3d a89a 9fbc 0ff0 c93d a3d6 a3bc
00000240: 29fb acbe 6d45 323e 2c42 8c3d a52c 743e
00000250: 5ceb 8dbd d756 ac3d 970b ecbd a0f2 003e
00000260: 9dea d4bc d21b 223d c8dd 483d 07c9 0b3b
00000270: e52a 07be 74b7 73bd da59 8e3d c2e0 ae3d
00000280: 3527 ec3d 2f0e ea3d e094 b83c 73e3 8abd
00000290: 7d57 0cbc e677 863d d868 9d3e ba72 56be
000002a0: 1eae 35be 4eef f53b cc73 9f3d 5166 c7bd
000002b0: afe0 b9be fed4 b13c c168 8cbe 6d1d 9039
000002c0: 32af 8bbc 4994 91be 88b0 623d d9d1 b0bb
000002d0: 8ece e53c 4b72 92bc 32d6 2cbc 755b ac3d
000002e0: 0b31 31be da1e 90be bdf9 083e 7300 073e
000002f0: 77b8 f23d 557a d43c 5f17 fe3c 1f31 dc3d
00000300: d70d 8cbd 2687 01bd 141f e13a da20 9f3c
00000310: eb41 b3bd 7c1f 93bb dab1 303a 25b3 27bd
00000320: e62e 13bc f661 c8bd b556 4fbd 3d81 a1bc
00000330: e586 d9bc 61f9 ab3c 69a2 033d 871e df3b
00000340: 0b11 80bd 00cb 96bd 043a d33c 9f16 e3bd
00000350: c1b1 76be 526a 95bd f426 553d 4829 3b3a
00000360: f68f 8d3d dc28 433d 23c7 883d 792f 1a3e
00000370: 51ba 45be 6d2d 0c3e 3642 b7bc 762f 0cbe
00000380: f865 c1be 64a2 283e fb62 aebe a08a 2bbd
00000390: 3b42 d03d 4b44 80bd 68be 94be 5841 d9bc
000003a0: a638 7abd abfb a7bd 229d 8ebd e6cc 3a3d
000003b0: 8c29 733c 3b40 41be e1e5 b43c db16 acbe
000003c0: 3320 f6bd 6845 f73d 9b01 d3bc 959f f6bd
000003d0: e4e2 83bb 76ff ccbb 6da5 203d 47f9 223e
000003e0: b93e 8e3d a820 d1bc 08c0 2abe cc4a a5b9
000003f0: 1d45 a63d 3864 0abe 2be6 b9bd a16a e2bd

fc2.bias f4 [128]
-0.20927976 -0.20566016 -0.08670991 -0.28114545 -0.2121528 -0.5907098 -0.18310931 -0.5343162
-0.42512152 -0.5875222 -0.53874457 -0.30632716 -0.4614981 -0.40344185 -0.13869232 -0.45791203
-0.27648082 -0.37649304 -0.17219634 -0.02263685 -0.38803318 -0.21968666 -0.38464913 -0.422388
-0.54640466 -0.14960866 -0.4646137 -0.34314808 -0.13270527 -0.42410263 -0.18159351 -0.3663925
-0.292758 -0.505735 -0.24520051 -0.39223766 -0.17191271 -0.55937487 -0.25163132 -0.23220225
-0.5140644 -0.35201952 -0.36831823 -0.49469975 -0.1965858 -0.41662923 -0.20548248 -0.23493764
-0.5509685 -0.277553 -0.6677294 -0.49340197 -0.34406188 -0.3170254 -0.11628847 -0.091529734
-0.43951616 -0.3639242 -0.25745144 -0.54634696 -0.1897241 -0.3031175 -0.18305448 -0.46758825
-0.39187735 -0.31352723 -0.3372823 -0.61591697 -0.70543295 -0.44084394 -0.41553485 -0.26115826
-0.43604815 -0.43466255 -0.37791246 -0.65880334 -0.3609519 -0.42614606 -0.2114825 -0.095600896
-0.1637003 -0.2138195 -0.5540733 -0.51578015 -0.6131685 -0.42366934 -0.41862288 -0.41463348
-0.12258918 -0.5496522 -0.18954305 -0.42784643 -0.33134007 0.0256779 -0.6232414 -0.5966115
-0.11616111 -0.086447924 -0.43364733 -0.34709165 -0.27840132 -0.2285094 -0.27865458 -0.049360737
-0.55363727 -0.36646065 -0.10623172 -0.3525328 -0.03542781 -0.46929944 -0.25908136 -0.46285203
-0.3271145 -0.47447187 -0.3649265 -0.53973943 -0.28240502 -0.58513206 -0.42724362 -0.29743758
-0.60786796 -0.2570461 -0.36530733 -0.1246421 -0.2732199 -0.40161756 -0.3302342 -0.3067254
00000000: 6f4d 56be 9498 52be f794 b1bd 4cf2 8fbe
00000010: 953e 59be c238 17bf 0281 3bbe f2c8 08bf
00000020: 87a9 d9be db67 16bf 2aeb 09bf ead6 9cbe
00000030: 7b49 ecbe ee8f cebe 5c05 0ebe 7273 eabe
00000040: e58e 8dbe b2c3 c0be 3d54 30be ea70 b9bc
00000050: 49ac c6be 8af5 60be bbf0 c4be 3d43 d8be
00000060: 2de1 0bbf 0333 19be d9e1 edbe 1bb1 afbe
00000070: e4e3 07be fb23 d9be a6f3 39be cc97 bbbe
00000080: 60e4 95be d977 01bf d815 7bbe 60d3 c8be
00000090: e309 30be 3133 0fbf d2d5 80be 6dc6 6dbe
000000a0: b999 03bf e73b b4be 3594 bcbe 4949 fdbe
000000b0: ca4d 49be 6d50 d5be 006a 52be 7e93 70be
000000c0: 460c 0dbf 6d1b 8ebe 50f0 2abf 2f9f fcbe
000000d0: e128 b0be 2751 a2be a628 eebd f173 bbbd
000000e0: 4308 e1be 4654 babe add0 83be 65dd 0bbf
000000f0: 0947 42be 3832 9bbe a272 3bbe ba67 efbe
00000100: 26a4 c8be a486 a0be 44b0 acbe bcac 1dbf
00000110: 4197 34bf 4cb6 e1be fcc0 d4be 89b6 85be
00000120: b441 dfbe 178c debe be7d c1be 56a7 28bf
00000130: b0ce b8be d12f dabe de8e 58be 67ca c3bd
00000140: 0da1 27be 80f3 5abe bfd7 0dbf 2b0a 04bf
00000150: 9cf8 1cbf 30eb d8be bd55 d6be d74a d4be
00000160: 0910 fbbd 02b6 0cbf 9317 42be b00e dbbe
00000170: 68a5 a9be 765a d23c c08c 1fbf 88bb 18bf
00000180: e0e5 edbd 9c0b b1bd 0607 debe ffb5 b1be
00000190: 9e8a 8ebe 5efe 69be d0ab 8ebe 7c2e 4abd
000001a0: 2cbb 0dbf bba0 bbbe 0490 d9bd 2e7f b4be
000001b0: c01c 11bd 0448 f0be 50a6 84be f1fa ecbe
000001c0: 8d7b a7be faed f2be a5d7 babe 5d2c 0abf
000001d0: 6497 90be 37cb 15bf adbf dabe bd49 98be
000001e0: 3c9d 1bbf 8c9b 83be 9009 bbbe 5b44 ffbd
000001f0: 7be3 8bbe d1a0 cdbe 7514 a9be 1d0b 9dbe

fc3.weight f4 [1, 128]
-0.005895371 -0.0017451127 0.005908912 0.004978776 0.0062658642 -0.04141958 -0.0051629613 0.013454555
-0.028779443 -0.0011108997 -0.004661279 -0.0066765016 0.016838443 -0.010486277 0.003955167 0.0025875156
0.0075702434 0.0069522713 -0.00379197 -0.0032231596 0.001938484 -0.005576 0.0038888971 -0.02037616
0.023725187 -0.0029793896 0.00841467 0.0020186643 0.004476464 0.006497847 -0.042663854 -0.004441179
-0.007372286 0.0047226637 0.016863246 -0.019791925 -0.0022645711 -0.02897609 0.004305227 0.00052020466
0.003042395 0.0015773465 0.0028281156 0.018355854 -0.005278986 -0.033894315 0.0067761657 -0.0019226096
0.003245243 -0.009099113 0.009444639 0.003085071 -0.014210939 0.005627682 -0.0027023703 -0.006471411
0.0024142314 0.0031696255 0.0051560975 -0.017951922 -0.013794631 -0.010937669 -0.010781777 0.009659982
0.0013426326 0.026440248 0.005081268 0.0012754784 -0.016585376 -0.009771916 0.024453003 -0.009914925
0.036940295 0.0021973727 -0.0026154108 0.0077061807 0.004272535 0.029399607 -0.0052997204 -0.000885196
0.004522488 -0.0033462332 0.009603439 0.018679194 -0.058106188 0.0073797726 0.04055796 0.0035481558
-0.0068866764 -0.046907026 -0.0032985942 0.0079675475 0.028277567 -0.0006710768 0.006086184 -0.019000543
-0.006871705 -0.00679295 0.008705031 0.02154856 -0.0022610996 0.04458163 0.00575885 -0.0034251607
0.005441273 -0.0040482357 -0.0009627205 -0.0333893 -0.0027432966 0.0073808613 0.0040075257 0.007417602
0.009340487 0.010733413 -0.034447853 0.025282435 0.022170305 0.0073146923 0.031187836 0.0078027057
-0.048576977 0.011974539 -0.0005724829 -0.0024348213 -0.027236074 0.004120572 0.0051012654 0.004781058
00000000: f52d c1bb 44bc e4ba 8c9f c13b 0025 a33b
00000010: e151 cd3b 94a7 29bd 0f2e a9bb 7e70 5c3c
00000020: dec2 ebbc 9c9b 91ba a4bd 98bb 8ec6 dabb
00000030: c6f0 893c a2ce 2bbc 589a 813b 4f93 293b
00000040: ce0f f83b e1cf e33b b382 78bb a53b 53bb
00000050: bb14 fe3a e1b6 b6bb dedc 7e3b e8eb a6bc
00000060: 535b c23c dd41 43bb afdd 093c 914b 043b
00000070: 4daf 923b e4eb d43b 4bc0 2ebd 4f87 91bb
00000080: 3893 f1bb 93c0 9a3b ca24 8a3c ad22 a2bc
00000090: 3369 14bb 445f edbc dd12 8d3b 585e 083a
000000a0: eb62 473b f7be ce3a e857 393b 045f 963c
000000b0: 58fb acbb c4d4 0abd 990a de3b 1300 fcba
000000c0: 25ae 543b 7214 15bc b0bd 1a3c e72e 4a3b
000000d0: 00d5 68bc 6b68 b83b 401a 31bb 210e d4bb
000000e0: 1538 1e3b 7eb9 4f3b 7bf4 a83b e90f 93bc
000000f0: e002 62bc e933 33bc 0da6 30bc e744 1e3c
00000100: 46fb af3a 3899 d83c c480 a63b f42d a73a
00000110: 0ede 87bc 631a 20bc aa51 c83c 3672 22bc
00000120: b54e 173d cc01 103b 5067 2bbb 2184 fc3b
00000130: 9f00 8c3b 72d7 f03c 47a9 adbb 7f0c 68ba
00000140: 6131 943b 7a4c 5bbb be57 1d3c 1c05 993c
00000150: c100 6ebd 05d2 f13b 1a20 263d 2d88 683b
00000160: a1a9 e1bb 9521 40bd 3a2d 58bb 518a 023c
00000170: 5ba6 e73c 34eb 2fba 9d6e c73b 07a7 9bbc
00000180: 0a2c e1bb 6597 debb 8c9f 0e3c 9b86 b03c
00000190: f52e 14bb 3a9b 363d bcb4 bc3b a978 60bb
000001a0: b54c b23b 10a7 84bb 145f 7cba 38c3 08bd
000001b0: e1c8 33bb 27db f13b 9051 833b 5b0f f33b
000001c0: d808 193c 32db 2f3c 3119 0dbd 1c1d cf3c
000001d0: 809e b53c 16b0 ef3b a27d ff3c d7ad ff3b
000001e0: a7f8 46bd db30 443c ad12 16ba 8691 1fbb
000001f0: 301e dfbc dd05 873b 8428 a73b 6caa 9c3b
